results/ia7/PlayerScript.onnx (onnx, 89542 bytes, 7 tensors)

network_body._body_endoder.seq_layers.0.weight f4 [128, 39]
0	0xbdcfa159	-0.101381965
1	0x3e433c5e	0.19065997
2	0x3e7a1e6d	0.24425669
3	0xbcf6493a	-0.030064214
4	0x3e1276a9	0.14303078
5	0x3d57906a	0.05262796
6	0xbeb5190b	-0.3537067
7	0x3e1d4074	0.15356618
8	0x3de5c1c4	0.112185985
9	0x3d9a7a78	0.0754289
10	0x3ddbe32a	0.107366875
11	0xbdbabd8d	-0.09118185
12	0x3dbc2ef4	0.09188643
13	0x3d898874	0.067154795
14	0x3d173e0c	0.036924407
15	0xbddcbe8d	-0.10778532
16	0xbeaaa8a1	-0.3333178
17	0xbe8ecaa3	-0.27888975
18	0x3bcb320a	0.0062010335
19	0xbcc4475e	-0.023959812
20	0xbe252bf5	-0.1613005
21	0x3e00a327	0.12562238
22	0x3e153432	0.14570692
23	0x3e003bcc	0.1252281
24	0xbd244da4	-0.040113106
25	0xbb5a0f66	-0.0033273338
26	0x3e15c41c	0.14625591
27	0x3dd4d8f0	0.1039294
28	0x3e659923	0.22421698
29	0xbdd37966	-0.10325889
30	0x3e77d118	0.24200857
31	0xbe202c54	-0.1564191
32	0x3dc79438	0.09745067
33	0xbe3a0c91	-0.18168856
34	0x3cd7abf4	0.02632711
35	0x3e5fec14	0.218674
36	0x3e264222	0.16236165
37	0x3d92c8a9	0.07167179
38	0x3c872d22	0.016501013
39	0x3e1e3a78	0.15451992
40	0x3d9425eb	0.07233795
41	0xbda52ab4	-0.080647856
42	0x3e1968aa	0.14981332
43	0x3b830864	0.003998803
44	0x3e184b72	0.1487253
45	0xbdd1ab91	-0.10237802
46	0xbdd230d9	-0.10263223
47	0xbe5fc9bf	-0.21854304
48	0xbd474620	-0.04865086
49	0xbe65209a	-0.22375718
50	0xbe306c4b	-0.1722881
51	0xbcd0f250	-0.025506169
52	0x3e3902ae	0.18067428
53	0xbdb21269	-0.08694918
54	0xbce9057d	-0.028445
55	0x3c990d41	0.018683078
56	0xbddca013	-0.10772719
57	0xbebb7b64	-0.36617577
58	0xbe059a7e	-0.13047215
59	0x3e6956e6	0.22787055
60	0xbd60cdfe	-0.05488395
61	0x3c878289	0.016541736
62	0x3d776616	0.06040009
63	0xbdc4f259	-0.09616537
64	0xbc3f071a	-0.011659408
65	0xbca83f49	-0.02053799
66	0x3e0d5e1c	0.13805431
67	0x3e8c0fef	0.27355906
68	0xbd61dd1e	-0.055142514
69	0xbd4fe392	-0.050754137
70	0x3cf238f3	0.029568171
71	0xbdb881ed	-0.090091564
72	0xbe320e3d	-0.17388244
73	0xbcf245cb	-0.029574296
74	0x3db61ec8	0.0889259
75	0xbe2e050b	-0.16994111
76	0xbdf73314	-0.12070289
77	0x3b82e21b	0.003994239
78	0xbd1b9dff	-0.037992474
79	0xbe16082e	-0.14651558
80	0x3d224e05	0.039625186
81	0xbd98188c	-0.07426557
82	0xbe1860c6	-0.14880666
83	0x3e50ba79	0.20383634
84	0x3dc963c2	0.098334804
85	0x3e47bfcb	0.19506757
86	0xbea5f38e	-0.3241238
87	0x3c8d46ba	0.01724564
88	0xbd80fe00	-0.06298447
89	0x3d57c383	0.05267669
90	0x3e1a5860	0.15072775
91	0xbe98de99	-0.2985733
92	0x3de05cd6	0.10955207
93	0x3de0d37b	0.10977837
94	0x3c02d14a	0.007984469
95	0xbe39dc66	-0.18150482
96	0x3e980a15	0.29695192
97	0xbe1b0542	-0.15138724
98	0xbe0f4d5c	-0.13994354
99	0x3cc72a2e	0.024312105
100	0xbd00e449	-0.03146771
101	0x3d290762	0.041266806
102	0xbede7401	-0.4344788
103	0x3b152415	0.0022757102
104	0xbda583bd	-0.08081768
105	0xbe240bf9	-0.16020192
106	0x3e626c1b	0.22111551
107	0x3ea28b71	0.3174701
108	0x3de07e0d	0.10961542
109	0x3d866edb	0.06564113
110	0x3ea6f23b	0.32606682
111	0xbdd87ff6	-0.105712816
112	0x3daa9ce7	0.08330708
113	0xbe5a8aa6	-0.21341953
114	0x3c516286	0.0127798375
115	0x3ed7a209	0.4211581
116	0x3e79fcdc	0.24412864
117	0x3e0ebd2b	0.1393935
118	0xbdb19f9f	-0.086730234
119	0x3e6614de	0.22468898
120	0xbe0443b4	-0.12916452
121	0xbe902cb9	-0.2815912
122	0xbdb23426	-0.08701353
123	0x3d3f502b	0.046707314
124	0xbd36337e	-0.0444827
125	0x3c9a8ab7	0.018864973
126	0x3e66c4f8	0.22536075
127	0xbcd640e2	-0.026153985
128	0xbd09c109	-0.03363136
129	0xbeb40917	-0.35163185
130	0x3d1b3405	0.037891407
131	0x3e67a1a4	0.22620255
132	0xbe9db568	-0.30802464
133	0x3e83bc72	0.2572971
134	0xbe17d4a7	-0.14827214
135	0xbe246ba1	-0.16056682
136	0x3e2100ed	0.1572301
137	0x3d178ca8	0.036999375
138	0x3d5fa952	0.054604836
139	0xbe80cc6d	-0.25155964
140	0xbe76e4e3	-0.24110751
141	0xbe974e56	-0.29551953
142	0xbe20d138	-0.1570481
143	0x3dd3e4d3	0.10346379
144	0x3df4ce6b	0.119534336
145	0x3e4dac55	0.2008527
146	0x3dd10b16	0.102071926
147	0x3df3fdcd	0.11913643
148	0x3dc3b6ed	0.09556375
149	0xbdd25689	-0.102704115
150	0x3ea984bd	0.33109084
151	0x3c427923	0.011869702
152	0x3efea4ce	0.4973511
153	0xbda1f8ab	-0.07908758
154	0x3ea12c84	0.31479275
155	0x3c194d0c	0.009356748
156	0x3dc2192c	0.094774574
157	0xbd577008	-0.052597076
158	0xbe297f85	-0.16552551
159	0xbd9d66ec	-0.076856464
160	0xbd9b6195	-0.07586972
161	0x3d155ba4	0.03646435
162	0x3cd2cb11	0.025731595
163	0x3e57592f	0.21030115
164	0x3e0bcd0b	0.13652436
165	0x3e4fb00f	0.20282005
166	0x3b8035c2	0.0039126584
167	0x3dd0a685	0.10188011
168	0x3dc83641	0.09775973
169	0xbe64228f	-0.22278808
170	0x3cb7e208	0.022446647
171	0x3d88ae37	0.06673854
172	0x3e4ce894	0.20010597
173	0xbc5b677f	-0.013391375
174	0x3d1b8892	0.03797204
175	0x3c2e8af4	0.010653246
176	0xbde56ba7	-0.11202174
177	0xbd9e8102	-0.0773945
178	0xbe059dd6	-0.13048491
179	0x3e454853	0.19265871
180	0xbcc3475e	-0.023837741
181	0x3da19b62	0.07890965
182	0xbe3a045f	-0.1816573
183	0xbe09cb98	-0.13456571
184	0x3e24983c	0.16073698
185	0xbe08398b	-0.13303201
186	0xbddb72f7	-0.10715287
187	0x3e69d898	0.2283653
188	0x3e58398c	0.21115702
189	0xbe262097	-0.1622337
190	0x3e466887	0.19375812
191	0xbe0600ce	-0.13086244
192	0x3dc89a76	0.09795086
193	0xbee06c2a	-0.43832523
194	0xbdf29518	-0.118448436
195	0x3d301d08	0.042996436
196	0x3d699151	0.05702335
197	0xbe257347	-0.16157256
198	0x3ea0b80d	0.3139042
199	0xbe053b20	-0.13010836
200	0x3d31078c	0.043220088
201	0x3ddb3a37	0.10704463
202	0xbe27aa72	-0.16373613
203	0x3d27175f	0.040793773
204	0xbd7ebaba	-0.062189795
205	0x3de78436	0.11304514
206	0x3e25543f	0.16145419
207	0x3eaea382	0.34109122
208	0x3e13f97d	0.14450641
209	0xbd7aad4c	-0.061200425
210	0x3e351a4d	0.17685814
211	0xbda10e51	-0.07864059
212	0x3cd0ef8a	0.025504846
213	0x3c281a20	0.010260135
214	0x3cafb423	0.0214482
215	0x3db3e8ac	0.08784613
216	0x3eefc4e6	0.4682991
217	0x3e6c428b	0.23072259
218	0x3cab453a	0.020907033
219	0xbe253ae4	-0.16135746
220	0x3dea3b79	0.11437125
221	0xbda535fd	-0.08066938
222	0x3e091e9f	0.13390587
223	0xbe3a4d61	-0.1819358
224	0xbe6357c3	-0.22201447
225	0x3e61a3b8	0.2203511
226	0x3e6f7dfc	0.23387903
227	0x3d9b3987	0.07579332
228	0xbdf32606	-0.11872487
229	0xbe9acd3b	-0.30234703
230	0xbd966613	-0.07343688
231	0x3e593d30	0.21214747
232	0xbea27b08	-0.3173449
233	0xbe2ff136	-0.17181858
234	0x3ca21c16	0.019788783
235	0x3d929545	0.07157377
236	0xbe0ff5cc	-0.14058608
237	0x3e11b451	0.14228942
238	0xbea405ea	-0.32035762
239	0xbdc8fc0d	-0.098137
240	0xbe42a12b	-0.19006793
241	0x3d692397	0.056918707
242	0xbe69bc38	-0.22825706
243	0x3efa5e19	0.48899916
244	0xbd26b0d7	-0.04069599
245	0xbd19bbce	-0.03753262
246	0xbdab2516	-0.08356683
247	0x3e3cc392	0.18433979
248	0x3d48ee04	0.049055114
249	0x3e44659f	0.1917939
250	0x3e465086	0.19366655
251	0xbe34fbc7	-0.1767417
252	0x3d104f2c	0.035231754
253	0xbdb1ffde	-0.08691381
254	0x3e28a5f0	0.1646955
255	0xbd55c71d	-0.052191842

network_body._body_endoder.seq_layers.0.bias f4 [128]
0	0x00000000	0.0
1	0x00000000	0.0
2	0x00000000	0.0
3	0x00000000	0.0
4	0x00000000	0.0
5	0x00000000	0.0
6	0x00000000	0.0
7	0x00000000	0.0
8	0x00000000	0.0
9	0x00000000	0.0
10	0x00000000	0.0
11	0x00000000	0.0
12	0x00000000	0.0
13	0x00000000	0.0
14	0x00000000	0.0
15	0x00000000	0.0
16	0x00000000	0.0
17	0x00000000	0.0
18	0x00000000	0.0
19	0x00000000	0.0
20	0x00000000	0.0
21	0x00000000	0.0
22	0x00000000	0.0
23	0x00000000	0.0
24	0x00000000	0.0
25	0x00000000	0.0
26	0x00000000	0.0
27	0x00000000	0.0
28	0x00000000	0.0
29	0x00000000	0.0
30	0x00000000	0.0
31	0x00000000	0.0
32	0x00000000	0.0
33	0x00000000	0.0
34	0x00000000	0.0
35	0x00000000	0.0
36	0x00000000	0.0
37	0x00000000	0.0
38	0x00000000	0.0
39	0x00000000	0.0
40	0x00000000	0.0
41	0x00000000	0.0
42	0x00000000	0.0
43	0x00000000	0.0
44	0x00000000	0.0
45	0x00000000	0.0
46	0x00000000	0.0
47	0x00000000	0.0
48	0x00000000	0.0
49	0x00000000	0.0
50	0x00000000	0.0
51	0x00000000	0.0
52	0x00000000	0.0
53	0x00000000	0.0
54	0x00000000	0.0
55	0x00000000	0.0
56	0x00000000	0.0
57	0x00000000	0.0
58	0x00000000	0.0
59	0x00000000	0.0
60	0x00000000	0.0
61	0x00000000	0.0
62	0x00000000	0.0
63	0x00000000	0.0
64	0x00000000	0.0
65	0x00000000	0.0
66	0x00000000	0.0
67	0x00000000	0.0
68	0x00000000	0.0
69	0x00000000	0.0
70	0x00000000	0.0
71	0x00000000	0.0
72	0x00000000	0.0
73	0x00000000	0.0
74	0x00000000	0.0
75	0x00000000	0.0
76	0x00000000	0.0
77	0x00000000	0.0
78	0x00000000	0.0
79	0x00000000	0.0
80	0x00000000	0.0
81	0x00000000	0.0
82	0x00000000	0.0
83	0x00000000	0.0
84	0x00000000	0.0
85	0x00000000	0.0
86	0x00000000	0.0
87	0x00000000	0.0
88	0x00000000	0.0
89	0x00000000	0.0
90	0x00000000	0.0
91	0x00000000	0.0
92	0x00000000	0.0
93	0x00000000	0.0
94	0x00000000	0.0
95	0x00000000	0.0
96	0x00000000	0.0
97	0x00000000	0.0
98	0x00000000	0.0
99	0x00000000	0.0
100	0x00000000	0.0
101	0x00000000	0.0
102	0x00000000	0.0
103	0x00000000	0.0
104	0x00000000	0.0
105	0x00000000	0.0
106	0x00000000	0.0
107	0x00000000	0.0
108	0x00000000	0.0
109	0x00000000	0.0
110	0x00000000	0.0
111	0x00000000	0.0
112	0x00000000	0.0
113	0x00000000	0.0
114	0x00000000	0.0
115	0x00000000	0.0
116	0x00000000	0.0
117	0x00000000	0.0
118	0x00000000	0.0
119	0x00000000	0.0
120	0x00000000	0.0
121	0x00000000	0.0
122	0x00000000	0.0
123	0x00000000	0.0
124	0x00000000	0.0
125	0x00000000	0.0
126	0x00000000	0.0
127	0x00000000	0.0

network_body._body_endoder.seq_layers.2.weight f4 [128, 128]
0	0x3da374a7	0.07981234
1	0x3e184989	0.14871801
2	0x3cf14df4	0.029456116
3	0x3d4a30fa	0.049363114
4	0xbc6c1f95	-0.014411827
5	0x3e2c3907	0.16818629
6	0x3ce21371	0.027597161
7	0xbe67e025	-0.22644098
8	0xbd79086a	-0.06079904
9	0xbcc9d7a9	-0.024638968
10	0xbcf2ceec	-0.029639684
11	0x3dc5e6f6	0.09663193
12	0x3d79f83f	0.06102776
13	0x3de59142	0.11209346
14	0x3c60b36e	0.013714654
15	0xba0a3827	-0.00052726496
16	0xbda2854e	-0.07935582
17	0xbe533db5	-0.20629008
18	0xbd857887	-0.065171294
19	0x3d939154	0.072054535
20	0x3df55f5c	0.11981079
21	0xbc9bcf92	-0.019019876
22	0xba5020ad	-0.00079394394
23	0x3dcac988	0.0990172
24	0xbe217d08	-0.15770352
25	0xbca26540	-0.01982367
26	0x3de395f6	0.11112587
27	0xbcb5bcea	-0.022184808
28	0xbdfedc6a	-0.124443844
29	0x3da03539	0.078226514
30	0xbd561de9	-0.05227462
31	0x3d13a4e5	0.036045928
32	0x3d48a5be	0.04898619
33	0x3db78034	0.0896
34	0xbdc0cbc7	-0.094138674
35	0x3d94a260	0.07257533
36	0xbd4578d7	-0.048210945
37	0xbdb1f2db	-0.08688899
38	0x3d3cf06b	0.046127718
39	0x3e120ba2	0.1426225
40	0xbcfead51	-0.031088503
41	0xbdb76c26	-0.089561746
42	0xbc600c48	-0.013674803
43	0xbd9b36f3	-0.0757884
44	0xbd9cb9e6	-0.07652645
45	0xbcbafdc8	-0.02282609
46	0x3ca9b7e3	0.020717567
47	0x3d1fb544	0.038991228
48	0xbc07cad0	-0.0082881
49	0xbe329935	-0.17441256
50	0x3bc6e9d9	0.0060703573
51	0x3d8ad93d	0.06779716
52	0x3a71df01	0.00092266506
53	0x3e65ebac	0.22453183
54	0x3d8e6dac	0.06954512
55	0x3d7a14cd	0.061054993
56	0xbe1b6a4e	-0.15177271
57	0x3db4bd61	0.08825184
58	0x3caa4573	0.02078507
59	0xbd6a95bd	-0.057271708
60	0x3d0ee981	0.034890655
61	0xbd264944	-0.040597215
62	0xbd02c439	-0.031925414
63	0x3e08720d	0.13324757
64	0xbe7395b1	-0.23787571
65	0x3b78abec	0.003794427
66	0xbddcde38	-0.10784572
67	0x3d6b4407	0.057437923
68	0x3e3938b2	0.18088034
69	0xbbff2d02	-0.007787348
70	0xbdc205cb	-0.09473761
71	0xbc88329a	-0.016625691
72	0x3d0a570a	0.033774413
73	0xbb02cd04	-0.0019958625
74	0xbd72c990	-0.059274256
75	0xbb92bb2d	-0.0044778795
76	0xbc2a4657	-0.010392747
77	0xbddb1f77	-0.10699361
78	0x3e17b9dc	0.14816993
79	0x3d2b6009	0.041839633
80	0x3e126f89	0.1430036
81	0x3e089442	0.13337806
82	0x3c2c84f9	0.01052975
83	0x3bad62ab	0.005291303
84	0x3b52e123	0.003217765
85	0xbd17f89a	-0.03710232
86	0xbdd17659	-0.10227651
87	0x3d20f903	0.039299976
88	0xbd922326	-0.0713561
89	0x3e02e314	0.12781936
90	0xbd523ac8	-0.05132559
91	0x3c87f829	0.016597824
92	0xbda08154	-0.078371674
93	0xbc74dc1d	-0.014945057
94	0xbe1318fb	-0.14364998
95	0x3b44e07b	0.0030041027
96	0x3d33aa0d	0.043863345
97	0xbc43d151	-0.01195176
98	0x3d82146c	0.063515514
99	0x3e12c36b	0.14332359
100	0x3dc2f136	0.095186636
101	0xbc7c380f	-0.015394225
102	0xbc776541	-0.015099824
103	0x3d58fcc0	0.052975416
104	0xba927abb	-0.0011175493
105	0xbd2a0690	-0.041510165
106	0xbd893afe	-0.06700705
107	0x3d724678	0.059149235
108	0x3d8c3257	0.06845539
109	0x3dab271a	0.083570674
110	0x3c95d59d	0.018290335
111	0xbd2cdede	-0.04220473
112	0xbccc7dc3	-0.024962312
113	0x3e0ced15	0.13762315
114	0x3c5c48d6	0.0134451
115	0x3cc22956	0.023701351
116	0x3e47e946	0.1952258
117	0x3d77629f	0.060396787
118	0x3dfa400b	0.122192465
119	0xbb4d4d7d	-0.0031326704
120	0x3d042ccf	0.032269295
121	0xbbb2fd84	-0.0054623503
122	0xbd7b6821	-0.061378602
123	0x3db3613c	0.0875878
124	0x3e1838f4	0.14865476
125	0x3dfb8c52	0.12282623
126	0xbdabbd76	-0.08385746
127	0xbc47ab27	-0.012186802
128	0xbc6e9eea	-0.014564255
129	0x3a5b3ece	0.00083635456
130	0x3d4c8720	0.049933553
131	0x3d05d714	0.032675818
132	0xbe10dc27	-0.14146481
133	0x3d363b0e	0.044489913
134	0xbd791bd0	-0.06081754
135	0x3c0c058a	0.0085462425
136	0x3d2152ef	0.039385732
137	0xbd4fc7a9	-0.05072752
138	0xbcc71f98	-0.024307057
139	0xbabb0de9	-0.0014271113
140	0x3d2375ae	0.03990715
141	0xbdedabaa	-0.11605008
142	0x3d9e79c9	0.077380724
143	0xbd81a0f5	-0.06329528
144	0x3dc1e6e2	0.094678655
145	0xbdb7b738	-0.08970493
146	0x3ced6246	0.028977524
147	0xbe392b61	-0.18082954
148	0xbdaa6776	-0.08320515
149	0xbde57e8d	-0.11205778
150	0x3d7aa5b8	0.061193198
151	0x3e2f9263	0.17145686
152	0x3d960665	0.073254384
153	0x3dacaad4	0.084310204
154	0xbdbe7fe9	-0.09301741
155	0x3d42408c	0.047424838
156	0xbd3947bd	-0.04523443
157	0x3e18718c	0.14887065
158	0x3c8c59ee	0.017132726
159	0xbdf2909f	-0.118439905
160	0x3e0a80fd	0.13525768
161	0x3e07637f	0.13221548
162	0x3cb7ca7a	0.022435416
163	0x3d9131c9	0.07089574
164	0x3c990184	0.01867748
165	0xbc2463b0	-0.010033533
166	0x3ae17fdc	0.0017204243
167	0xbd91e449	-0.0712362
168	0x3d2f9da7	0.04287496
169	0xbde6dc59	-0.11272497
170	0x3cc1b4f8	0.023645863
171	0xbdbbffe4	-0.09179667
172	0x3e392877	0.18081842
173	0xbd59f67a	-0.053213574
174	0xbd34d841	-0.04415155
175	0x3e40beb5	0.18822749
176	0xbd42a0c2	-0.04751659
177	0xbe1243ce	-0.14283678
178	0xbbdb5ee2	-0.0066946605
179	0xbcd3d12e	-0.02585658
180	0x3d6d82d9	0.057986114
181	0xbc221e34	-0.009894896
182	0xbe2bbc9e	-0.1677117
183	0x3c6d8dfc	0.014499184
184	0xbe198896	-0.1499351
185	0xbbd5e4f1	-0.006527536
186	0x3e953943	0.2914525
187	0xbc63e5f6	-0.013909807
188	0x3ac210ed	0.001480607
189	0x3da1ec55	0.07906405
190	0xbc66fcb3	-0.014098334
191	0x3e05e6ea	0.13076368
192	0xbd930408	-0.07178503
193	0xbe10d426	-0.14143428
194	0x3e0066ea	0.12539259
195	0xbb914bfb	-0.0044341064
196	0x3ca242cd	0.019807244
197	0xbd5b7846	-0.0535815
198	0x3d3e85f6	0.046514474
199	0x3d167634	0.03673382
200	0xbdb63563	-0.088969015
201	0x3d7f5a87	0.062342193
202	0x3e098984	0.13431364
203	0xbd27b897	-0.040947523
204	0x3cd5cd4d	0.026098872
205	0xbd448e36	-0.047987185
206	0xbe0d7f42	-0.13818076
207	0x3e4048a4	0.1877771
208	0x3da5ab3a	0.080892995
209	0x3d55ec58	0.052227348
210	0xbd1c9ebd	-0.038237322
211	0x3d2c5754	0.04207547
212	0xbca6722a	-0.02031811
213	0xbcb59db2	-0.022169922
214	0x3e330700	0.17483139
215	0x3c8a46af	0.016879408
216	0xbdc9aacc	-0.0984703
217	0x3e26be4a	0.16283527
218	0x3d231ae7	0.039820578
219	0x3d4ea0e7	0.050446417
220	0x3b8a46ec	0.0042198803
221	0x3c437761	0.011930318
222	0xbd895b25	-0.067068376
223	0x3df74cc1	0.120751865
224	0x3b814e59	0.0039461073
225	0xbb3e8744	-0.0029072324
226	0xbda0c8a3	-0.078507684
227	0xbe0275ab	-0.127402
228	0xbd79224f	-0.060823735
229	0xbdd5e48f	-0.10443985
230	0xbdd8605a	-0.105652526
231	0xbe43d9b6	-0.19126019
232	0xbd64070b	-0.05567078
233	0x3c2ef093	0.010677475
234	0x3d6ae025	0.057342667
235	0x3bd0d402	0.0063729296
236	0xbd2eb2ee	-0.04265111
237	0x3c688426	0.014191663
238	0x3bdf72ba	0.0068190964
239	0x3e468c97	0.19389568
240	0xbcc6dfbd	-0.024276609
241	0x3d5ee25e	0.0544151
242	0xbdb6b138	-0.089205205
243	0xbd05df5a	-0.032683708
244	0x3d7e45d2	0.062078305
245	0x3cd41cbb	0.025892606
246	0xbd9a0728	-0.07520896
247	0xbd26b9e5	-0.040704627
248	0xba92b1cf	-0.0011191907
249	0xbda12a95	-0.0786945
250	0x3e0a5978	0.13510692
251	0xb9bee716	-0.00036411796
252	0xbd6bd157	-0.05757269
253	0xbc9875bf	-0.018610833
254	0x3d03efd8	0.032211155
255	0xbc2c1265	-0.0105024325

network_body._body_endoder.seq_layers.2.bias f4 [128]
0	0x00000000	0.0
1	0x00000000	0.0
2	0x00000000	0.0
3	0x00000000	0.0
4	0x00000000	0.0
5	0x00000000	0.0
6	0x00000000	0.0
7	0x00000000	0.0
8	0x00000000	0.0
9	0x00000000	0.0
10	0x00000000	0.0
11	0x00000000	0.0
12	0x00000000	0.0
13	0x00000000	0.0
14	0x00000000	0.0
15	0x00000000	0.0
16	0x00000000	0.0
17	0x00000000	0.0
18	0x00000000	0.0
19	0x00000000	0.0
20	0x00000000	0.0
21	0x00000000	0.0
22	0x00000000	0.0
23	0x00000000	0.0
24	0x00000000	0.0
25	0x00000000	0.0
26	0x00000000	0.0
27	0x00000000	0.0
28	0x00000000	0.0
29	0x00000000	0.0
30	0x00000000	0.0
31	0x00000000	0.0
32	0x00000000	0.0
33	0x00000000	0.0
34	0x00000000	0.0
35	0x00000000	0.0
36	0x00000000	0.0
37	0x00000000	0.0
38	0x00000000	0.0
39	0x00000000	0.0
40	0x00000000	0.0
41	0x00000000	0.0
42	0x00000000	0.0
43	0x00000000	0.0
44	0x00000000	0.0
45	0x00000000	0.0
46	0x00000000	0.0
47	0x00000000	0.0
48	0x00000000	0.0
49	0x00000000	0.0
50	0x00000000	0.0
51	0x00000000	0.0
52	0x00000000	0.0
53	0x00000000	0.0
54	0x00000000	0.0
55	0x00000000	0.0
56	0x00000000	0.0
57	0x00000000	0.0
58	0x00000000	0.0
59	0x00000000	0.0
60	0x00000000	0.0
61	0x00000000	0.0
62	0x00000000	0.0
63	0x00000000	0.0
64	0x00000000	0.0
65	0x00000000	0.0
66	0x00000000	0.0
67	0x00000000	0.0
68	0x00000000	0.0
69	0x00000000	0.0
70	0x00000000	0.0
71	0x00000000	0.0
72	0x00000000	0.0
73	0x00000000	0.0
74	0x00000000	0.0
75	0x00000000	0.0
76	0x00000000	0.0
77	0x00000000	0.0
78	0x00000000	0.0
79	0x00000000	0.0
80	0x00000000	0.0
81	0x00000000	0.0
82	0x00000000	0.0
83	0x00000000	0.0
84	0x00000000	0.0
85	0x00000000	0.0
86	0x00000000	0.0
87	0x00000000	0.0
88	0x00000000	0.0
89	0x00000000	0.0
90	0x00000000	0.0
91	0x00000000	0.0
92	0x00000000	0.0
93	0x00000000	0.0
94	0x00000000	0.0
95	0x00000000	0.0
96	0x00000000	0.0
97	0x00000000	0.0
98	0x00000000	0.0
99	0x00000000	0.0
100	0x00000000	0.0
101	0x00000000	0.0
102	0x00000000	0.0
103	0x00000000	0.0
104	0x00000000	0.0
105	0x00000000	0.0
106	0x00000000	0.0
107	0x00000000	0.0
108	0x00000000	0.0
109	0x00000000	0.0
110	0x00000000	0.0
111	0x00000000	0.0
112	0x00000000	0.0
113	0x00000000	0.0
114	0x00000000	0.0
115	0x00000000	0.0
116	0x00000000	0.0
117	0x00000000	0.0
118	0x00000000	0.0
119	0x00000000	0.0
120	0x00000000	0.0
121	0x00000000	0.0
122	0x00000000	0.0
123	0x00000000	0.0
124	0x00000000	0.0
125	0x00000000	0.0
126	0x00000000	0.0
127	0x00000000	0.0

action_model._continuous_distribution.log_sigma f4 [1, 2]
0	0x00000000	0.0
1	0x00000000	0.0

action_model._continuous_distribution.mu.weight f4 [2, 128]
0	0xbb9cb526	-0.0047823368
1	0x3cad8114	0.021179713
2	0xbb197ce3	-0.0023420386
3	0xbbb5d60e	-0.005549199
4	0xbc585d5b	-0.013205851
5	0xbcb6083b	-0.022220721
6	0x3b8c010f	0.004272587
7	0xbcdb9488	-0.026804224
8	0xbcb12ca3	-0.02162773
9	0x3c425769	0.0118616605
10	0x3c366a9b	0.011133815
11	0xbcb10ee6	-0.02161355
12	0x3bfd7cd3	0.0077358275
13	0x3ce961f5	0.028489092
14	0xbcb2f5ee	-0.021845784
15	0x3b11664b	0.0022186216
16	0x3ce04a20	0.027379096
17	0x3b780d70	0.0037849806
18	0xbc781d8f	-0.015143766
19	0xbcba96bb	-0.022776952
20	0xbafaf94a	-0.001914778
21	0xbb8f90f8	-0.0043812953
22	0xbbbe7c30	-0.005813144
23	0xbc9da830	-0.019245237
24	0xbbc7c0ac	-0.0060959663
25	0x3c754787	0.014970667
26	0xbc828e6d	-0.015937055
27	0x3c096752	0.00838645
28	0x3c65de6b	0.014030079
29	0x3c04cebd	0.008105931
30	0x3bdbc7ed	0.0067071826
31	0x3c5d7dc2	0.0135187525
32	0xbc9df7ef	-0.019283263
33	0xbc484c83	-0.012225273
34	0x3c07a1de	0.008278338
35	0xbb3131df	-0.0027037782
36	0xbc399a33	-0.011328268
37	0xbc8bba6f	-0.017056672
38	0xbc344c9e	-0.011004595
39	0x3d0dcc87	0.03461888
40	0xb9d6c272	-0.00040962134
41	0xbcc849cb	-0.02444925
42	0x3b4be656	0.0031112633
43	0xbc0f8c5f	-0.008761494
44	0x3c81af2b	0.015830597
45	0x3a452431	0.00075203466
46	0x3c148e88	0.009067185
47	0xbca24a49	-0.019810813
48	0x3ce50d2f	0.027960388
49	0x3b730f25	0.0037087884
50	0x3d05ea3e	0.032694094
51	0x3b79de95	0.0038127054
52	0xbd323f0a	-0.04351715
53	0x3c190bbd	0.0093411775
54	0x3b7d6872	0.003866699
55	0xbd21a228	-0.039461285
56	0xbc8cd77d	-0.017192597
57	0xbbc0ecef	-0.0058876197
58	0x3cbba8bf	0.022907613
59	0x3caccb27	0.021092964
60	0xbceeb78f	-0.029140262
61	0xbcb4d819	-0.0220757
62	0xbcfef80a	-0.031124134
63	0xbb9da875	-0.0048113414
64	0x3c62b945	0.013838117
65	0xbc1d7aca	-0.009611795
66	0x3d07d39b	0.033160787
67	0x3c0d314d	0.008617711
68	0x3bbe8d33	0.005815172
69	0xbc99f41e	-0.018793162
70	0xbd2e41e2	-0.0425433
71	0xbc2430ab	-0.010021369
72	0xbca908bc	-0.020634048
73	0x3c46bc03	0.012129786
74	0xbc53e673	-0.012933361
75	0xbc427082	-0.011867644
76	0x3bc6f471	0.00607162
77	0xbbdf92ad	-0.006822905
78	0xbd29bb27	-0.041438248
79	0xbc96dc73	-0.018415665
80	0x3a72ed85	0.00092669606
81	0x3ad2bb18	0.0016077487
82	0x3d4d2b58	0.050090164
83	0x3bdb33c2	0.0066895196
84	0xbc891eba	-0.016738284
85	0xbcacdd4d	-0.021101618
86	0x3b8d0538	0.0043036006
87	0x3d12c9ba	0.035836913
88	0x3b4d3357	0.0031311119
89	0xbcd704bb	-0.026247373
90	0x3c871f4b	0.016494414
91	0xbcaaabd5	-0.020833889
92	0x3c2fa005	0.010719304
93	0x3ca8e749	0.020618098
94	0xba57393b	-0.0008210127
95	0xbc6e0440	-0.0145273805
96	0xbbb3eea5	-0.005491095
97	0x3c2ca293	0.010536808
98	0xbcbe8a43	-0.023259288
99	0xbc15801c	-0.009124782
100	0xbc7b80ef	-0.015350564
101	0xbcd498f7	-0.025951846
102	0x3c768a42	0.015047612
103	0x3ce59b5d	0.028028185
104	0xbc9f188a	-0.01942088
105	0xbc0b54d5	-0.008504112
106	0xbb9277ad	-0.004469833
107	0xbb7b12da	-0.0038310797
108	0x3b7f8350	0.003898818
109	0xbcee55cd	-0.029093647
110	0x3cc11583	0.023569828
111	0xbcf7de3d	-0.030257339
112	0xbd1705e3	-0.03687085
113	0xbb96631f	-0.004589453
114	0xbb36b2e5	-0.0027877626
115	0x3c02f9ee	0.007994158
116	0xbbe11432	-0.0068688625
117	0x3c1304bc	0.008973297
118	0xbc095076	-0.008381
119	0x3c142e87	0.009044296
120	0x3cbb534a	0.022866864
121	0x3c5ba3e0	0.01340577
122	0x3b5b076a	0.0033421167
123	0xbcdcdbb2	-0.026960228
124	0x3c84d259	0.016213583
125	0xbb9952ec	-0.0046790745
126	0xbce1643a	-0.027513612
127	0xbc19c49e	-0.009385256
128	0xbcaac15b	-0.020844152
129	0xbb818466	-0.0039525507
130	0xbccfb6bb	-0.025355687
131	0xbc588c6f	-0.013217076
132	0x3b5f43d0	0.003406752
133	0xbd14e471	-0.03635067
134	0x3c31bc3a	0.010848099
135	0x3c5a8517	0.013337395
136	0x3cb8d6b5	0.022563318
137	0xbc879fef	-0.016555754
138	0xbba2c620	-0.004967466
139	0xbcff73f5	-0.031183222
140	0x3c7aad80	0.015300155
141	0x3d2621c5	0.04055955
142	0xbc4cbc92	-0.012496131
143	0x3ce57ffa	0.028015126
144	0x3c3cd61f	0.01152566
145	0xbbdc6525	-0.0067259246
146	0x3acd2b70	0.0015653204
147	0xbc3cc239	-0.011520916
148	0x3c5209b8	0.0128197
149	0x3c95d9ec	0.01829239
150	0x3d05aee0	0.032637477
151	0xbb95ff29	-0.0045775366
152	0x3c496ec2	0.012294473
153	0x3cd14928	0.025547579
154	0xbc977c02	-0.018491749
155	0xbd0e6249	-0.0347617
156	0xbb994492	-0.0046773637
157	0x3c1038b3	0.008802581
158	0xbc45f448	-0.012082167
159	0x3b8ad048	0.004236255
160	0xbd02d4ef	-0.03194135
161	0x3cdeb09d	0.027183825
162	0x3c651aca	0.013983438
163	0x3bd03b2f	0.0063547115
164	0x3b80a097	0.003925394
165	0xbc270253	-0.010193425
166	0xbc339139	-0.010959917
167	0x3ae16a88	0.0017197886
168	0x3ad55192	0.001627492
169	0xbd0e9bbd	-0.034816492
170	0x3c30fc8b	0.010802398
171	0x3c2e218b	0.010628114
172	0x3cddd7e0	0.027080476
173	0xbc8c908d	-0.017158771
174	0x3baa022b	0.0051882467
175	0x3b002891	0.001955543
176	0xbb8a3f15	-0.0042189457
177	0xbcc65962	-0.024212543
178	0x3a22ccf5	0.00062103505
179	0xbcdc67fa	-0.026905049
180	0x3b7f13b5	0.0038921658
181	0xba89ea51	-0.0010522102
182	0x3baed704	0.0053356905
183	0x3c155044	0.009113375
184	0xbca7d4e7	-0.020487262
185	0x3cb75d7f	0.02238345
186	0xbc0c6815	-0.008569737
187	0x3b0e01b1	0.0021668489
188	0xbbde0b2b	-0.0067762337
189	0xba901ae6	-0.0010994344
190	0xbce9db48	-0.028546944
191	0xbcb50560	-0.02209729
192	0xbb68be3f	-0.0035513786
193	0xbcdb898a	-0.026798982
194	0xbd085e67	-0.033293154
195	0x3ba2745e	0.0049577197
196	0x3bcbe294	0.0062220786
197	0xbd2c8349	-0.04211739
198	0x3c2309d0	0.00995107
199	0xba8a81f1	-0.001056729
200	0x3cb55589	0.022135513
201	0x3cdf6e0d	0.027274156
202	0x3c2bf24e	0.010494782
203	0xbc9e5bcd	-0.019330883
204	0x3a80a94b	0.0009816078
205	0xbca1059e	-0.019655999
206	0x3cac1b5f	0.021009145
207	0xbc8b69f3	-0.017018294
208	0xb9dc1f58	-0.00041985023
209	0x3c2aa5d4	0.010415513
210	0xbc3d3fbd	-0.011550841
211	0x3cf148b8	0.02945362
212	0xba592f5a	-0.0008284949
213	0xbb770f28	-0.0037698243
214	0xbc7d29d0	-0.015451863
215	0xbc52888d	-0.012849939
216	0xbcedbcc2	-0.02902067
217	0xbcbdb187	-0.02315594
218	0x3adf2b4b	0.0017026452
219	0xb7c5e29b	-2.3589751e-05
220	0xbb06f4f4	-0.002059278
221	0x3c767805	0.015043263
222	0x3b1ab143	0.0023604191
223	0x3c63378a	0.013868222
224	0x3c4dcacb	0.012560557
225	0xbd166ab3	-0.03672285
226	0xbc88a3e3	-0.01667971
227	0x3b6c3975	0.003604499
228	0x3d07a4f8	0.03311631
229	0x3c927cff	0.017881868
230	0xbaa1095f	-0.0012286118
231	0x3c5c2182	0.013435723
232	0x3c0ff57f	0.008786558
233	0x3cb5c17f	0.022186993
234	0xbc3ef5df	-0.0116553
235	0x3b3dde66	0.002897167
236	0xbce785c7	-0.028262032
237	0xbbfe0d7a	-0.0077530714
238	0xbc386bf3	-0.011256206
239	0xbcba1c1b	-0.02271848
240	0x3b89c6b0	0.0042045936
241	0x3cc9a199	0.024613189
242	0xbb90d58a	-0.004419987
243	0x3cb0d1b5	0.021584371
244	0xbac3897f	-0.0014918296
245	0xbcb92120	-0.022598803
246	0xbc46a4d8	-0.012124263
247	0xbb92f4be	-0.004484742
248	0x3cddd0a5	0.027077029
249	0x3c0f3931	0.008741663
250	0xbc4cd2e3	-0.012501451
251	0x3ca85bf6	0.020551663
252	0xb9d5df37	-0.00040792834
253	0x3a40e795	0.0007358727
254	0x3ca178be	0.019710895
255	0x3ce9a155	0.028519312

action_model._continuous_distribution.mu.bias f4 [2]
0	0x00000000	0.0
1	0x00000000	0.0
