results/ia4/PlayerScript/PlayerScript-1642.pt (torch, 158519 bytes, 12 tensors)

network_body._body_endoder.seq_layers.0.weight f4 [128, 15]
0.08059329 0.22833869 0.17909904 -0.015257226 -0.34142697 -0.41625953 0.1747272 -0.25723448
-0.40146852 0.010738687 0.0021555226 -0.07102578 -0.008502083 0.13261439 -0.20232548 0.32140154
0.23981692 -0.29759166 -0.17446832 0.38451692 0.1362507 -0.14838924 0.40407923 -0.62675375
0.034492265 -0.43367913 0.10742582 -0.14965136 -0.4119125 -0.074318856 -0.17266731 0.010220948
0.16747615 -0.001691006 -0.41938287 0.030071825 -0.24112943 -0.19295834 -0.04134735 0.056551475
0.17113186 -0.1577686 0.12398119 0.11665879 0.37823722 -0.40215993 0.056253623 -0.41719088
0.43465173 0.015607617 0.48360196 0.13075046 0.33458894 -0.12736017 -0.54511416 0.2309571
-0.28976148 0.073255606 -0.35280016 -0.37390223 -0.07391485 0.20683317 -0.041982934 -0.39994013
-0.11743431 -0.38581955 -0.02515601 0.20992659 -0.17897579 -0.43539008 0.13760528 -0.15728235
-0.2047436 0.46546015 -0.2656333 -0.14015354 -0.1255063 -0.13967909 0.48834628 -0.10137925
0.06205535 -0.027094701 -0.02089446 0.015150218 0.66623634 0.09306369 -0.020358203 -0.24564455
-0.09052792 0.42941827 -0.1969188 -0.045877628 0.58614635 0.06297652 -0.3579741 0.0028371697
-0.1670395 0.120787084 0.10943991 -0.07784534 0.024998223 -0.0021306493 -0.26236758 0.24286845
-0.069798864 0.111114524 -0.0063754204 -0.35661036 0.44979426 0.0397859 0.05407686 -0.29201213
0.17705254 -0.030795872 0.028505445 -0.21436335 0.10394043 0.3691247 -0.34787366 -0.12212979
-0.08819907 0.32245302 0.036676534 0.41956803 -0.04002701 0.7203963 -0.22128451 -0.6951891
-0.26428884 0.48512527 0.46996737 -0.23913401 -0.0076934122 -0.048008986 -0.2512165 0.12496564
0.30737293 -0.36306566 -0.16331382 0.27597567 0.10478053 -0.6013917 -0.34225178 0.11498085
-0.13655092 -0.25547248 0.008861528 0.3264984 0.15987176 -0.102643944 -0.28440708 0.031943824
0.37296715 -0.13931513 -0.20297456 0.43118253 0.5289364 0.03434111 -0.06962463 0.119711645
0.043029033 0.09815727 0.027799549 0.31596604 -0.078878276 0.07573819 0.08994554 0.18584867
0.24146314 0.21350516 -0.12049739 -0.28153673 0.46203074 -0.007966079 -0.641064 -0.35698316
-0.46232995 0.13555254 -0.008307742 -0.44584668 -0.030932795 0.108734764 -0.28636977 0.31689417
-0.06687619 -0.42607114 0.1269619 -0.09763865 -0.39138004 -0.09640727 -0.101541065 -0.43642446
-0.10985038 0.4668076 -0.22252463 0.11255462 -0.54982007 0.15889896 -0.16538699 0.212882
0.14088322 -0.09770254 -0.08538674 -0.17123513 0.17434826 0.5233081 0.43941796 0.2182246
-0.030051133 0.059565473 0.04297893 -0.13167433 -0.1940282 0.116056636 -0.0793808 -0.4128181
-0.030232368 0.08897021 -0.06715925 0.26420346 0.083734095 -0.45079136 0.32452536 0.11119103
0.12937562 0.23824543 0.5146104 0.10570463 -0.3354289 0.5214241 -0.2969029 0.50936747
0.29021847 0.22062707 -0.19948813 -0.53279614 0.035962895 0.4613529 0.23148492 -0.06291507
-0.019560043 0.08162378 -0.051968463 0.225347 -0.1486664 0.46201578 -0.13145879 -0.09521351
-0.35190758 -0.38705656 -0.008118052 0.058951236 -0.2668463 -0.2792628 0.068994515 0.16523907
00000000: 180e a53d 9ed1 693e bd65 373e 72f9 79bc
00000010: 84cf aebe f81f d5be b0eb 323e 3db4 83be
00000020: 488d cdbe 51f1 2f3c ab43 0d3b f775 91bd
00000030: 524c 0bbc 11cc 073e 692e 4fbe be8e a43e
00000040: 9192 753e ef5d 98be d3a7 32be 67df c43e
00000050: 4e85 0b3e 59f3 17be 79e3 ce3e ef72 20bf
00000060: c347 0d3d 310b debe 1102 dc3d 353e 19be
00000070: 32e6 d2be 7c34 98bd b3cf 30be c375 273c
00000080: de7e 2b3e bfa4 ddba 5ab9 d6be 3059 f63c
00000090: a2ea 76be df96 45be d75b 29bd 85a2 673d
000000a0: 313d 2f3e 188e 21be dae9 fd3d ceea ee3d
000000b0: 4fa8 c13e e8e7 cdbe 336a 663d 0b9a d5be
000000c0: ac8a de3e 17b7 7f3c ad9a f73e 73e3 053e
000000d0: 3e4f ab3e b46a 02be 9a8c 0bbf 0580 6c3e
000000e0: 9e5b 94be 0907 963d 39a2 b4be 1d70 bfbe
000000f0: ab60 97bd 13cc 533e 4cf6 2bbd f4c4 ccbe
00000100: 6681 f0bd 248a c5be fa13 cebc fff6 563e
00000110: 6e45 37be 73eb debe 66e8 0c3e a00e 21be
00000120: 4ea8 51be cb50 ee3e 1701 88be 6984 0fbe
00000130: b984 00be 0908 0fbe 8608 fa3e ed9f cfbd
00000140: c02d 7e3d b5f5 ddbc dc2a abbc 9f38 783c
00000150: 778e 2a3f 2d98 be3d 3fc6 a6bc 3f8a 7bbe
00000160: b466 b9bd b6dc db3e 15a5 49be 2eea 3bbd
00000170: b00d 163f d5f9 803d 6248 b7be cfef 393b
00000180: 670c 2bbe 385f f73d 0822 e03d 616d 9fbd
00000190: 13c9 cc3c 5da2 0bbb 0b55 86be 82b2 783e
000001a0: b5f2 8ebd 0390 e33d e7e8 d0bb a295 b6be
000001b0: 6f4b e63e 8af6 223d b37f 5d3d 9d82 95be
000001c0: 434d 353e a047 fcbc 4084 e93c 1182 5bbe
000001d0: b8de d43d eafd bc3e 7f1c b2be 2f1f fabd
000001e0: b7a1 b4bd 9018 a53e 223a 163d 9fd1 d63e
000001f0: 5df3 23bd e46b 383f 6898 62be eaf7 31bf
00000200: de50 87be 5762 f83e 909f f03e 8cdf 74be
00000210: 0519 fcbb 12a5 44bd 739f 80be fced ff3d
00000220: fc5f 9d3e bee3 b9be bd3b 27be af4c 8d3e
00000230: 2d97 d63d cef4 19bf a03b afbe 147b eb3d
00000240: 01d4 0bbe 4acd 82be f12f 113c cc2a a73e
00000250: 6cb5 233e fd36 d2bd ce9d 91be 87d7 023d
00000260: 8df5 be3e a0a8 0ebe 90d8 4fbe f5c3 dc3e
00000270: 6068 073f 44a9 0c3d 5c97 8ebd 612b f53d
00000280: 363f 303d ae06 c93d e1bb e33c 4dc6 a13e
00000290: ef8a a1bd a01c 9b3d 5e35 b83d 1d4f 3e3e
000002a0: 1d42 773e 19a1 5a3e 56c7 f6bd 9525 90be
000002b0: 4b8f ec3e 2884 02bc c51c 24bf 7fc6 b6be
000002c0: 83b6 ecbe 49ce 0a3e 321d 08bc 0446 e4be
000002d0: c666 fdbc 55b0 de3d 0f9f 92be f43f a23e
000002e0: 62f6 88bd ff25 dabe 4d02 023e c6f6 c7bd
000002f0: f762 c8be 2d71 c5bd c3f4 cfbd 0773 dfbe
00000300: 3cf9 e0bd 6801 ef3e 7fdd 63be 0983 e63d
00000310: 02c1 0cbf 69b6 223e 355b 29be bdfd 593e
00000320: b143 103e 4518 c8bd 3edf aebd 4358 2fbe
00000330: 5a88 323e 85f7 053f 64fb e03e 4576 5f3e
00000340: cb2d f6bc edfa 733d ad0a 303d a3d5 06be
00000350: 54af 46be 1aaf ed3d 6792 a2bd e55c d3be
00000360: dfa9 f7bc 0336 b63d ca8a 89bd ad45 873e
00000370: c87c ab3d 20ce e6be 3028 a63e 1fb8 e33d
00000380: 0b7b 043e 9cf6 733e 82bd 033f ab7b d83d
00000390: 56bd abbe 0d7c 053f a803 98be e865 023f
000003a0: 8497 943e 10ec 613e 9e46 4cbe 5465 08bf
000003b0: d44d 133d 7336 ec3e 620a 6d3e 9ed9 80bd
000003c0: 623c a0bc 5e2a a73d e2dc 54bd 5dc1 663e
000003d0: 013c 18be 558d ec3e 229d 06be 4dff c2bd
000003e0: 3b2d b4be 472c c6be 9401 05bc da76 713d
000003f0: 14a0 88be 89fb 8ebe ff4c 8d3d 6e34 293e

network_body._body_endoder.seq_layers.0.bias f4 [128]
0.0 0.0 0.0 0.0 0.0 0.0 0.0 0.0
0.0 0.0 0.0 0.0 0.0 0.0 0.0 0.0
0.0 0.0 0.0 0.0 0.0 0.0 0.0 0.0
0.0 0.0 0.0 0.0 0.0 0.0 0.0 0.0
0.0 0.0 0.0 0.0 0.0 0.0 0.0 0.0
0.0 0.0 0.0 0.0 0.0 0.0 0.0 0.0
0.0 0.0 0.0 0.0 0.0 0.0 0.0 0.0
0.0 0.0 0.0 0.0 0.0 0.0 0.0 0.0
0.0 0.0 0.0 0.0 0.0 0.0 0.0 0.0
0.0 0.0 0.0 0.0 0.0 0.0 0.0 0.0
0.0 0.0 0.0 0.0 0.0 0.0 0.0 0.0
0.0 0.0 0.0 0.0 0.0 0.0 0.0 0.0
0.0 0.0 0.0 0.0 0.0 0.0 0.0 0.0
0.0 0.0 0.0 0.0 0.0 0.0 0.0 0.0
0.0 0.0 0.0 0.0 0.0 0.0 0.0 0.0
0.0 0.0 0.0 0.0 0.0 0.0 0.0 0.0
00000000: 0000 0000 0000 0000 0000 0000 0000 0000
00000010: 0000 0000 0000 0000 0000 0000 0000 0000
00000020: 0000 0000 0000 0000 0000 0000 0000 0000
00000030: 0000 0000 0000 0000 0000 0000 0000 0000
00000040: 0000 0000 0000 0000 0000 0000 0000 0000
00000050: 0000 0000 0000 0000 0000 0000 0000 0000
00000060: 0000 0000 0000 0000 0000 0000 0000 0000
00000070: 0000 0000 0000 0000 0000 0000 0000 0000
00000080: 0000 0000 0000 0000 0000 0000 0000 0000
00000090: 0000 0000 0000 0000 0000 0000 0000 0000
000000a0: 0000 0000 0000 0000 0000 0000 0000 0000
000000b0: 0000 0000 0000 0000 0000 0000 0000 0000
000000c0: 0000 0000 0000 0000 0000 0000 0000 0000
000000d0: 0000 0000 0000 0000 0000 0000 0000 0000
000000e0: 0000 0000 0000 0000 0000 0000 0000 0000
000000f0: 0000 0000 0000 0000 0000 0000 0000 0000
00000100: 0000 0000 0000 0000 0000 0000 0000 0000
00000110: 0000 0000 0000 0000 0000 0000 0000 0000
00000120: 0000 0000 0000 0000 0000 0000 0000 0000
00000130: 0000 0000 0000 0000 0000 0000 0000 0000
00000140: 0000 0000 0000 0000 0000 0000 0000 0000
00000150: 0000 0000 0000 0000 0000 0000 0000 0000
00000160: 0000 0000 0000 0000 0000 0000 0000 0000
00000170: 0000 0000 0000 0000 0000 0000 0000 0000
00000180: 0000 0000 0000 0000 0000 0000 0000 0000
00000190: 0000 0000 0000 0000 0000 0000 0000 0000
000001a0: 0000 0000 0000 0000 0000 0000 0000 0000
000001b0: 0000 0000 0000 0000 0000 0000 0000 0000
000001c0: 0000 0000 0000 0000 0000 0000 0000 0000
000001d0: 0000 0000 0000 0000 0000 0000 0000 0000
000001e0: 0000 0000 0000 0000 0000 0000 0000 0000
000001f0: 0000 0000 0000 0000 0000 0000 0000 0000

network_body._body_endoder.seq_layers.2.weight f4 [128, 128]
0.045518517 0.092585474 0.0013642627 0.05959206 0.1432254 0.030505048 0.035931733 -0.06299301
0.2007069 0.03742865 -0.022425123 -0.017224165 -0.03346689 -0.14262733 -0.04039078 -0.027257586
-0.12345904 0.13067049 0.024514522 0.027877564 0.14437215 -0.017178705 0.08767894 0.036602397
0.045463704 0.10670128 0.002995695 -0.10448619 -0.07746658 0.06113917 0.028434463 0.046878185
-0.1060633 0.061991833 -0.07191249 0.011149515 0.19057435 0.049794182 0.1894371 0.00491236
-0.021313284 0.028864076 0.1374467 -0.038948182 0.034126084 0.08344361 -0.004075953 -0.0092159035
0.05178613 0.075316235 0.0072993133 -0.19704838 0.042780243 -0.11656133 0.13799596 0.072376475
0.01575548 -0.09048557 -0.058089152 -0.08810849 -0.086665556 -0.07812365 -0.12247686 0.050577145
0.001704214 -0.09161725 -0.042339332 0.043053776 -0.047303446 0.124012105 -0.19987479 0.09399511
0.14356235 0.033974707 -0.009532218 -0.035077754 -0.048473448 0.11798817 -0.05410451 -0.1151176
0.05664526 0.0844054 -0.030446561 -0.16158265 -0.003334109 0.09457972 0.10888186 0.07247867
0.12908368 -0.16730578 -0.033513907 -0.010288702 0.07834111 -0.017119287 -0.014265439 0.014120847
-0.05293327 0.10643039 0.10448365 0.09828419 -0.07070844 -0.10385801 -0.060305633 0.036299832
-0.08132614 -0.03700064 -0.05770783 0.0053608892 -0.111964226 0.13770516 0.06363716 -0.030417826
-0.042560913 -0.07763516 -0.069573075 0.06521283 0.052570753 0.013790284 -0.0006350421 0.025491128
0.0065887445 -0.0038668516 0.009581791 0.05388655 -0.036790956 -0.042673938 -0.14323239 0.04246819
0.13293388 0.020276386 -0.023810754 -0.117042005 -0.10194508 -0.017635671 0.093449585 -0.011828784
0.014382413 0.11495301 -0.05681108 -0.09009782 -0.034274876 -0.124056704 0.060037147 -0.0030931714
0.07768161 -0.06717893 -0.016784798 -0.06474024 0.049961664 -0.112186335 -0.04943777 0.096454844
-0.07166273 0.21166764 0.06591333 -0.0017888534 0.044928093 -0.06694104 -0.05444738 0.023735495
0.050997406 0.168523 0.09181695 -0.08211298 -0.061244227 0.08634635 0.00046458296 0.10618025
0.031491574 0.012251498 -0.1262919 0.044337604 -0.1428715 -0.08096485 -0.033729356 -0.07787611
-0.02105291 0.07454877 0.103273004 -0.020623285 0.09583893 -0.05891063 0.26073292 0.027929163
0.08135437 -0.06936945 -0.008111645 0.011159926 0.09316352 -0.07364227 0.08704316 -0.03943504
-0.13818903 -0.08739965 0.011519071 -0.03478313 0.025454357 0.17549305 0.055335276 0.16438237
0.13303636 0.008707323 -0.054667357 0.04124168 0.12808004 -0.06561687 -0.09097302 0.027433055
0.0648735 -0.20654735 -0.18917556 -0.031621594 0.033501416 -0.036508407 0.025166623 -0.07004855
-0.014349108 -0.02034048 -0.061048266 0.07769102 0.03725639 0.03165067 -0.1352589 -0.17499979
0.0008552999 -0.04763172 -0.013750924 -0.003019296 0.072132625 -0.017805764 0.05263293 -0.04178822
-0.05604153 -0.00041937994 -0.17698441 0.047156423 -0.13524355 0.0013331043 -0.08413963 -0.017459536
-0.1169377 0.059669852 -0.045831636 0.12347814 -0.03537318 -0.014838303 0.0050510983 0.10083036
-0.007014092 -0.0021317832 0.016513022 0.030169556 0.023124637 -0.11419803 0.0022473594 0.025184507
00000000: a071 3a3d 749d bd3d 0fd1 b23a ce16 743d
00000010: aea9 123e b9e5 f93c 272d 133d 7b02 81bd
00000020: 1c86 4d3e c94e 193d e4b4 b7bc b119 8dbc
00000030: 9414 09bd e60c 12be cd70 25bd 4d4b dfbc
00000040: 18d8 fcbd 7cce 053e aed2 c83c 7d5f e43c
00000050: 4bd6 133e 5bba 8cbc 0491 b33d 65ec 153d
00000060: 2638 3a3d 3386 da3d 6c53 443b dbfc d5bd
00000070: cca6 9ebd 116d 7a3d 64ef e83c 5703 403d
00000080: b737 d9bd 26eb 7d3d db46 93bd 75ac 363c
00000090: ec25 433e fcf4 4b3d cdfb 413e ddf7 a03b
000000a0: 3299 aebc 5b74 ec3c d4be 0c3e 2188 1fbd
000000b0: cbc7 0b3d 7ce4 aa3d 928f 85bb 4dfe 16bc
000000c0: b11d 543d 663f 9a3d 142f ef3b 0dc7 49be
000000d0: 563a 2f3d b5b7 eebd d04e 0d3e 1e3a 943d
000000e0: a311 813c 8050 b9bd e4ee 6dbd 3972 b4bd
000000f0: b67d b1bd 4bff 9fbd 26d5 fabd fb29 4f3d
00000100: ef5f df3a d3a1 bbbd 026c 2dbd 2859 303d
00000110: 42c1 41bd 0ffa fd3d faab 4cbe 8280 c03d
00000120: 0202 133e 1029 0b3d 052d 1cbc b1ad 0fbd
00000130: 188c 46bd c8a3 f13d b19c 5dbd c7c2 ebbd
00000140: dc04 683d bddc ac3d 116b f9bc ec75 25be
00000150: 1181 5abb 03b3 c13d 74fd de3d b26f 943d
00000160: 832e 043e 3552 2bbe e145 09bd f291 28bc
00000170: 4e71 a03d bf3d 8cbc 96b9 69bc 205b 673c
00000180: 8ed0 58bd 2df8 d93d 86fb d53d 3949 c93d
00000190: 96cf 90bd 82b3 d4bd 0a03 77bd 22af 143d
000001a0: 528e a6bd fc8d 17bd 0c5f 6cbd 66aa af3b
000001b0: 804d e5bd 9502 0d3e 3354 823d ce2e f9bc
000001c0: 5a54 2ebd 2fff 9ebd 547c 8ebd 4e8e 853d
000001d0: 6e54 573d a5f0 613c f478 26ba c5d2 d03c
000001e0: 65e6 d73b 016b 7dbb f2fc 1c3c 25b8 5c3d
000001f0: 1db2 16bd deca 2ebd 83ab 12be 20f3 2d3d
00000200: d21f 083e aa1a a63c c50e c3bc b8b3 efbd
00000210: 95c8 d0bd af78 90bc 7f62 bf3d 84cd 41bc
00000220: 36a4 6b3c 7c6c eb3d bcb2 68bd 3585 b8bd
00000230: d063 0cbd 7111 febd 83e9 753d ceb6 4abb
00000240: 8917 9f3d 1b95 89bd 4680 89bc 8896 84bd
00000250: 9aa4 4c3d f3c1 e5bd 427f 4abd 1e8a c53d
00000260: e9c3 92bd 67bf 583e 91fd 863d f677 eaba
00000270: 8506 383d 6218 89bd 3704 5fbd f170 c23c
00000280: a8e2 503d 4b91 2c3e 860a bc3d da2a a8bd
00000290: 3adb 7abd 5bd6 b03d 4593 f339 0875 d93d
000002a0: 4ffd 003d 82ba 483c aa52 01be 599b 353d
000002b0: e84c 12be e6d0 a5bd cb27 0abd 837d 9fbd
000002c0: 2777 acbc 07ad 983d cc80 d33d 2af2 a8bc
000002d0: 3347 c43d 464c 71bd c97e 853e b3cb e43c
000002e0: 1f9d a63d 9211 8ebd b4e6 04bc 1fd8 363c
000002f0: 84cc be3d c2d1 96bd af43 b23d a386 21bd
00000300: 6d81 0dbe 96fe b2bd 7cba 3c3c c178 0ebd
00000310: a885 d03c 73b4 333e 3ea7 623d da53 283e
00000320: af3a 083e 29a9 0e3c e1ea 5fbd 09ed 283d
00000330: 6a27 033e 2362 86bd 1050 babd 49bb e03c
00000340: 66dc 843d 2681 53be 3db7 41be a585 01bd
00000350: c838 093d d789 15bd 3c2a ce3c 9d75 8fbd
00000360: 8518 6bbc 14a1 a6bc bf0d 7abd 781c 9f3d
00000370: 289a 183d 22a4 013d 4f81 0abe 2533 33be
00000380: 3436 603a 7a19 43bd 8e4b 61bc 62df 45bb
00000390: 45ba 933d 65dd 91bc a195 573d 202a 2bbd
000003a0: ce8b 65bd 39e0 dbb9 673b 35be 1827 413d
000003b0: 497d 0abe 8fbb ae3a 6651 acbd 4d07 8fbc
000003c0: 087d efbd 6068 743d f4b9 3bbd 1be2 fc3d
000003d0: 78e3 10bd 5b1c 73bc af83 a53b 2680 ce3d
000003e0: 78d6 e5bb 63b5 0bbb 5146 873c 2526 f73c
000003f0: e16f bd3c a8e0 e9bd 6f48 133b bd4f ce3c

network_body._body_endoder.seq_layers.2.bias f4 [128]
0.0 0.0 0.0 0.0 0.0 0.0 0.0 0.0
0.0 0.0 0.0 0.0 0.0 0.0 0.0 0.0
0.0 0.0 0.0 0.0 0.0 0.0 0.0 0.0
0.0 0.0 0.0 0.0 0.0 0.0 0.0 0.0
0.0 0.0 0.0 0.0 0.0 0.0 0.0 0.0
0.0 0.0 0.0 0.0 0.0 0.0 0.0 0.0
0.0 0.0 0.0 0.0 0.0 0.0 0.0 0.0
0.0 0.0 0.0 0.0 0.0 0.0 0.0 0.0
0.0 0.0 0.0 0.0 0.0 0.0 0.0 0.0
0.0 0.0 0.0 0.0 0.0 0.0 0.0 0.0
0.0 0.0 0.0 0.0 0.0 0.0 0.0 0.0
0.0 0.0 0.0 0.0 0.0 0.0 0.0 0.0
0.0 0.0 0.0 0.0 0.0 0.0 0.0 0.0
0.0 0.0 0.0 0.0 0.0 0.0 0.0 0.0
0.0 0.0 0.0 0.0 0.0 0.0 0.0 0.0
0.0 0.0 0.0 0.0 0.0 0.0 0.0 0.0
00000000: 0000 0000 0000 0000 0000 0000 0000 0000
00000010: 0000 0000 0000 0000 0000 0000 0000 0000
00000020: 0000 0000 0000 0000 0000 0000 0000 0000
00000030: 0000 0000 0000 0000 0000 0000 0000 0000
00000040: 0000 0000 0000 0000 0000 0000 0000 0000
00000050: 0000 0000 0000 0000 0000 0000 0000 0000
00000060: 0000 0000 0000 0000 0000 0000 0000 0000
00000070: 0000 0000 0000 0000 0000 0000 0000 0000
00000080: 0000 0000 0000 0000 0000 0000 0000 0000
00000090: 0000 0000 0000 0000 0000 0000 0000 0000
000000a0: 0000 0000 0000 0000 0000 0000 0000 0000
000000b0: 0000 0000 0000 0000 0000 0000 0000 0000
000000c0: 0000 0000 0000 0000 0000 0000 0000 0000
000000d0: 0000 0000 0000 0000 0000 0000 0000 0000
000000e0: 0000 0000 0000 0000 0000 0000 0000 0000
000000f0: 0000 0000 0000 0000 0000 0000 0000 0000
00000100: 0000 0000 0000 0000 0000 0000 0000 0000
00000110: 0000 0000 0000 0000 0000 0000 0000 0000
00000120: 0000 0000 0000 0000 0000 0000 0000 0000
00000130: 0000 0000 0000 0000 0000 0000 0000 0000
00000140: 0000 0000 0000 0000 0000 0000 0000 0000
00000150: 0000 0000 0000 0000 0000 0000 0000 0000
00000160: 0000 0000 0000 0000 0000 0000 0000 0000
00000170: 0000 0000 0000 0000 0000 0000 0000 0000
00000180: 0000 0000 0000 0000 0000 0000 0000 0000
00000190: 0000 0000 0000 0000 0000 0000 0000 0000
000001a0: 0000 0000 0000 0000 0000 0000 0000 0000
000001b0: 0000 0000 0000 0000 0000 0000 0000 0000
000001c0: 0000 0000 0000 0000 0000 0000 0000 0000
000001d0: 0000 0000 0000 0000 0000 0000 0000 0000
000001e0: 0000 0000 0000 0000 0000 0000 0000 0000
000001f0: 0000 0000 0000 0000 0000 0000 0000 0000

action_model._continuous_distribution.log_sigma f4 [1, 2]
0.0 0.0
00000000: 0000 0000 0000 0000

action_model._continuous_distribution.mu.weight f4 [2, 128]
-0.001026093 0.013564773 -0.010080682 0.0184983 -0.038252663 -0.025633773 0.00023761322 0.0075191357
-0.03703368 0.004964435 0.008600248 -0.0010967631 -0.0051351204 0.002691562 0.030937115 -0.009769268
-0.017441263 0.0014790925 0.004373586 0.01431401 -0.008380876 -0.045986537 0.03210216 -0.013115629
0.014944344 0.020654691 0.031019378 -0.0024172384 -0.013721652 -0.0090930015 0.007895543 0.006695085
0.0036913853 0.017261937 0.0027258114 0.005899502 0.00025611775 -0.019968284 -0.045127407 0.007493492
-0.030355914 0.018520204 -0.0021701455 -0.024908911 0.026279962 -0.0016445849 -0.008128392 0.021466777
0.035554465 -2.0151885e-05 0.011859103 -0.029238213 -0.0053178454 -0.017483486 -0.0034625658 0.019028349
0.045976844 -0.0010397712 -0.011687006 0.015618818 -0.001759599 0.003310306 -0.040419396 -0.020183204
0.010353398 -0.012867783 -0.0038022776 0.015978578 0.04472917 -0.00040097613 0.013394457 -0.027898205
-0.015913261 -0.018248668 -0.008271704 0.021503374 -0.027660275 0.028706303 -0.029097278 -0.019604387
-0.01204387 0.008176844 -0.01682858 -0.0045108697 -0.022506872 -0.008011435 0.021423398 0.00068158685
0.015599834 0.020939583 0.011063454 -0.0061741 0.031211352 0.026864892 -0.023243638 -0.012929318
0.005173029 -0.010939757 -0.0035380297 -0.008989592 -0.020934552 -0.02540592 0.028064786 -0.01900054
-0.0014240685 0.024526535 -0.0009242832 -0.020610617 0.01452963 -0.023443682 0.014471459 -0.031945243
0.001501491 0.025256434 0.0097273085 0.022461973 0.0018555208 0.008558231 -0.014708491 0.020410124
0.0052608517 -0.029070506 0.018970143 0.013101633 -0.016561238 0.02571925 -0.02905257 0.022108855
-0.0003720843 0.008006328 -0.023546692 0.003213852 -0.014240301 -0.024444561 -0.008207248 0.013971487
-0.003319037 -0.0036795957 0.015905125 0.00025041896 -0.017675221 -0.0075363615 -0.018710142 -0.0028811146
0.020541271 -0.02920863 0.019060716 0.004103166 0.040616635 0.007859876 0.033448264 0.013867398
-0.03478772 -0.024254814 -0.028169317 -0.030927805 0.002827696 0.011713463 0.028289199 0.01287433
-0.027352769 0.010057115 -0.007090383 0.0030957037 -0.010500006 0.0031749445 0.0032085117 0.008534312
0.011812159 -0.004929761 -0.007657463 0.03818787 -0.017129181 -0.029302726 -0.0026411682 0.034189284
-0.013039716 -0.01351821 -0.0079664625 0.0009272205 -0.016276633 0.030693574 -0.003963056 -0.014134357
0.00050694734 0.0135926 0.011049955 0.0033607066 -0.022225676 -0.00050005753 0.011757258 -0.0161089
-0.024752026 0.021272356 -0.029635837 -0.008745608 8.581793e-05 0.00021531813 -0.016024208 0.00015905102
-0.004160006 0.011483324 0.006164394 -0.0050697974 0.020584933 -0.004491746 -0.017327867 0.012389013
-0.034943473 0.0353476 -0.0281548 0.03941553 0.013601745 -0.017129576 -0.035454936 -0.029864583
0.014020492 -0.0294869 0.0051573934 -0.0015508928 0.008902716 0.03559519 -5.5582386e-05 0.0013471184
-0.011228062 -0.0014297436 0.0052834786 0.0075814473 0.0035891011 -0.000102683145 0.010691765 0.0449904
-0.021592073 0.0057881786 0.012809932 0.021561692 -0.007957573 -0.037019517 -0.011379215 -0.003514028
0.001999649 0.011379847 -0.005133348 0.012792516 -0.023821965 -0.0005027821 0.011383185 0.004922626
-0.003064576 -0.045141973 -0.027897334 -0.02253244 -0.014441262 0.015605588 0.021237824 0.004297555
00000000: f87d 86ba c83e 5e3c 7229 25bc bf89 973c
00000010: d3ae 1cbd ebfd d1bc d027 7939 1563 f63b
00000020: a1b0 17bd b3ac a23b 0ee8 0c3c 43c1 8fba
00000030: 8344 a8bb eb64 303b d56f fd3c 480f 20bc
00000040: fbe0 8ebc 1cde c13a 4c50 8f3b 4f85 6a3c
00000050: f14f 09bc 615c 3cbd 8e7d 033d efe2 56bc
00000060: 1fd9 743c 0734 a93c 5a1c fe3c 886a 1ebb
00000070: c8d0 60bc d0fa 14bc 4f5c 013c 7262 db3b
00000080: 2beb 713b e868 8d3c 87a3 323b 9c50 c13b
00000090: 8b47 8639 8794 a3bc 84d7 38bd f88b f53b
000000a0: f7ac f8bc afb7 973c 0039 0ebb c60d ccbc
000000b0: 1349 d73c 1d8f d7ba f22c 05bc 18db af3c
000000c0: 8fa1 113d d80b a9b7 af4c 423c fa84 efbc
000000d0: 5241 aebb 8739 8fbc 37ec 62bb 57e1 9b3c
000000e0: 3752 3c3d ef48 88ba db7a 3fbc 12e6 7f3c
000000f0: 58a2 e6ba b8f1 583b cf8e 25bd 3f57 a5bc
00000100: 4ca1 293c 65d3 52bc a22f 79bb 82e5 823c
00000110: ef35 373d 1b3a d2b9 6d74 5b3c c78a e4bc
00000120: 875c 82bc 3b7e 95bc 0b86 07bc d827 b03c
00000130: cd97 e2bc 7b29 eb3c 6a5d eebc 6199 a0bc
00000140: a753 45bc 2bf8 053c 17dc 89bc ebcf 93bb
00000150: 5560 b8bc 6542 03bc 1f80 af3c 85ac 323a
00000160: 7296 7f3c 7d89 ab3c 7d43 353c 1b50 cabb
00000170: f3ae ff3c c313 dc3c 7169 bebc 7dd5 53bc
00000180: 8382 a93b ab3c 33bc 4ade 67bb 1549 13bc
00000190: f07e abbc 1320 d0bc 1fe8 e53c 05a7 9bbc
000001a0: cfa7 baba dfeb c83c 984b 72ba 99d7 a8bc
000001b0: af0d 6e3c f70c c0bc b319 6d3c 04d9 02bd
000001c0: adcd c43a 95e6 ce3c 4a5f 1f3c 2c02 b83c
000001d0: f234 f33a d337 0c3c e2fb 70bc 2233 a73c
000001e0: 3963 ac3b 4525 eebc 4667 9b3c 3ba8 563c
000001f0: 6fab 87bc 2db1 d23c a8ff edbc a11d b53c
00000200: 4f14 c3b9 f92c 033c fee4 c0bc 7d9f 523b
00000210: 2750 69bc f63f c8bc b177 06bc aae8 643c
00000220: 3384 59bb 5f25 71bb 774b 823c aa4a 8339
00000230: a0cb 90bc 95f3 f6bb 0346 99bc 15d1 3cbb
00000240: 2b46 a83c f046 efbc 3825 9c3c da73 863b
00000250: a15d 263d b6c6 003c 0c01 093d 1534 633c
00000260: 917d 0ebd 08b2 c6bc 57c3 e6bc 4f5c fdbc
00000270: de50 393b d3e9 3f3c c0be e73c dbee 523c
00000280: ea12 e0bc 99c6 243c 7256 e8bb 4ae1 4a3b
00000290: 3808 2cbc bb12 503b e545 523b 80d3 0b3c
000002a0: c987 413c d589 a1bb 75eb fabb e26a 1c3d
000002b0: 7f52 8cbc 450c f0bc 7317 2dbb 100a 0c3d
000002c0: 88a4 55bc 7b7b 5dbc c485 02bc b710 733a
000002d0: 9356 85bc 1771 fb3c 86dc 81bb ca93 67bc
000002e0: a9e4 043a 7fb3 5e3c df0a 353c 4d3f 5c3b
000002f0: 9f12 b6bc 4b16 03ba 84a1 403c d0f6 83bc
00000300: c3c4 cabc 5d43 ae3c dbc6 f2bc bd49 0fbc
00000310: 26f9 b338 05c7 6139 3345 83bc efc6 2639
00000320: a950 88bb 8d24 3c3c affe c93b 8b20 a6bb
00000330: bca1 a83c 7f2f 93bb 2cf3 8dbc 49fb 4a3c
00000340: e320 0fbd a5c8 103d e5a4 e6bc 2e72 213d
00000350: dad9 5e3c 5353 8cbc 3239 11bd 92a6 f4bc
00000360: 35b6 653c 838e f1bc 5aff a83b 5447 cbba
00000370: b3dc 113c 43cc 113d 2221 69b8 cb91 b03a
00000380: e8f5 37bc 3c66 bbba 0821 ad3b ca6d f83b
00000390: 2037 6b3b 9857 d7b8 832c 2f3c db47 383d
000003a0: dce1 b0bc c3aa bd3b c0e0 513c 25a2 b03c
000003b0: 7b60 02bc c7a1 17bd e36f 3abc 9b4b 66bb
000003c0: 8b0c 033b 8a72 3a3c a535 a8bb b397 513c
000003d0: 4826 c3bc 23cd 03ba 8a80 3a3c fb4d a13b
000003e0: 0ed7 48bb cae6 38bd f388 e4bc f495 b8bc
000003f0: 0b9b 6cbc 95ae 7f3c f2fa ad3c 81d2 8c3b

action_model._continuous_distribution.mu.bias f4 [2]
0.0 0.0
00000000: 0000 0000 0000 0000

network_body._body_endoder.seq_layers.0.weight f4 [128, 15]
-0.18555482 0.25812623 0.10524685 -0.37754542 0.25952253 0.42485073 0.20157184 0.1219597
-0.07198569 0.047222342 -0.27455118 0.13390937 0.12846619 -0.12826504 -0.024642807 0.27439654
-0.07163416 0.28411096 -0.663421 -0.21394885 -0.20343952 -0.10397828 -0.18132746 -0.12889084
-0.2806856 0.2536204 -0.057975076 -0.02917375 -0.21865726 0.0004066044 0.13503145 -0.34620816
-0.30785993 -0.19758388 -0.07122185 0.3059929 -0.17233859 0.1341 -0.016175386 0.1510072
-0.17279768 0.3978053 0.0038346208 -0.33695015 0.01778461 0.19414188 0.14012013 0.5112432
0.07118843 -0.02893886 -0.65207374 0.18700325 0.29460648 -0.46010458 0.14823648 0.42026514
-0.12379856 0.01627381 -0.06683747 0.14701183 0.19651687 -0.10365946 -0.83214265 0.0930759
0.34050426 0.1297174 -0.05893364 0.13029405 0.7502468 -0.015027214 0.17186059 0.055900317
0.03985351 -0.24852033 0.24238512 -0.08567928 0.19213158 -0.016807891 -0.18124811 0.23711434
0.1054231 -0.029591346 0.3142277 -0.20026459 -0.42516142 0.036461554 0.16974024 0.19915932
0.24004766 0.3493779 0.4026985 0.49612477 0.02813543 -0.2132944 0.22868739 0.07158712
0.25882432 -0.0012457953 -0.19128913 -0.21688154 0.24564378 0.037903234 0.17699525 0.41634542
-0.16802965 -0.1232561 0.22682951 0.17141269 0.3683237 0.27019188 -0.3600454 0.2701577
-0.37739477 -0.04864515 -0.48254773 0.12400269 -0.24021307 0.64730024 0.2177281 0.058920007
0.024335388 -0.31344694 -0.2448662 0.20879798 -0.11629948 -0.31467435 0.35608938 -0.07111955
-0.27185467 -0.3243775 -0.071341895 -0.09791142 0.2780638 -0.02423095 -0.1960471 -0.040067036
0.045544557 0.041543607 0.09875547 0.4229732 0.25754473 0.04001354 -0.49509478 0.1997527
-0.12284519 0.14011069 -0.008086997 0.07539666 -0.058778584 -0.12561853 0.1448189 -0.027637849
0.22014725 -0.081586346 -0.1296708 0.12421519 -0.004935313 -0.15184027 0.41579807 0.0045607337
0.2526621 0.3879362 0.33841377 -0.21016656 0.27358592 0.18878263 -0.31846017 -0.16260123
-0.24385944 -0.2030623 -0.009443402 0.0085395565 -0.21842285 -0.5819296 -0.16116051 0.03662929
-0.5679325 -0.45659915 0.0874736 -0.026782501 -0.88248485 -0.13928853 -0.1424283 -0.13573891
-0.23943593 0.1751547 0.440394 -0.23709252 -0.030768288 0.0682179 -0.3081249 -0.29746538
-0.7134994 -0.24922578 -0.14320289 -0.24868399 0.0509063 -0.4626168 -0.12058861 0.4605768
-0.13058268 0.14843382 0.007769595 0.04617367 -0.13204102 0.11232886 0.36834148 0.34162048
-0.10543458 -0.07001097 0.006673601 0.012159207 -0.2557047 -0.18161762 0.11800479 -0.20027994
-0.35922372 -0.32340285 -0.20759921 -0.05042454 0.1224154 -0.50397724 0.28933415 -0.1820509
-0.039624404 -0.69314224 0.10665348 0.06229698 -0.1032525 0.03312702 0.43922338 -0.0665442
0.1021808 0.04477276 0.20320497 0.58527094 -0.31385973 0.047894493 -0.15383384 -0.17892464
-0.18791246 -0.17600112 0.46695024 -0.3228457 -0.12122735 -0.04956141 -0.0911561 -0.014167642
0.7865186 0.23689719 0.5600823 0.04036009 -0.27251044 0.19893707 0.3464094 0.24145642
00000000: 1502 3ebe 1f29 843e a98b d73d a24d c1be
00000010: 23e0 843e 0986 d93e d968 4e3e 02c6 f93d
00000020: 3c6d 93bd 376c 413d f991 8cbe 8a1f 093e
00000030: a48c 033e e957 03be b6df c9bc b47d 8c3e
00000040: eeb4 92bd fe76 913e f5d5 29bf 6815 5bbe
00000050: 7352 50be 91f2 d4bd e8ad 39be f6fb 03be
00000060: 06b6 8fbe 88da 813e 4677 6dbd cafd eebc
00000070: b0e7 5fbe 852d d539 af45 0a3e 3242 b1be
00000080: d19f 9dbe 6e53 4abe c3dc 91bd 1aab 9c3e
00000090: 8779 30be 8351 093e 3e82 84bc a2a1 1a3e
000000a0: e0f1 30be 23ad cb3e 434e 7b3b bb84 acbe
000000b0: 08b1 913c 21cd 463e a77b 0f3e d6e0 023f
000000c0: 3dcb 913d 3011 edbc 4eee 26bf c87d 3f3e
000000d0: a9d6 963e d492 ebbe 4ecb 173e fe2c d73e
000000e0: 198a fdbd a750 853c 15e2 88bd 458a 163e
000000f0: b83b 493e 694b d4bd 4d07 55bf 949e be3d
00000100: 9356 ae3e a3d4 043e 6764 71bd ce6b 053e
00000110: 2d10 403f b434 76bc 39fc 2f3e bbf7 643d
00000120: 6f3d 233d 1d7c 7ebe ce33 783e 9e78 afbd
00000130: 24be 443e b4b0 89bc 1b99 39be 1ace 723e
00000140: 11e8 d73d 8d69 f2bc 74e2 a03e 2912 4dbe
00000150: c2ae d9be b658 153d 63d0 2d3e 6cf0 4b3e
00000160: 0ecf 753e a9e1 b23e 7f2e ce3e 1104 fe3e
00000170: 467c e63c d969 5abe 072d 6a3e 459c 923d
00000180: 9f84 843e f449 a3ba 4ce1 43be 3216 5ebe
00000190: 0b8a 7b3e 6c40 1b3d 3e3e 353e 3a2b d53e
000001a0: f70f 2cbe b26d fcbd ff45 683e cf86 2f3e
000001b0: ed94 bc3e 9756 8a3e df57 b8be 1c52 8a3e
000001c0: e339 c1be 2340 47bd 7f10 f7be 1ff5 fd3d
000001d0: 6afa 75be 78b5 253f 1df4 5e3e 1b56 713d
000001e0: 025b c73c 1e7c a0be 35be 7abe 23cf 553e
000001f0: 6c2e eebd ff1c a1be 5951 b63e 20a7 91bd
00000200: 8930 8bbe cf14 a6be b31b 92bd c885 c8bd
00000210: 615e 8e3e fc7f c6bc 92c0 48be 551d 24bd
00000220: ee8c 3a3d a129 2a3d 4f40 ca3d f18f d83e
00000230: e7dc 833e 3de5 233d 107d fdbe f98b 4c3e
00000240: 4296 fbbd 2d79 0f3e 537f 04bc 9069 9a3d
00000250: d0c1 70bd 25a2 00be 684b 143e c568 e2bc
00000260: 486e 613e be16 a7bd 6cc8 04be 8964 fe3d
00000270: 68b8 a1bb 047c 1bbe 7ce3 d43e 3572 953b
00000280: ed5c 813e 939f c63e 9244 ad3e e735 57be
00000290: 7413 8c3e 3c50 413e 360d a3be f080 26be
000002a0: 4ab6 79be 90ef 4fbe 80b8 1abc 7fe9 0b3c
000002b0: 3daa 5fbe 57f9 14bf 4307 25be 9808 163d
000002c0: 0664 11bf 5dc7 e9be 5c25 b33d fa66 dbbc
000002d0: 87ea 61bf a7a1 0ebe b9d8 11be 24ff 0abe
000002e0: b12e 75be c15b 333e 537b e13e 62c8 72be
000002f0: c70d fcbc d4b5 8b3d 8cc2 9dbe 624d 98be
00000300: e6a7 36bf 0b35 7fbe c7a3 12be 04a7 7ebe
00000310: 2083 503d 1cdc ecbe 29f7 f6bd b9d0 eb3e
00000320: 77b7 05be 09ff 173e 1698 fe3b 9a20 3d3d
00000330: c335 07be ac0c e63d 4197 bc3e e1e8 ae3e
00000340: 16ee d7bd e961 8fbd 39ae da3b 6937 473c
00000350: baeb 82be f8f9 39be 7fac f13d 2f16 4dbe
00000360: 2cec b7be 0f95 a5be e394 54be f689 4ebd
00000370: edb4 fa3d a704 01bf 9b23 943e 8d6b 3abe
00000380: 334d 22bd c571 31bf 246d da3d 1e2b 7f3d
00000390: 0c76 d3bd 33b0 073d e3e1 e03e 5348 88bd
000003a0: 2b44 d13d a463 373d f714 503e 51d4 153f
000003b0: 39b2 a0be 042d 443d 9e86 1dbe 0538 37be
000003c0: 206c 40be a339 34be 1a14 ef3e 084c a5be
000003d0: 0b46 f8bd e800 4bbd 0db0 babd 661f 68bc
000003e0: 4859 493f 2d95 723e 8e61 0f3f 9f50 253d
000003f0: 7d86 8bbe 29b6 4b3e 935c b13e 5a40 773e

network_body._body_endoder.seq_layers.0.bias f4 [128]
0.0 0.0 0.0 0.0 0.0 0.0 0.0 0.0
0.0 0.0 0.0 0.0 0.0 0.0 0.0 0.0
0.0 0.0 0.0 0.0 0.0 0.0 0.0 0.0
0.0 0.0 0.0 0.0 0.0 0.0 0.0 0.0
0.0 0.0 0.0 0.0 0.0 0.0 0.0 0.0
0.0 0.0 0.0 0.0 0.0 0.0 0.0 0.0
0.0 0.0 0.0 0.0 0.0 0.0 0.0 0.0
0.0 0.0 0.0 0.0 0.0 0.0 0.0 0.0
0.0 0.0 0.0 0.0 0.0 0.0 0.0 0.0
0.0 0.0 0.0 0.0 0.0 0.0 0.0 0.0
0.0 0.0 0.0 0.0 0.0 0.0 0.0 0.0
0.0 0.0 0.0 0.0 0.0 0.0 0.0 0.0
0.0 0.0 0.0 0.0 0.0 0.0 0.0 0.0
0.0 0.0 0.0 0.0 0.0 0.0 0.0 0.0
0.0 0.0 0.0 0.0 0.0 0.0 0.0 0.0
0.0 0.0 0.0 0.0 0.0 0.0 0.0 0.0
00000000: 0000 0000 0000 0000 0000 0000 0000 0000
00000010: 0000 0000 0000 0000 0000 0000 0000 0000
00000020: 0000 0000 0000 0000 0000 0000 0000 0000
00000030: 0000 0000 0000 0000 0000 0000 0000 0000
00000040: 0000 0000 0000 0000 0000 0000 0000 0000
00000050: 0000 0000 0000 0000 0000 0000 0000 0000
00000060: 0000 0000 0000 0000 0000 0000 0000 0000
00000070: 0000 0000 0000 0000 0000 0000 0000 0000
00000080: 0000 0000 0000 0000 0000 0000 0000 0000
00000090: 0000 0000 0000 0000 0000 0000 0000 0000
000000a0: 0000 0000 0000 0000 0000 0000 0000 0000
000000b0: 0000 0000 0000 0000 0000 0000 0000 0000
000000c0: 0000 0000 0000 0000 0000 0000 0000 0000
000000d0: 0000 0000 0000 0000 0000 0000 0000 0000
000000e0: 0000 0000 0000 0000 0000 0000 0000 0000
000000f0: 0000 0000 0000 0000 0000 0000 0000 0000
00000100: 0000 0000 0000 0000 0000 0000 0000 0000
00000110: 0000 0000 0000 0000 0000 0000 0000 0000
00000120: 0000 0000 0000 0000 0000 0000 0000 0000
00000130: 0000 0000 0000 0000 0000 0000 0000 0000
00000140: 0000 0000 0000 0000 0000 0000 0000 0000
00000150: 0000 0000 0000 0000 0000 0000 0000 0000
00000160: 0000 0000 0000 0000 0000 0000 0000 0000
00000170: 0000 0000 0000 0000 0000 0000 0000 0000
00000180: 0000 0000 0000 0000 0000 0000 0000 0000
00000190: 0000 0000 0000 0000 0000 0000 0000 0000
000001a0: 0000 0000 0000 0000 0000 0000 0000 0000
000001b0: 0000 0000 0000 0000 0000 0000 0000 0000
000001c0: 0000 0000 0000 0000 0000 0000 0000 0000
000001d0: 0000 0000 0000 0000 0000 0000 0000 0000
000001e0: 0000 0000 0000 0000 0000 0000 0000 0000
000001f0: 0000 0000 0000 0000 0000 0000 0000 0000

network_body._body_endoder.seq_layers.2.weight f4 [128, 128]
0.029104948 0.07385524 -0.035030514 0.05252089 0.001917088 0.0980858 -0.03396199 -0.018701775
-0.012675555 0.019471802 -0.01279522 0.060180023 -0.09529848 0.044383433 -0.032263294 0.009397917
-0.113097824 0.057877418 -0.17368484 0.11464606 0.10972109 -0.0602153 -0.05507152 -0.028411549
0.09420676 0.08546337 0.01650733 -0.03640282 0.03065684 -0.14542432 0.035785746 0.11824026
-0.03425431 -0.11782187 -0.029056521 0.10865669 0.045990113 -0.17173252 -0.14802434 0.016637525
0.120005995 -0.07587006 0.00020648543 -0.047975745 0.06818712 0.043526243 -0.069298856 -0.056200746
0.07273653 0.055992182 -0.07843903 -0.052613955 -0.01714533 0.053585064 0.09416526 0.13985948
-0.040450502 0.09536204 -0.048817288 0.020690009 -0.11382042 -0.121672936 0.004781457 -0.011592497
0.035534475 -0.09916479 0.047132052 -0.053611286 -0.10602869 -0.05761166 0.010967334 0.0355969
0.04350694 0.053006005 0.06160501 0.07369897 -0.06848736 0.07115133 -0.13839045 0.12511948
-0.009639904 -0.07874248 -0.024532903 0.06577207 -0.041488025 0.057569526 -0.1474926 -0.0840698
0.11079042 0.046214152 -0.02839033 -0.14232557 0.08091733 0.08159464 -0.041993547 0.02188305
-0.09923271 0.07645426 0.13272592 0.022629336 -0.008605553 -0.008071153 0.07013258 0.11817276
-0.19170064 -0.09043988 -0.046816148 0.07438175 0.010022313 -0.008817686 0.10884969 -0.14689215
0.1725621 -0.04301251 -0.012778204 -0.060767163 0.0078043826 0.00089623797 0.21120684 -0.07880462
0.010210022 0.082110636 -0.05431263 0.18289696 0.103792705 0.081614465 0.08010685 -0.024218991
-0.12588154 -0.21579431 -0.008291095 0.020245738 0.033870418 0.11686856 -0.024749909 0.02014443
-0.04140737 0.09212457 -0.1245477 0.0013698707 0.09098831 0.1582077 0.18305734 0.03240954
-0.13001056 -0.14438184 -0.064029425 0.07198042 0.079347454 -0.04209033 0.026162624 -0.021752797
-0.07144796 0.033972017 -0.04948895 -0.050260358 -0.0061868294 0.032187272 -0.04913609 0.13433899
-0.052415088 -0.018614843 0.11359209 -0.030306697 -0.1381037 0.0022593194 0.06106107 -0.058247514
0.007640575 0.21579331 0.033918217 0.093826324 -0.03261965 -0.17866653 0.010338894 -0.0019335059
0.071272075 0.12459189 0.008878552 -0.06625566 0.012858111 -0.10653148 0.12003177 0.07283478
0.050709922 0.094396904 0.06944198 -0.027497675 0.17445761 -0.16832669 -0.02494095 -0.039266836
-0.09903707 -0.011905752 0.0727924 -0.053710993 0.021446966 -0.039922614 -0.047382936 0.029419575
0.10030181 0.09661325 0.16651677 -0.009783669 0.10688821 -0.02372427 -0.006969032 0.098639175
-0.032696865 0.048658114 -0.008582804 0.06040007 -0.10969188 -0.11508644 8.1016115e-05 0.06293877
-0.064618744 -0.014540308 -0.08955618 0.065075345 -0.140927 0.13381782 0.05832761 0.10506893
-0.038405493 -0.025079075 -0.04042587 -0.022863168 0.0065890457 -0.11440063 0.102916636 0.25847796
0.04017193 0.15255164 -0.039681 -0.010839977 0.016039612 -0.09083306 0.056334298 -0.018741347
-0.052814994 0.0363936 0.055897266 0.08459363 0.11186984 -0.040668074 -0.1554173 0.03517751
-0.031940814 0.04017072 0.009590126 0.0763013 -0.10682315 -0.023406023 -0.07404574 -0.053460456
00000000: 806d ee3c 6b41 973d 287c 0fbd 2520 573d
00000010: cd46 fb3a 35e1 c83d ba1b 0bbd 7734 99bc
00000020: 22ad 4fbc 5483 9f3c 0ba3 51bc 547f 763d
00000030: d92b c3bd 67cb 353d 8426 04bd b9f9 193c
00000040: d59f e7bd df10 6d3d 70da 31be 8ecb ea3d
00000050: 73b5 e03d 52a4 76bd ad92 61bd 56bf e8bc
00000060: 79ef c03d 6b07 af3d 613a 873c 201b 15bd
00000070: 0e24 fb3c 1dea 14be 1394 123d f327 f23d
00000080: 3f4e 0cbd 984c f1bd f107 eebc 6687 de3d
00000090: 2160 3c3d a6da 2fbe b193 17be 6b4b 883c
000000a0: b4c5 f53d c361 9bbd 0384 5839 3782 44bd
000000b0: b0a5 8b3d 9348 323d 8fec 8dbd c132 66bd
000000c0: e4f6 943d 0f58 653d a4a4 a0bd bb81 57bd
000000d0: 5d74 8cbc 037c 5b3d b7d9 c03d 5337 0f3e
000000e0: 6daf 25bd 2c4d c33d a3f4 47bd 187e a93c
000000f0: ae1a e9bd a92f f9bd c5ad 9c3b 75ee 3dbc
00000100: 998c 113d e916 cbbd 8a0d 413d 8297 5bbd
00000110: 9225 d9bd 34fa 6bbd 55b0 333c 0ece 113d
00000120: 5534 323d d31c 593d 8955 7c3d 7cef 963d
00000130: 1a43 8cbd cab7 913d 3ab6 0dbe 521f 003e
00000140: b0f0 1dbc bd43 a1bd 3af9 c8bc 82b3 863d
00000150: 59ef 29bd 06ce 6b3d 4d08 17be ca2c acbd
00000160: 16e6 e23d 0d4b 3d3d d692 e8bc cbbd 11be
00000170: fcb7 a53d 171b a73d 6d01 2cbd 1544 b33c
00000180: 853a cbbd 0d94 9c3d 4ee9 073e 2861 b93c
00000190: 4efe 0cbc df3c 04bc aca1 8f3d 8f04 f23d
000001a0: 2c4d 44be 8b38 b9bd 4ac2 3fbd 7555 983d
000001b0: a134 243c 0e78 10bc 96ec de3d e56a 16be
000001c0: 1fb4 303e e32d 30bd ac5b 51bc fde6 78bd
000001d0: e8bb ff3b 83f1 6a3a 9b46 583e 5164 a1bd
000001e0: f047 273c 9f29 a83d ec76 5ebd 5749 3b3e
000001f0: 4591 d43d 7c25 a73d 0f0f a43d e866 c6bc
00000200: 17e7 00be 2ff9 5cbe 5fd7 07bc 64da a53c
00000210: b5bb 0a3d c958 ef3d 52c0 cabc ef05 a53c
00000220: c69a 29bd ceab bc3d dd12 ffbd 3c8d b33a
00000230: 1458 ba3d 3301 223e 6273 3b3e debf 043d
00000240: 7d21 05be d5d8 13be dc21 83bd 786a 933d
00000250: eb80 a23d e966 2cbd 0053 d63c ec32 b2bc
00000260: 4f53 92bd 3e26 0b3d edb4 4abd cedd 4dbd
00000270: e3ba cabb cdd6 033d ed42 49bd 2990 093e
00000280: 34b1 56bd 287e 98bc f8a2 e83d c045 f8bc
00000290: 0e6b 0dbe 1711 143b 2c1b 7a3d f294 6ebd
000002a0: ca5d fa3b ecf8 5c3e d4ed 0a3d 0428 c03d
000002b0: 2f9c 05bd 5cf4 36be 7764 293c b16d fdba
000002c0: 18f7 913d 082a ff3d 5977 113c 0cb1 87bd
000002d0: d4aa 523c 2d2d dabd 37d3 f53d 672a 953d
000002e0: 35b5 4f3d 2a53 c13d 9937 8e3d ce42 e1bc
000002f0: 04a5 323e d55d 2cbe f750 ccbc 43d6 20bd
00000300: f3d3 cabd 5810 43bc 2f14 953d 0f00 5cbd
00000310: 8cb1 af3c e585 23bd 9c14 42bd 5201 f13c
00000320: 096b cd3d 2bdd c53d 5f83 2a3e af4b 20bc
00000330: 35e8 da3d 6659 c2bc 7a5c e4bb 5603 ca3d
00000340: 26ed 05bd bb4d 473d e49e 0cbc 1066 773d
00000350: 23a6 e0bd 71b2 ebbd 32e7 a938 0be6 803d
00000360: d556 84bd 793a 6ebc 3b69 b7bd 3946 853d
00000370: 2b4f 10be 8a07 093e efe8 6e3d 612e d73d
00000380: 144f 1dbd a272 cdbc 9995 25bd 8a4b bbbc
00000390: ece8 d73b e14a eabd f5c5 d23d 3957 843e
000003a0: 528b 243d 7f36 1c3e 8b88 22bd 299a 31bc
000003b0: 8165 833c af06 babd cbbe 663d 7487 99bc
000003c0: 8954 58bd 7511 153d 88f4 643d 6d3f ad3d
000003d0: 041c e53d 9193 26bd b625 1fbe 4b16 103d
000003e0: 5fd4 02bd 0e8a 243d e71f 1d3c db43 9c3d
000003f0: 18c6 dabd fdbd bfbc 4ba5 97bd 5af9 5abd

network_body._body_endoder.seq_layers.2.bias f4 [128]
0.0 0.0 0.0 0.0 0.0 0.0 0.0 0.0
0.0 0.0 0.0 0.0 0.0 0.0 0.0 0.0
0.0 0.0 0.0 0.0 0.0 0.0 0.0 0.0
0.0 0.0 0.0 0.0 0.0 0.0 0.0 0.0
0.0 0.0 0.0 0.0 0.0 0.0 0.0 0.0
0.0 0.0 0.0 0.0 0.0 0.0 0.0 0.0
0.0 0.0 0.0 0.0 0.0 0.0 0.0 0.0
0.0 0.0 0.0 0.0 0.0 0.0 0.0 0.0
0.0 0.0 0.0 0.0 0.0 0.0 0.0 0.0
0.0 0.0 0.0 0.0 0.0 0.0 0.0 0.0
0.0 0.0 0.0 0.0 0.0 0.0 0.0 0.0
0.0 0.0 0.0 0.0 0.0 0.0 0.0 0.0
0.0 0.0 0.0 0.0 0.0 0.0 0.0 0.0
0.0 0.0 0.0 0.0 0.0 0.0 0.0 0.0
0.0 0.0 0.0 0.0 0.0 0.0 0.0 0.0
0.0 0.0 0.0 0.0 0.0 0.0 0.0 0.0
00000000: 0000 0000 0000 0000 0000 0000 0000 0000
00000010: 0000 0000 0000 0000 0000 0000 0000 0000
00000020: 0000 0000 0000 0000 0000 0000 0000 0000
00000030: 0000 0000 0000 0000 0000 0000 0000 0000
00000040: 0000 0000 0000 0000 0000 0000 0000 0000
00000050: 0000 0000 0000 0000 0000 0000 0000 0000
00000060: 0000 0000 0000 0000 0000 0000 0000 0000
00000070: 0000 0000 0000 0000 0000 0000 0000 0000
00000080: 0000 0000 0000 0000 0000 0000 0000 0000
00000090: 0000 0000 0000 0000 0000 0000 0000 0000
000000a0: 0000 0000 0000 0000 0000 0000 0000 0000
000000b0: 0000 0000 0000 0000 0000 0000 0000 0000
000000c0: 0000 0000 0000 0000 0000 0000 0000 0000
000000d0: 0000 0000 0000 0000 0000 0000 0000 0000
000000e0: 0000 0000 0000 0000 0000 0000 0000 0000
000000f0: 0000 0000 0000 0000 0000 0000 0000 0000
00000100: 0000 0000 0000 0000 0000 0000 0000 0000
00000110: 0000 0000 0000 0000 0000 0000 0000 0000
00000120: 0000 0000 0000 0000 0000 0000 0000 0000
00000130: 0000 0000 0000 0000 0000 0000 0000 0000
00000140: 0000 0000 0000 0000 0000 0000 0000 0000
00000150: 0000 0000 0000 0000 0000 0000 0000 0000
00000160: 0000 0000 0000 0000 0000 0000 0000 0000
00000170: 0000 0000 0000 0000 0000 0000 0000 0000
00000180: 0000 0000 0000 0000 0000 0000 0000 0000
00000190: 0000 0000 0000 0000 0000 0000 0000 0000
000001a0: 0000 0000 0000 0000 0000 0000 0000 0000
000001b0: 0000 0000 0000 0000 0000 0000 0000 0000
000001c0: 0000 0000 0000 0000 0000 0000 0000 0000
000001d0: 0000 0000 0000 0000 0000 0000 0000 0000
000001e0: 0000 0000 0000 0000 0000 0000 0000 0000
000001f0: 0000 0000 0000 0000 0000 0000 0000 0000

value_heads.value_heads.extrinsic.weight f4 [1, 128]
-0.20321245 -0.032443926 -0.1676006 0.0070281327 -0.19278018 -0.040533572 0.13041651 0.009265259
0.025938362 0.18445438 -0.060678154 -0.003372237 -0.19781667 -0.18629369 0.039397866 0.030246004
-0.076360434 0.10761562 -0.1891103 0.03987834 -0.08334625 0.17333111 0.071674824 -0.03575927
0.19993904 0.18371043 0.009062186 0.1779212 -0.0023079813 -0.07184507 0.06991002 -0.107501455
-0.12598026 0.027815476 -0.16693398 0.20727545 0.1644355 0.0008675605 -0.09255966 0.0017244071
0.14824069 0.16894555 -0.007783547 0.20866096 -0.014621675 0.10166183 -0.11699016 0.13354027
-0.2043194 -0.14634159 0.1818564 -0.10680479 0.04467112 -0.007036075 0.14018524 -0.1853348
-0.055563048 -0.20163152 0.049636453 0.13666415 0.17255592 -0.12546627 0.16128084 0.00040003657
-0.15399796 0.060427845 0.030088544 -0.1680607 0.027842164 0.20523712 -0.20904039 0.004321784
0.031508997 0.06255072 0.0072518885 0.15413192 -0.035772517 0.15320385 -0.015596703 0.1165795
-0.18977761 0.10529712 -0.021141738 0.06574643 -0.13970834 -0.11455124 -0.02841957 -0.14949754
-0.10754848 0.004739538 0.12646514 -0.17523518 0.1910359 -0.011138439 0.048241645 0.00711748
0.03072834 -0.094993815 -0.19181955 0.17255029 0.04957831 0.073839754 -0.11181515 -0.14529794
0.032979906 -0.14674976 0.011926994 -0.15770027 0.05652243 -0.16469471 -0.16007152 -0.035770684
-0.14000854 -0.007051453 -0.110815726 0.018945798 0.029778346 0.0011022091 0.15644524 0.03270632
0.17084798 -0.08604409 0.10869211 0.018114492 0.12700346 0.0003580004 -0.19886087 0.031724364
00000000: ed16 50be ece3 04bd 7e9f 2bbe 404c e63b
00000010: 2b68 45be 8806 26bd e88b 053e 50cd 173c
00000020: b07c d43c 9ce1 3c3e a889 78bd c000 5dbb
00000030: 7490 4abe c6c3 3ebe a85f 213d 78c6 f73c
00000040: dc62 9cbd 9465 dc3d 21a6 41be 7857 233d
00000050: 70b1 aabd b67d 313e 40ca 923d 5078 12bd
00000060: d2bc 4c3e 961e 3c3e 9079 143c fa30 363e
00000070: 8041 17bb 8223 93bd fc2c 8f3d b929 dcbd
00000080: f800 01be 48dd e33c bef0 2abe 0440 543e
00000090: c861 283e 006d 633a eb8f bdbd 8005 e23a
000000a0: 68cc 173e 1000 2d3e 200d ffbb 38ab 553e
000000b0: c08f 6fbc 1434 d03d 8998 efbd c8be 083e
000000c0: 1b39 51be 92da 15be 9038 3a3e 78bc dabd
000000d0: 10f9 363d e08e e6bb b88c 0f3e 68c8 3dbe
000000e0: 1496 63bd 7e78 4ebe 984f 4b3d b0f1 0b3e
000000f0: 80b2 303e 3b7a 00be ce26 253e 00bc d139
00000100: a4b1 1dbe 3083 773d 407c f63c 1b18 2cbe
00000110: 4015 e43c ae29 523e af0e 56be c09d 8d3b
00000120: 940f 013d 981a 803d 40a1 ed3b c2d4 1d3e
00000130: 3486 12bd 78e1 1c3e 5089 7fbc 3cc1 ee3d
00000140: 1055 42be 04a6 d73d 7031 adbc 10a6 863d
00000150: b40f 0fbe d799 eabd 28d0 e8bc e215 19be
00000160: 6142 dcbd 204e 9b3b 1480 013e da70 33be
00000170: ea9e 433e 007e 36bc 0899 453d c039 e93b
00000180: 00ba fb3c 1e8c c2bd 586c 44be 06b1 303e
00000190: a012 4b3d 4c39 973d 57ff e4bd fcc8 14be
000001a0: f015 073d 9245 16be 7069 433c 2e7c 21be
000001b0: 1084 673d bba5 28be cae9 23be 4884 12bd
000001c0: 665e 0fbe e00f e7bb 5bf3 e2bd 3834 9b3c
000001d0: b8f1 f33c 0078 903a 2e33 203e 10f7 053d
000001e0: c6f2 2e3e e237 b0bd f899 de3d d864 943c
000001f0: 320d 023e 00b2 bb39 2fa2 4bbe 68f1 013d
