results/ia8/PlayerScript/checkpoint.pt (torch, 540091 bytes, 36 tensors)

network_body._body_endoder.seq_layers.0.weight f4 [128, 39]
000000 c8 01 3a bd f3 53 1a 3c 9f c4 0b be 76 05 bd bd
       -0.045411855 0.009419429 -0.13649224 -0.09229557
000010 be f0 b8 bd 84 18 34 be 83 58 55 3e e0 14 c4 3c
       -0.09030293 -0.17587477 0.20834546 0.023935735
000020 d0 9c 5f bd 5f 10 5e bd da a9 a4 bd e6 08 45 3c
       -0.054592907 -0.05421483 -0.08040209 0.012026047
000030 29 8d 83 3b b0 79 a2 bd b2 5b e0 3c 9b 4d 87 3e
       0.0040146303 -0.07933366 0.027387474 0.26426396
000040 86 00 91 be 94 7f 6f 3e 0b 4f ce 3d e4 b9 10 3c
       -0.28320712 0.23388511 0.1007367 0.008833382
000050 9b 49 86 3d 19 5b a1 bd 1d f0 80 bd 6c 54 84 be
       0.06557008 -0.078787036 -0.06295798 -0.2584566
000060 13 4e 7f be d5 d3 f2 3d 26 e6 fa bc 2e 9b 09 be
       -0.24932127 0.1185681 -0.030627321 -0.13438103
000070 a7 8b 03 3e 43 0e 68 bd 90 97 92 bb 2d 96 22 3e
       0.12846242 -0.056654226 -0.004473634 0.158776
000080 4b 75 93 3d 59 2f e9 3c 60 b0 39 3d ce 48 54 3d
       0.07200106 0.02846496 0.04533422 0.051827244
000090 62 0f 78 3e df f2 0d bd b5 93 d3 bd 16 03 dd bd
       0.24224618 -0.034655448 -0.10330907 -0.10791604
0000a0 2c e4 01 3e d9 ba f2 3d b7 a3 c9 bd 7e 0e 8b be
       0.12684697 0.118520446 -0.09845679 -0.27159494
0000b0 58 34 76 be c6 81 3d bd bb ae 25 be 7a 7a bc 3d
       -0.24043405 -0.04626634 -0.16179936 0.09203048
0000c0 d9 1a e4 3c 5a e6 3e 3c 16 c4 67 bd 89 61 2b 3d
       0.027844833 0.0116516 -0.056583486 0.041841064
0000d0 9a 44 20 bd 37 b2 e9 3d 40 36 04 3e 1d 19 54 bd
       -0.039127924 0.11410945 0.1291132 -0.051781762
0000e0 8e ac 5a bd 3a 56 cb bd 6f 01 4d bd 6a 5b 34 3e
       -0.053387217 -0.09928556 -0.050050195 0.17612997
0000f0 6c 6e 33 3e 56 21 6e 3d 21 a5 09 3e 39 55 0f bd
       0.17522591 0.05813726 0.13441898 -0.034993384
000100 89 56 19 3e 9a 41 8e bd b8 c0 d5 bd 14 48 91 be
       0.14974417 -0.06946106 -0.10437149 -0.28375304
000110 b2 ff 90 be df 7b af 3c 0d 8d 50 3e 6c 80 c7 3d
       -0.2832008 0.021421371 0.20366307 0.097412914
000120 46 fc 85 3d 1a de 09 be 6a 9b 00 bd 59 01 02 3e
       0.06542258 -0.13463631 -0.031398214 0.12695827
000130 8e 12 1e 3d 0d 75 77 bb b5 19 52 3e 88 cb 28 bb
       0.038591914 -0.0037758977 0.20517619 -0.002575608
000140 b8 f4 1f 3e fe ca 97 3d 6c 4e 89 be bd 9d d8 bd
       0.15620697 0.074117646 -0.26817644 -0.10576961
000150 7a 4a 17 bd 1d 9c 38 be cc 09 0d bd b8 14 22 3e
       -0.03693626 -0.18028302 -0.03443317 0.15828216
000160 74 24 1c 3e 91 df 9d 3e 58 c0 0b 3e 3c 4d f8 3d
       0.15248281 0.3083463 0.13647592 0.12124106
000170 2a 98 58 bd ba 93 6a bd 28 27 42 bd 35 7f 02 3e
       -0.05287949 -0.05726979 -0.047400624 0.12743838
000180 6f 24 a4 3e 27 20 e7 be e7 ca 4d 3e 72 6e 08 3d
       0.32059047 -0.45141718 0.20096932 0.033308454
000190 84 f6 9c 3a d2 dc 1b be 4d 1d 8b be 05 f0 ad 3d
       0.0011975323 -0.15220955 -0.27170792 0.08493046
0001a0 56 dd a2 3d 19 60 98 3d 65 46 29 be 68 e8 89 be
       0.07952373 0.07440204 -0.1653076 -0.26935124
0001b0 ad ec c8 bc bc e1 aa 3d a8 d4 0e be a2 6c 06 be
       -0.024526918 0.08343837 -0.1394831 -0.13127378
0001c0 10 7e 30 3d c6 39 47 be 90 e9 ec bd a5 2c c5 3d
       0.043088973 -0.19455633 -0.11567986 0.09627656
0001d0 4f 1a 44 3d 97 b7 97 3d c6 c2 a0 bc f9 43 af bd
       0.047876652 0.07408064 -0.019624125 -0.08557887
0001e0 7a c4 2d bd 18 86 2e be 80 0a c7 bd e1 aa 4d 3d
       -0.042423703 -0.1704334 -0.097187996 0.05021179
0001f0 92 58 8a be 7f 36 8a bb cf b0 15 bd e7 c9 8f 3d
       -0.270207 -0.004217922 -0.03654557 0.07020932
000200 a6 f4 0a bd 87 79 09 bd 4c bc 23 3d c8 e2 50 be
       -0.03392472 -0.033563163 0.039974496 -0.2039901
000210 02 8c dd 3d 59 12 71 3e 1b a2 6f be d9 44 cc 3d
       0.1081772 0.23542155 -0.23401682 0.09974069
000220 ba 92 9b 3b 90 1b 59 be 10 16 90 3e ac b4 2c be
       0.004747716 -0.2120192 0.28141832 -0.16865796
000230 83 83 c0 be 7b 18 dd 3d 21 d5 ac 3d e9 0a 94 3d
       -0.37600335 0.10795685 0.084390886 0.072286434
000240 61 1b 87 bd 08 ab 5f 3e 47 f1 f6 3e fc a5 53 3e
       -0.06597019 0.21842587 0.48230955 0.20668787
000250 b3 93 c4 bd a7 52 93 3d ab 92 05 be 2d c4 13 3b
       -0.09598484 0.07193499 -0.1304423 0.002254735
000260 5f f3 9c 3d ed 94 47 3d 4d 84 7c 3d 8e 60 13 3e
       0.07663607 0.04872601 0.06164961 0.14392301
000270 d0 15 e0 bb 28 7a 1a 3a 43 aa 10 3e a0 45 c5 bd
       -0.0068385378 0.00058928365 0.1412745 -0.096324205
000280 63 5f 08 be 1e a0 e0 bd a1 67 03 be 97 69 59 be
       -0.13317637 -0.1096804 -0.128325 -0.21231686
000290 a2 f5 f7 bd 8d 9d 4c be e2 84 05 3d 7c 3c f0 3d
       -0.121073976 -0.19981976 0.03259743 0.117302865
0002a0 75 2f 61 3e 00 1d 81 3e 15 79 9e be 6d 84 35 be
       0.2199076 0.25217438 -0.30951753 -0.17726298
0002b0 24 81 4b 3d e3 ab d0 bd 06 fa e4 3c 4a a0 1d be
       0.049683705 -0.10189035 0.027951252 -0.15393177
0002c0 b3 0b f3 3a 7e 79 da 3c 00 3d 49 3d cf a7 42 be
       0.0018542915 0.02666926 0.04913044 -0.19009326
0002d0 23 52 10 3e 92 37 a6 3d 94 2f a4 bd 5f 63 00 be
       0.14093833 0.08116068 -0.08016887 -0.12537907
0002e0 4f eb 50 be 7e 7c 25 3e c4 bb b2 bd 76 d9 93 bd
       -0.20402263 0.16160771 -0.0872722 -0.07219212
0002f0 f4 bd 11 3e 51 09 d7 3d 9f d3 d7 3e 49 33 83 3e
       0.14232618 0.10499824 0.42153642 0.25625065
000300 48 18 99 3e e6 29 dc 3d c4 9e 07 be d8 31 44 3e
       0.29901338 0.10750179 -0.13244158 0.19159639
000310 86 50 83 3e e3 68 b4 3e d6 e2 7f 3d 8d df dc bd
       0.25647372 0.35236272 0.062472187 -0.107848264
000320 7e c9 cc 3d 26 02 56 be d9 f2 c9 bb e9 d3 af be
       0.09999369 -0.20899257 -0.006162983 -0.34341362
000330 ee b8 c9 bc 99 54 ba 3d cd fb b9 bc 71 35 57 3d
       -0.024624314 0.09098167 -0.022703076 0.0525412
000340 6a 24 36 bd 5f 28 9b be 0c ed 09 3d 80 6f ee bc
       -0.04446832 -0.30304238 0.03367333 -0.029105902
000350 28 58 8b be a2 d5 99 bb 89 b1 93 3e 76 68 ef bd
       -0.27215695 -0.0046946565 0.28846386 -0.11689846
000360 be c7 7e 3b 77 e6 72 3e 21 40 49 3d b8 c6 fd 3d
       0.003887638 0.23720728 0.049133424 0.12391418
000370 4d 8a 21 3e 2e 6e 01 be 23 1b c5 3d 80 36 01 3e
       0.15775414 -0.12639686 0.096243165 0.12618446
000380 9b dd b6 bd 1b b3 31 be fa 91 47 be 54 5c 0b be
       -0.08928987 -0.1735348 -0.1948928 -0.13609439
000390 b8 8f 6b bd ce 04 d1 3d 0b 1e 5e 3e 48 be a6 3d
       -0.057510108 0.102059945 0.21691148 0.08141762
0003a0 3d 9a 23 be 58 60 52 3e 8d 0e 3f 3e 9e bc 92 bd
       -0.15976806 0.20544565 0.18657894 -0.07164882
0003b0 85 39 73 bc 8b 97 87 be cc 04 1b bc 5a a6 77 be
       -0.014845257 -0.26482806 -0.009461593 -0.24184552
0003c0 fd 39 72 3e cd ce ee bb 1a 4f 3b be 95 74 c0 3c
       0.23654933 -0.007287836 -0.18291894 0.02349309
0003d0 69 75 a1 be 04 87 8f 3e b9 22 6e 3d 1c 0f 42 bd
       -0.3153489 0.28032696 0.058138583 -0.04737769
0003e0 68 80 54 bd 79 4b 1d bd 4b c8 5b be b4 b1 c3 3e
       -0.05188027 -0.038402054 -0.21463124 0.38221514
0003f0 4f ac a9 3d a6 97 b5 bc ce 11 7a 3c 4a 04 2e bb
       0.082848184 -0.022167038 0.015263034 -0.002655285

network_body._body_endoder.seq_layers.0.bias f4 [128]
000000 bb 93 05 3d 2b 07 3a bb 65 b6 f6 3b e5 2e 81 3a
       0.03261159 -0.002838562 0.0075290673 0.0009855895
000010 66 45 1c 3c 86 f0 a6 3b be 38 20 3b 05 45 0a 3c
       0.00953803 0.0050945906 0.0024447883 0.008439307
000020 a3 c9 ab 3c 2f 4b 9e ba f1 95 92 3c 6b b5 46 3b
       0.020970171 -0.001207685 0.017893763 0.0030320536
000030 d8 4d b4 bb 92 52 f8 3a 17 94 74 3c 27 a0 35 3c
       -0.0055024438 0.0018945506 0.0149278855 0.011085547
000040 fd f0 4f 3c 42 c5 fb 3a 50 6f 96 3c ec 79 96 3b
       0.012691733 0.0019208568 0.018363625 0.004592171
000050 62 21 37 3c 7e b9 74 3c 1a 18 66 3c 47 b4 f4 3a
       0.011177393 0.014936803 0.014043832 0.001866945
000060 51 9f 27 3c b9 70 73 bc e9 3e f9 bc 00 71 b0 bb
       0.010230855 -0.014858418 -0.030425506 -0.0053845644
000070 53 e8 05 3a 38 e6 1a 3c a5 b8 8b 3c a0 1e 9e bc
       0.00051081664 0.0094543025 0.017055819 -0.019301713
000080 0b 02 14 3d 0e ec e7 3c 8c b4 4a 3b 31 ec 94 3c
       0.03613476 0.028310802 0.0030930368 0.018179031
000090 e3 ec 33 3c 61 23 a1 3b b7 6b 98 3c a3 a2 d2 3b
       0.010981771 0.0049175476 0.01860605 0.006428079
0000a0 f2 66 73 3c 67 af ce bc f1 4c 94 3c 6f fd 1b bc
       0.014856087 -0.025230123 0.018103095 -0.0095208725
0000b0 8a 12 04 bc 82 d0 8a 3c 18 93 92 3c d8 fb d3 ba
       -0.008061061 0.016945127 0.017892405 -0.0016173078
0000c0 6e 93 ac 3b 99 c9 3e 3c 01 78 11 bc b5 16 92 3c
       0.0052665984 0.011644744 -0.008878709 0.017833093
0000d0 a6 9b 92 3b cb 86 52 3c 11 c3 33 bb 66 62 3b 3c
       0.004474121 0.01284952 -0.00274295 0.011437034
0000e0 a8 71 bc 3a 76 fb 45 3c b2 67 ba bb e8 24 ac 3c
       0.0014377134 0.012083879 -0.005688631 0.021013692
0000f0 65 12 94 bc 3e 49 57 3c 75 77 3e 3c ac 3b 4a 3c
       -0.018075177 0.013140021 0.01162516 0.012343328
000100 3a 95 b6 3c d6 be b1 3b 6d 31 8b 3c 2a a4 cd 3c
       0.022287954 0.0054243607 0.016991341 0.025102694
000110 d6 bc 87 3c 67 46 75 3c c8 39 16 bb f6 be 5f 3c
       0.016569536 0.0149703985 -0.0022922624 0.0136563685
000120 5d c3 d3 3b c2 cf 31 3a 5f 96 36 bc 46 c7 58 bc
       0.006462498 0.00067829725 -0.01114425 -0.013231104
000130 c8 21 c6 ba 1b 76 76 3c e1 c6 e7 bc 40 bf 90 bc
       -0.0015116269 0.015042807 -0.028293075 -0.01766932
000140 ef c9 b2 3c d3 49 95 3c 38 15 87 3c 40 36 90 bc
       0.021824805 0.018223679 0.01648961 -0.017603993
000150 07 25 7a 3c df c4 7c 3b 5a f7 d3 3a f2 b5 cf 3a
       0.015267617 0.0038569493 0.0016171739 0.0015847071
000160 58 01 33 bc 53 25 4e 3a f4 01 17 3c 9a b4 7a 3c
       -0.010925613 0.0007863838 0.009216774 0.015301848
000170 33 46 9c 3c fa 6a 4b 3c d0 b3 ee bc 01 11 0b 3d
       0.019076442 0.012415642 -0.029138476 0.033951763
000180 42 71 ad bc 55 4b 97 3b 63 95 93 bc 51 1f 02 3c
       -0.02117217 0.0046171346 -0.01801557 0.007942037
000190 f2 90 f4 3b 19 5f ab 3c 3d f0 b9 3b 6f 2d 08 bc
       0.007463568 0.02091937 0.0056743906 -0.008311613
0001a0 e5 7b ae 3b a1 bf a4 3c 35 6c 1a bc dc 05 3d 3c
       0.005324828 0.020110907 -0.009425213 0.0115370415
0001b0 81 e2 62 3c 51 72 a1 3c 60 54 a4 3c f0 7b fc 39
       0.013847948 0.01970783 0.020059764 0.00048157526
0001c0 6b 5f c7 3c c9 7e a1 3c 4e a4 30 3b 46 c1 14 3b
       0.024337491 0.019713776 0.0026953402 0.0022698208
0001d0 88 b0 8b bb 00 bb ca 3c 53 15 b7 bc cd cc 29 3c
       -0.0042629875 0.024747372 -0.022349035 0.01036377
0001e0 5a 44 0c 3b cc 98 fa 3c a0 8b df bb 1f f6 98 bc
       0.0021403045 0.030590437 -0.0068220645 -0.018672047
0001f0 1d fa c8 3b d2 ca 63 bc 2c 0b bc bb d6 f9 b1 3c
       0.0061333315 -0.013903337 -0.0057386365 0.021725576

network_body._body_endoder.seq_layers.2.weight f4 [128, 128]
000000 b2 66 c0 3d d2 53 ae bc 19 be 6d 3c 90 c8 f3 bd
       0.093945876 -0.021280203 0.014510655 -0.11903489
000010 fe cf 97 bc 93 d4 2c 3e ac 2b c9 3d 04 f9 b3 bc
       -0.018531796 0.16877966 0.09822783 -0.021969326
000020 17 c7 75 3e 9e 13 df bc 28 68 d0 3c 54 19 4f be
       0.24001728 -0.027231034 0.02544029 -0.20224506
000030 69 dd f8 bc 3e 21 cb 3d 60 df 8e bd d4 fa 46 bd
       -0.030379014 0.0991845 -0.06976199 -0.048579052
000040 1d 55 b6 3d 3a e9 60 bc 3d fa 86 bd 1c 0c 04 3e
       0.08902953 -0.013727481 -0.06590698 0.12895244
000050 3c 65 c9 3d ae b9 e1 bc d5 25 c7 3d a7 47 af 3c
       0.09833762 -0.02755436 0.09724013 0.021396471
000060 3d f5 e5 bd fa cc a8 bd a0 92 01 3d 75 7a 1a 3e
       -0.11228416 -0.08242221 0.031633973 0.15085776
000070 8e b9 31 3d 95 a2 54 bd 26 cf a1 bd 46 1a 1b 3e
       0.04338985 -0.051912863 -0.079008386 0.15146741
000080 be 22 94 3d 62 c4 11 be 16 ee 0a bd f7 06 7f 3d
       0.07233189 -0.1423507 -0.033918463 0.0622625
000090 3a 2e 2f 3e 01 48 0a be 98 51 4e bd 59 e0 bc 3d
       0.17107478 -0.1350403 -0.050370783 0.092224784
0000a0 66 9f 07 3e 2f 31 d8 bd 1f 0c c0 bd 96 33 24 bd
       0.132444 -0.10556256 -0.09377312 -0.04008826
0000b0 0e 74 ed bb 6e 49 19 3e 0c 97 08 3a ae dc db bc
       -0.007246501 0.14969417 0.0005210496 -0.026838627
0000c0 5d 16 17 be e3 c0 82 bd ec 1f 14 bd 6a 2a f8 3d
       -0.14754625 -0.063844465 -0.036163256 0.12117465
0000d0 fa 86 8c bb fe 1c a6 bc 17 4e 1f 3e 87 d5 ae 3d
       -0.0042885514 -0.020277496 0.15557133 0.08536821
0000e0 61 9a da bd d1 a8 8c 3c 1c 9c aa 3d 62 41 43 3c
       -0.10673977 0.017170342 0.08330557 0.011917444
0000f0 56 88 79 3d 68 d8 17 3d 00 1d a9 3c 54 1a 2e 3e
       0.060921036 0.037071615 0.020643711 0.17002231
000100 7e 40 84 bd 0b 40 87 bd e9 0d 06 3d 82 00 1c 3e
       -0.064576134 -0.06604012 0.03272811 0.15234569
000110 ca 2d 00 3e 62 f7 31 3c 58 9b c8 bc cb cf 8b bc
       0.12517467 0.010862203 -0.024488136 -0.017066857
000120 12 58 1d 3d a6 da 96 3d 3e da 61 bd ee 1c 95 3d
       0.03841407 0.07365923 -0.055139773 0.072809085
000130 58 c9 33 bd ee 6c da bd 26 d2 3f be 00 fe 04 bd
       -0.04389319 -0.10665308 -0.18732509 -0.032468796
000140 2d d4 d9 3c 50 db 40 be 3c b1 9f bd 53 6a 91 3d
       0.026590431 -0.18833661 -0.07797477 0.07100358
000150 fa 42 5a bd f5 27 ff bd b6 7a 43 bd 90 50 1c 3e
       -0.05328653 -0.12458793 -0.04772445 0.15265107
000160 6c 13 e8 3c 0a 4c f4 bc b3 46 cb 3d fd 6c cc bd
       0.028329574 -0.029821415 0.09925594 -0.09981725
000170 98 ca 94 3d 12 b7 27 3e 1b d3 7a bd ef 37 33 3b
       0.07265204 0.1637843 -0.061236482 0.0027346571
000180 a0 a8 47 3d 34 ff a2 bd 41 ec ab 3d a0 c9 95 3c
       0.048744798 -0.079588324 0.08394671 0.018284619
000190 9b 3d a8 3d e3 27 35 bd 8e e4 df bd 62 88 59 3c
       0.08214875 -0.044227492 -0.10932265 0.013277145
0001a0 dc 42 3b bd 53 9d ef 3c df b7 ef 3d aa af 71 bd
       -0.04571806 0.029249823 0.117049925 -0.059005417
0001b0 68 ce 84 3d 5c f9 66 3d c2 a9 77 bc 85 5d ee 3a
       0.06484681 0.05639015 -0.015116157 0.001818583
0001c0 43 40 fe bb f9 f3 33 3d 03 32 7e bd 92 9e 4f 3d
       -0.0077591254 0.043933842 -0.062059414 0.050688334
0001d0 3c 40 77 3d 57 04 88 3d 98 c6 14 3e 44 ca f4 3c
       0.060363993 0.06641453 0.14528883 0.029881604
0001e0 66 55 cb 3d a5 52 43 3c 3e e4 84 be 2c b2 a9 3c
       0.09928398 0.011921559 -0.25955385 0.020714842
0001f0 7b ae b7 bc 26 04 d1 3d 4b 9e 1a 3e b2 6a 12 3e
       -0.022422066 0.102058694 0.15099446 0.14298514
000200 71 89 14 3e ab c7 bd 3c fe 39 e7 3d 42 31 0e bd
       0.14505555 0.023166498 0.11290358 -0.034714945
000210 de fe 9b 3d e2 eb cd 3d 00 18 c9 3c f7 11 df bd
       0.076169714 0.10054757 0.024547577 -0.108920984
000220 7c 23 0a 3e e3 30 0e 3e ff b8 9c bc cd 09 48 bd
       0.13490099 0.13885836 -0.019131182 -0.04883747
000230 07 00 23 3e ca 53 21 be 2b 59 30 bd 2a 06 13 3c
       0.15917979 -0.15754619 -0.043053787 0.008973638
000240 d8 32 63 3b ff b3 15 3d 0d 2e 22 3e c7 29 c5 3d
       0.0034667756 0.03654861 0.1583788 0.09627109
000250 11 1e cc 3c fd 0d 4b 3d 71 53 34 be 2b 07 da bd
       0.02491668 0.049573887 -0.17609955 -0.106458984
000260 74 f7 af 3d 23 de ac 3d 37 7d 8a bd 0f 0c 22 3d
       0.0859212 0.08440807 -0.06762164 0.03956228
000270 93 82 4c 3e 2a d5 c6 3d a2 51 a1 bc 6f d7 37 3d
       0.19971685 0.097086266 -0.019692246 0.044883188
000280 0b 5c ac bd 14 05 6d bd f2 7c eb 3d 3f 79 0c be
       -0.08415993 -0.05786617 0.11498441 -0.13718127
000290 e6 ff b8 bd 9b 2d 1d 3e 53 10 b8 3d 65 aa 0c 3e
       -0.09033184 0.15349428 0.089874886 0.13736875
0002a0 56 8e 16 be ba 05 d0 bd d9 31 13 3e 75 fa ac 3d
       -0.14702734 -0.10157342 0.14374484 0.084462084
0002b0 0a 40 e3 bc e3 d0 2d 3d c2 f7 74 3c 73 4d f0 3c
       -0.027740497 0.042435538 0.014951648 0.029333806
0002c0 e6 1e aa bd 2e 5f 27 3d 77 b3 20 be 35 a6 4a be
       -0.08306675 0.040862255 -0.1569346 -0.19789965
0002d0 98 47 2f 3d 07 1b c4 3d dd b2 24 3e 11 dd b9 3b
       0.042792886 0.095754676 0.16083856 0.005672105
0002e0 71 bf 2f bd 4e 37 1e bd 1e 12 13 3e 1e 87 24 3d
       -0.042907182 -0.03862696 0.1436238 0.04016792
0002f0 ae 23 4d bd 7c 10 0a 3e e3 23 06 3d da 0f 28 3e
       -0.050082855 0.13482851 0.032749068 0.16412297
000300 1e 2b 49 3c 64 48 dd 3c 7a 0a 0f be ce b1 66 3d
       0.012278346 0.027012058 -0.1396884 0.05632191
000310 c1 83 06 3e 1f 73 3e be fa c5 d6 3c 5b f8 1f 3e
       0.13136198 -0.18598603 0.02621745 0.15622084
000320 3b 60 a8 3d 9b 63 c9 3d 5f c4 19 be 98 b9 52 3d
       0.082214795 0.09833451 -0.15016316 0.051446527
000330 5d 08 7c bd 57 9c d8 3b 88 bb a4 3d 2c ef 2e bc
       -0.061531413 0.006610434 0.08043581 -0.01067714
000340 c9 cc 88 3d 56 cd a1 3c 62 d4 04 be 67 f9 19 3d
       0.06679685 0.019751232 -0.12971643 0.037591364
000350 86 c2 42 3d f0 d9 89 3d 5b b1 96 3d 90 76 ec 3d
       0.047548793 0.067310214 0.073580466 0.115460515
000360 ac b0 cf 3c 4e a1 e1 3d 59 13 7e 3d f4 70 8e 3c
       0.025352798 0.110170946 0.06203017 0.017387845
000370 9a 8a e3 bd 77 5a aa 3d 1f 64 00 be 45 d7 0c 3d
       -0.111104205 0.08318036 -0.12538193 0.034384985
000380 84 d2 54 3d a8 7c 49 be 07 17 24 3d 55 f6 c4 3d
       0.051958576 -0.19676459 0.040061023 0.096172966
000390 41 16 92 bc 21 d6 32 bd 2c 2f 1d bd ef 4e 95 3c
       -0.017832877 -0.04366124 -0.038375065 0.018226115
0003a0 50 d2 4b bd d4 96 d2 bd 4c 0a 8f bc fc ee cc 3d
       -0.049761117 -0.102826744 -0.017460965 0.1000652
0003b0 1b d8 1b be 34 c8 13 be 3a e5 55 bc ec 74 82 3b
       -0.15219156 -0.1443184 -0.01305514 0.0039812233
0003c0 ce bd d0 bd cd f9 87 3d c0 4c b9 bc b3 0e 23 bd
       -0.10192452 0.066394426 -0.022619605 -0.03980894
0003d0 64 9d 92 3b 2b 0b bb 3d f0 7f a9 bd 5e 3b 78 3d
       0.004474329 0.091329895 -0.08276355 0.060603492
0003e0 ef 22 04 be e4 9d 11 3d f2 a7 b7 3c b9 49 1d 3d
       -0.12903951 0.035550967 0.02241895 0.038400386
0003f0 df fd 67 bd af 64 41 be 2a 21 05 bc 8e 21 e8 3d
       -0.056638595 -0.18886064 -0.008125583 0.11334525

network_body._body_endoder.seq_layers.2.bias f4 [128]
000000 7f fa 05 3c e6 12 f1 3a 40 b3 db 3b d4 25 31 3b
       0.008177399 0.0018392473 0.006704718 0.0027030604
000010 28 c6 f9 ba ac 65 96 3c 34 cf 27 3c fc b1 40 bb
       -0.0019056248 0.018359028 0.010242272 -0.0029402962
000020 87 b0 6f 3c 4e 8c 47 3c e6 20 5d 3b f0 cd 1d 3c
       0.01462949 0.012179447 0.0033741533 0.009631619
000030 0f 66 42 3c 4a 95 58 3c 83 6a 93 3b 80 54 6b 3b
       0.011865153 0.013219187 0.004498781 0.003590852
000040 dd 17 80 3b 81 b9 f4 3b cf 57 5a 3c a3 05 dd 3b
       0.0039090947 0.007468403 0.013326599 0.0067450567
000050 b5 2e 27 3c 40 f0 25 bc 94 b9 96 bc 97 e2 8a 3b
       0.010204007 -0.010128081 -0.018399037 0.0042384374
000060 3a c8 fe 3b 69 59 55 3c 8e 07 7a 3c 1a 84 20 bc
       0.0077753337 0.013021805 0.01526059 -0.0097971205
000070 90 ef 94 3c d9 b8 6c 3c dc 0f fe 3b 94 06 a0 3c
       0.018180639 0.014448368 0.0077533554 0.019534387
000080 a2 9e 63 3c 73 fb c2 3b ee aa 1d 3c 3d a7 11 bc
       0.0138928015 0.0059503852 0.009623272 -0.00888997
000090 dd cd 99 3c c8 9c 29 3c 37 94 54 3c a0 be 0b 38
       0.018774921 0.010352321 0.01297479 3.3317716e-05
0000a0 50 bb b8 3b 04 47 fd 39 a3 e6 b2 3c 0e 22 35 bb
       0.0056375638 0.0004830883 0.021838492 -0.0027638706
0000b0 b8 4e 79 3c ad d0 62 3c 2c f7 1a 3c 00 bb 4f 3c
       0.015216522 0.0138436975 0.009458344 0.012678862
0000c0 b8 1d 1d 3c d0 4b 10 bc d0 06 5b 3a c5 a8 e7 ba
       0.009589605 -0.008807138 0.0008355202 -0.0017674199
0000d0 a8 7e 8a 3b ff 05 42 3c 21 26 6c 3c be 9d 25 3c
       0.0042265244 0.01184225 0.0144133875 0.010108409
0000e0 f6 fa 50 3c 1b 70 81 3c c1 3e 0a 3b 41 88 2b 3c
       0.012755146 0.015800526 0.0021094533 0.010469497
0000f0 a7 ac 43 3b 4a 87 68 3b c5 5c 03 3c d4 d3 02 3a
       0.0029857547 0.003548103 0.008017723 0.00049906713
000100 26 80 3b bc 5e de 96 3c ef a5 d3 3c 75 ab c4 3b
       -0.011444127 0.01841658 0.02583596 0.0060018846
000110 7b 73 a6 3b ad 8b ad 3b 66 e2 d4 3b 80 3f 0a 3c
       0.0050796843 0.0052961917 0.0064967154 0.008437991
000120 8c ce e5 3b 5f 2f 64 3c 94 0b 6e 3b 06 0e ea 3b
       0.0070131477 0.01392731 0.003632282 0.007142785
000130 2e 1f 67 3c 79 ac ab 3c 43 67 ba 3c 72 24 f1 3b
       0.014106555 0.020956265 0.022754317 0.007359081
000140 94 f1 c7 3b f9 f2 b4 3c 4c 32 fb 3b a8 92 d9 3b
       0.0061017964 0.022088515 0.007665908 0.0066397972
000150 a6 0c 3d 3c ae 7b 80 3a 76 7c a1 3c b0 73 54 bb
       0.01153866 0.0009802484 0.019712668 -0.0032417588
000160 40 be 54 bc dc a7 72 bc 05 0e b2 3b 96 9f 09 3c
       -0.012984812 -0.014810529 0.0054338 0.008399865
000170 7f 20 98 3c 4e 9f a3 3c d0 e8 85 3c 20 6e 88 3c
       0.018570183 0.019973423 0.016346365 0.016654074
000180 11 34 d8 3b 3f 28 70 3c db cd cc 3c e8 27 a4 3b
       0.0065980037 0.014658033 0.025000503 0.00500964
000190 67 da 33 bc 2c 0e f5 3b f6 4b 2d 3c 44 3a 81 bb
       -0.010977364 0.007478496 0.0105771925 -0.0039437134
0001a0 bf c9 71 3b 25 74 cc 3b 9c c0 a4 3b 07 51 d1 39
       0.0036893932 0.0062394314 0.0050278436 0.00039923957
0001b0 44 b0 1d 3c 1c ea 1b 3c 95 39 7e ba 94 62 7b 3b
       0.0096245445 0.009516265 -0.00096979114 0.0038358318
0001c0 bf eb 3a 3c 7f a8 68 3b d3 ba 39 bc 9f 67 7f bc
       0.011408745 0.0035500822 -0.011336046 -0.01558867
0001d0 bd 86 0e 3c 76 d4 a5 3a 98 0e 59 bc fd 47 c4 bb
       0.008699116 0.0012651819 -0.013248108 -0.005990027
0001e0 97 a0 da ba da bd f5 3a 26 2a 8b 3a 2d a5 15 bc
       -0.001667994 0.0018748597 0.001061742 -0.009133619
0001f0 28 e9 0c 3c d8 05 6c 3b 6f e9 2e 3c ec 4e 46 3c
       0.008600511 0.0036014225 0.010675772 0.012103777

action_model._continuous_distribution.log_sigma f4 [1, 2]
000000 72 45 31 bd ca b8 a5 bd
       -0.04327912 -0.08091886

action_model._continuous_distribution.mu.weight f4 [2, 128]
000000 4f 0b 67 3d ea 9e b7 bd 89 f8 32 bd 36 40 81 bc
       0.05640727 -0.08965857 -0.043694053 -0.015777688
000010 73 b9 19 bd 00 38 64 3d 29 b6 57 3d 83 d5 87 bc
       -0.037530374 0.05571747 0.052663956 -0.016581303
000020 9f 62 80 3d a5 70 d9 3c 61 b5 36 bd 0c 24 35 3d
       0.062688105 0.02654297 -0.04460657 0.04422383
000030 56 c1 13 bc ce 14 95 3d c9 6f 05 bc 71 4e 14 bd
       -0.009018263 0.07279359 -0.008144327 -0.03620762
000040 0b f0 6a bc 84 e8 6e 3d fd 70 8f 3d c0 70 27 bd
       -0.014339457 0.058327213 0.07003973 -0.04087901
000050 34 88 63 3d 22 87 7c bc c4 2d 67 bc 23 a3 22 bd
       0.055549815 -0.015413078 -0.0141100325 -0.03970636
000060 c3 87 87 3d 8a c6 2a 3d d3 88 1e 3d 6a 65 b0 bc
       0.06617691 0.041693248 0.038704704 -0.021532733
000070 70 9b 57 3d 68 a0 a9 3d c4 a0 35 bc 0b cc 27 3d
       0.05263847 0.08282548 -0.011085693 0.040966075
000080 57 83 db 3c a9 e4 69 3c 26 1c 19 bd 56 c1 e9 3a
       0.026796026 0.014275708 -0.03738036 0.0017834108
000090 5f b5 ae 3d 65 27 af bd 07 4c 83 3d 3e 15 06 ba
       0.085306875 -0.08552436 0.064109854 -0.00051148597
0000a0 e3 26 43 bd 5d 6e 20 bd fd 88 6e 3d 5c f1 db bc
       -0.047644507 -0.03916775 0.05823611 -0.026848488
0000b0 c0 1c e4 3c fe 52 72 3d 18 22 da 3c a5 88 0f bd
       0.02784574 0.05916118 0.026627585 -0.035042424
0000c0 f1 bc 38 3d 53 c5 ac bb d9 2e 41 bd b9 3c cb 3c
       0.045102064 -0.0052725463 -0.047163818 0.024809228
0000d0 d0 78 56 3d f3 61 2d 3d 97 09 e7 3c bc e3 b8 3c
       0.05236131 0.04232974 0.028202815 0.02256953
0000e0 59 c5 a0 3d 42 6f b0 3d 00 22 96 bd 6a 95 5c bd
       0.07850141 0.08614971 -0.07330704 -0.05385343
0000f0 e4 4a ed 3c 69 c8 39 bd 5a 9a 32 3d ae bb e1 bc
       0.028966375 -0.04535714 0.043604232 -0.027555313
000100 04 3d b1 bc e5 bb 6b bd 72 49 8d 3d 82 03 e5 3c
       -0.02163554 -0.057552237 0.06898774 0.027955774
000110 d1 60 51 bc 17 23 2b 3c 6a 8b 6a 3a 02 43 ca bc
       -0.0127794305 0.010445378 0.0008947166 -0.024690155
000120 19 52 9f bd a0 3b 85 3d ff f2 a5 bc e6 cd 9b bd
       -0.07779331 0.06505513 -0.020257471 -0.076076314
000130 77 a8 56 3d 19 a9 9f 3d 10 c1 af 3d 5d ba a1 bd
       0.052406754 0.07795925 0.085817456 -0.07896874
000140 bd e3 aa bc 27 02 41 bd 34 ee 13 bd f4 bf c9 3c
       -0.020860547 -0.047121193 -0.03611584 0.024627663
000150 0e a5 79 bd e6 d4 13 3d e5 7e 41 3d d1 5f 98 bc
       -0.060948424 0.036091708 0.047240157 -0.018600376
000160 3b 33 24 bd 0f 2f d3 bb 2e be 95 bc b3 7e 4a 3d
       -0.04008792 -0.006444819 -0.018279161 0.049437236
000170 34 37 8e 3d c9 0e 5f 3d de bd 8c 3d d2 6c 0c 3d
       0.06944123 0.05445746 0.06872152 0.034283467
000180 70 8a 36 3c b1 b8 9a 3d d0 9d 0c 3d ef 22 ec bc
       0.0111414045 0.07554758 0.03433019 -0.028825251
000190 d1 0a af 3b 7e f3 99 bd c2 e2 61 3d 37 6f dc bb
       0.0053418656 -0.075171456 0.055147894 -0.006727125
0001a0 c6 1e 15 3a fd 4b a0 bc 16 e1 46 bd 64 80 77 bc
       0.00056884845 -0.019567484 -0.048554502 -0.015106294
0001b0 b9 78 c3 bc 85 dd 28 3c 7f 19 21 bd 0f d1 3a bd
       -0.023861276 0.010306721 -0.039330956 -0.04560953
0001c0 b3 ea a2 bd 0f 60 99 bd ec ee e6 bb 92 f6 3b bc
       -0.079549216 -0.07489025 -0.0070475247 -0.011472361
0001d0 fc ef a2 3c ad 3f 76 bc 0f 26 61 bc 1e fb 9a 3b
       0.019889824 -0.01502983 -0.013741984 0.0047296425
0001e0 a3 3e 45 3d 45 1d d4 3c 36 d1 ad bc f6 a5 a8 bc
       0.04815544 0.025892863 -0.021217924 -0.020586949
0001f0 fc 39 d9 3c 2e 6d 6a bd 93 16 93 bd 64 3b 5f 3d
       0.026516907 -0.057233028 -0.0718204 0.0545
000200 4a fc 6e bc fa a3 86 3b 2a 6b 21 bc 91 f7 9d bc
       -0.014586518 0.004108903 -0.00985221 -0.019283088
000210 ce dd 24 3d c6 ab 5f bc e7 f0 3e 3c fc ec c1 3c
       0.040250592 -0.013651794 0.011654115 0.023672573
000220 ff 60 06 bc 93 d3 b1 bc fd 92 81 bc fd 9f 97 bc
       -0.008201837 -0.021707332 -0.01581716 -0.018508906
000230 69 7b 9c 3c 3d 49 04 bc 7c b6 5b 3b d8 b3 8d 3d
       0.019101815 -0.008074102 0.0033525517 0.06919068
000240 75 36 a4 3a 89 bb 1d bb 8d 4f 05 3a c6 60 c9 bc
       0.0012528436 -0.0024068078 0.00050854014 -0.024582278
000250 71 5b c1 3c b9 e0 b1 3c a0 2b a6 bb 6f 61 ac 3c
       0.023603173 0.021713601 -0.0050711185 0.021042554
000260 70 c2 97 3c fb 7a 6f bc e0 f7 03 bd 3a d0 90 3c
       0.018525332 -0.014616723 -0.032218814 0.017677415
000270 58 c0 e4 bc c5 1a 17 3b e3 db bd bc 74 c2 4d bd
       -0.027923748 0.0023056727 -0.02317614 -0.050234273
000280 bd f3 50 bd 85 e4 89 bc 5f 83 14 bd 9b 82 ec 3c
       -0.051013697 -0.0168326 -0.036258098 0.028870871
000290 aa bb 5a bc 67 62 9e 3c 01 b4 c7 3b f1 d7 c2 3c
       -0.013350407 0.019334031 0.006094456 0.02378461
0002a0 69 ce 79 bc 72 c4 0a 3d 09 d0 87 3c 77 18 21 3d
       -0.015246966 0.03387875 0.016578691 0.039329972
0002b0 d8 72 32 bd d5 46 b8 bb 3b f0 ab bc 41 e1 72 bb
       -0.043566555 -0.005623678 -0.020988574 -0.0037060531
0002c0 db 57 50 bd 90 e8 2d 3c 73 a0 70 3b 4e 4a 19 3c
       -0.050865036 0.010614529 0.003671673 0.0093560945
0002d0 f2 e7 08 3d d8 f0 d8 bc 1e 1d d0 bc 83 22 e4 bc
       0.033424325 -0.02648203 -0.02540451 -0.027848488
0002e0 26 ba 9f 3c f4 83 73 bb d6 53 59 bc ae e1 23 bd
       0.019497942 -0.0037157508 -0.013264617 -0.040010147
0002f0 8d 46 4e 3c 06 7d b9 3c a7 98 22 bb ee bd 45 3c
       0.012590063 0.022642624 -0.0024810226 0.012069209
000300 6d 44 1f 3d 18 57 4d 3c 5e 51 12 bc 4a cc 8f bb
       0.038883615 0.012532972 -0.008930532 -0.004388367
000310 3f f0 43 bc 83 dc f7 bc 05 80 cf bc 23 00 0c bd
       -0.011959135 -0.030256515 -0.0253296 -0.034179818
000320 1a 68 e8 3c de e6 2f 3c 1e 27 0c bd f2 05 e6 3c
       0.028369952 0.010736195 -0.034216993 0.028079007
000330 f6 2f 5b 3c d1 0e 16 bc 1c f7 d1 bb 9a fe c5 3c
       0.013378134 -0.009158806 -0.0064076316 0.024169255
000340 7e ff b8 bc 51 e1 b6 bc 6f 2e 0f 3d 9d 25 96 3c
       -0.022582766 -0.022324236 0.034956392 0.018328482
000350 d8 ba 2c bc 53 78 19 b8 98 1b 80 bd 50 18 8b 3b
       -0.010542594 -3.6590103e-05 -0.06255263 0.0042448416
000360 48 23 ef 3c 68 57 d0 bb be c5 05 bd 91 05 45 bb
       0.029191628 -0.006358076 -0.032659285 -0.0030063132
000370 9b 81 68 bd a3 da 0f bd 7d 0e 15 bc 79 52 83 3c
       -0.056764226 -0.035120618 -0.009097693 0.016030537
000380 23 eb 0b bc e2 42 06 bd 93 c3 fc bc 69 20 a0 bb
       -0.008539948 -0.03277863 -0.030854976 -0.004886676
000390 61 92 94 3c 41 59 25 bb 09 23 54 bb 7e 10 9e 3c
       0.018136205 -0.0025230201 -0.0032369515 0.019294973
0003a0 b7 79 56 bc 61 a8 b8 bc f8 fc 28 bc 83 02 32 bb
       -0.0130905425 -0.022541227 -0.010314219 -0.0027162142
0003b0 82 5c fb bb 20 84 1e bd 8a a5 7d 3c 4e 0e 4d 3d
       -0.00767094 -0.038700223 0.015481362 0.05006247
0003c0 de f7 06 bc d8 17 8c 3c 18 c1 0d 3d 12 40 b2 3c
       -0.008237807 0.017101213 0.034607977 0.021759067
0003d0 82 f8 d8 bc 6c 67 0b bc 5b 9a 28 3c 29 53 2b 3c
       -0.026485685 -0.008508544 0.010290707 0.010456839
0003e0 30 f9 09 3d 4b 18 bd bb 96 53 a8 bc 8c fb 3d 3d
       0.03368491 -0.005770718 -0.02054767 0.046382472
0003f0 1b a0 1d bd 8b c2 14 3d 23 b4 ec 3c 55 3c 95 bc
       -0.038482767 0.036318343 0.02889449 -0.018217245

action_model._continuous_distribution.mu.bias f4 [2]
000000 77 bb 90 3b 00 40 25 bc
       0.004416879 -0.01008606

exp_avg f4 [128, 39]
000000 d6 fc 08 b5 96 97 85 b8 96 97 85 b8 1f e5 c4 35
       -5.103187e-07 -6.370169e-05 -6.370169e-05 1.4669821e-06
000010 24 bd 89 b8 77 71 89 b8 d6 fc 08 b5 96 97 85 b8
       -6.567899e-05 -6.5538035e-05 -5.103187e-07 -6.370169e-05
000020 96 97 85 b8 73 e4 a4 b7 e3 e0 3a b8 69 fe 42 b8
       -6.370169e-05 -1.9656703e-05 -4.4555298e-05 -4.6490142e-05
000030 a3 d9 08 b5 dc 97 85 b8 d1 97 85 b8 48 f4 ff b7
       -5.098065e-07 -6.37022e-05 -6.370212e-05 -3.0512121e-05
000040 fc 58 0d b8 b8 6d f2 b7 eb 95 31 b4 c6 50 86 b8
       -3.3699893e-05 -2.889974e-05 -1.653895e-07 -6.404663e-05
000050 ee 47 86 b8 5e a8 6f b7 07 69 51 b8 f2 92 85 b8
       -6.403016e-05 -1.4284711e-05 -4.9927297e-05 -6.369305e-05
000060 5b 9e e2 36 79 d3 94 b8 49 cb 96 b8 24 4e a5 37
       6.75376e-06 -7.09658e-05 -7.190422e-05 1.970592e-05
000070 1b fd af b8 79 1f b3 b8 f6 07 e8 b5 72 09 83 b8
       -8.391795e-05 -8.5412474e-05 -1.7287664e-06 -6.248326e-05
000080 4c f4 85 b8 0a 57 5d 37 72 54 a2 b8 ce f9 a2 b8
       -6.387438e-05 1.3192892e-05 -7.740491e-05 -7.771292e-05
000090 0a 57 5d 37 72 54 a2 b8 ce f9 a2 b8 50 67 9b b5
       1.3192892e-05 -7.740491e-05 -7.771292e-05 -1.1578468e-06
0000a0 76 eb fb b7 76 eb fb b7 a3 42 1d 35 00 46 05 b8
       -3.0031177e-05 -3.0031177e-05 5.8584027e-07 -3.1774864e-05
0000b0 81 c0 04 b8 50 67 9b b5 76 eb fb b7 76 eb fb b7
       -3.1650536e-05 -1.1578468e-06 -3.0031177e-05 -3.0031177e-05
0000c0 bc dc 55 b7 92 b3 9a b7 60 db a1 b7 78 53 9b b5
       -1.2747183e-05 -1.844185e-05 -1.929485e-05 -1.1572693e-06
0000d0 b3 ec fb b7 81 ec fb b7 a2 26 8c b7 a6 f6 72 b7
       -3.0031753e-05 -3.0031662e-05 -1.670729e-05 -1.4481751e-05
0000e0 c1 7f 83 b7 7c 9e 68 b5 f5 5c fe b7 f8 2b fe b7
       -1.5675907e-05 -8.665736e-07 -3.0322446e-05 -3.0299634e-05
0000f0 76 7a 10 37 95 ef 26 b8 0a 7b 67 b8 9a 71 77 37
       8.6115815e-06 -3.9800612e-05 -5.518928e-05 1.4748797e-05
000100 5f ad 40 b8 39 0c 46 b8 b2 9c c4 37 53 1f 65 b8
       -4.593783e-05 -4.7218262e-05 2.3437988e-05 -5.4627028e-05
000110 ff d3 73 b8 49 ff 27 37 cb d0 2c b8 c3 3e 32 b8
       -5.813315e-05 1.0013414e-05 -4.120245e-05 -4.249696e-05
000120 7b 64 03 38 ba 1a 83 b8 f6 39 83 b8 7b 64 03 38
       3.1326414e-05 -6.251545e-05 -6.257363e-05 3.1326414e-05
000130 ba 1a 83 b8 f6 39 83 b8 ff 9b 21 b5 1a 7c 66 37
       -6.251545e-05 -6.257363e-05 -6.020418e-07 1.3737963e-05
000140 1a 7c 66 37 01 d2 c2 b5 9d bc 74 37 a2 b8 73 37
       1.3737963e-05 -1.4515246e-06 1.4587448e-05 1.4526917e-05
000150 ff 9b 21 b5 1a 7c 66 37 1a 7c 66 37 c6 4c 21 36
       -6.020418e-07 1.3737963e-05 1.3737963e-05 2.4035558e-06
000160 28 0f 34 37 c9 fa 38 37 cb d5 21 b5 b7 7f 66 37
       1.0732365e-05 1.1025645e-05 -6.0288284e-07 1.3738804e-05
000170 1e 7f 66 37 cb 26 21 36 a4 18 34 37 d6 55 1c 37
       1.3738665e-05 2.401345e-06 1.0734573e-05 9.31831e-06
000180 da d8 a3 b5 77 dd 70 37 7b 13 70 37 cf 18 43 b6
       -1.2207558e-06 1.4356679e-05 1.430965e-05 -2.9071705e-06
000190 48 94 86 37 88 f2 ad 37 a6 60 ab b6 5d 09 99 37
       1.6043094e-05 2.0736145e-05 -5.1074485e-06 1.8243381e-05
0001a0 00 20 9c 37 31 83 29 b7 c8 f2 c2 37 ab d9 cc 37
       1.861155e-05 -1.010373e-05 2.3239656e-05 2.4420055e-05
0001b0 1b de 12 b6 f2 8c 80 37 03 bb 84 37 7b f3 fe b6
       -2.1884978e-06 1.5324422e-05 1.582271e-05 -7.5981347e-06
0001c0 0a ee ad 37 a3 8e af 37 7b f3 fe b6 0a ee ad 37
       2.0734053e-05 2.0928046e-05 -7.5981347e-06 2.0734053e-05
0001d0 a3 8e af 37 32 05 c3 b6 4f 9b 81 b7 4f 9b 81 b7
       2.0928046e-05 -5.8120577e-06 -1.545032e-05 -1.545032e-05
0001e0 63 57 b5 b6 cd 06 85 b7 1a c8 84 b7 32 05 c3 b6
       -5.4043935e-06 -1.5858002e-05 -1.5828806e-05 -5.8120577e-06
0001f0 4f 9b 81 b7 4f 9b 81 b7 2f 20 05 37 be ec f4 b7
       -1.545032e-05 -1.545032e-05 7.934911e-06 -2.9197308e-05
000200 1a e6 e2 b7 36 db c2 b6 d0 a5 81 b7 23 a4 81 b7
       -2.7048449e-05 -5.80717e-06 -1.545521e-05 -1.545443e-05
000210 3c 83 fa 36 68 fd f0 b7 74 e9 14 b8 11 a8 75 b6
       7.4658583e-06 -2.8728231e-05 -3.550337e-05 -3.6605672e-06
000220 a2 a7 93 b7 2d 8d 91 b7 b9 be 71 37 fb 9d 15 b8
       -1.7601826e-05 -1.7351087e-05 1.44091255e-05 -3.56715e-05
000230 17 b8 79 b8 03 52 67 b7 ac ce fa b6 fd b3 28 b7
       -5.9537673e-05 -1.3787768e-05 -7.4746404e-06 -1.0055487e-05
000240 a9 fd 2f b7 a4 bb 34 b7 b3 b7 5a b7 bc 64 14 b7
       -1.0489873e-05 -1.0772525e-05 -1.3036583e-05 -8.8449415e-06
000250 76 54 50 b7 50 3a 6c b7 c6 14 63 37 82 f3 11 b8
       -1.2417431e-05 -1.4080273e-05 1.3535091e-05 -3.479748e-05
000260 dc 30 0f b8 c6 14 63 37 82 f3 11 b8 dc 30 0f b8
       -3.413936e-05 1.3535091e-05 -3.479748e-05 -3.413936e-05
000270 a5 45 a5 35 4c 1b 46 38 4c 1b 46 38 12 f8 ac b3
       1.2313727e-06 4.72323e-05 4.72323e-05 -8.054498e-08
000280 f4 9b 4b 38 74 37 4b 38 a5 45 a5 35 4c 1b 46 38
       4.8544214e-05 4.8450616e-05 1.2313727e-06 4.72323e-05
000290 4c 1b 46 38 f3 70 04 37 3e 29 2a 38 fe cf 2b 38
       4.72323e-05 7.894111e-06 4.056957e-05 4.0963285e-05
0002a0 28 f4 a4 35 d9 1d 46 38 6e 1d 46 38 3b f3 99 37
       1.2290011e-06 4.7234676e-05 4.7234287e-05 1.8352284e-05
0002b0 bc 97 fc 37 ef d9 10 38 c2 3c 81 b3 18 86 4b 38
       3.0111398e-05 3.4535242e-05 -6.0180824e-08 4.8523856e-05
0002c0 43 12 4b 38 75 d2 60 36 4d 38 3d 38 3e 78 6e 38
       4.841598e-05 3.3501103e-06 4.5113546e-05 5.6855606e-05
0002d0 3b 77 9a 36 90 f6 37 38 39 37 43 38 a9 d2 02 b7
       4.603438e-06 4.386023e-05 4.6543053e-05 -7.797652e-06
0002e0 21 fa 6b 38 e3 57 72 38 23 95 5d 36 2e 6c 3d 38
       5.6261317e-05 5.7779147e-05 3.3018375e-06 4.516186e-05
0002f0 f2 f5 45 38 61 08 52 b7 92 c7 7f 38 aa 72 7f 38
       4.7197515e-05 -1.2518926e-05 6.0982602e-05 6.0903527e-05
000300 61 08 52 b7 92 c7 7f 38 aa 72 7f 38 71 de 52 b6
       -1.2518926e-05 6.0982602e-05 6.0903527e-05 -3.1421916e-06
000310 c8 b3 15 b9 c8 b3 15 b9 6c 56 f2 35 ee e3 1a b9
       -0.00014276721 -0.00014276721 1.8055557e-06 -0.00014771495
000320 33 85 1a b9 71 de 52 b6 c8 b3 15 b9 c8 b3 15 b9
       -0.00014736205 -3.1421916e-06 -0.00014276721 -0.00014276721
000330 6c 0b 11 b8 cf 78 e9 b8 20 00 ee b8 03 a3 52 b6
       -3.458133e-05 -0.00011132808 -0.00011348748 -3.1387324e-06
000340 b5 b4 15 b9 8f b4 15 b9 7c d5 84 b8 05 29 ad b8
       -0.00014277066 -0.0001427701 -6.334015e-05 -8.256923e-05
000350 5e b7 be b8 af f2 16 b5 50 68 18 b9 70 39 18 b9
       -9.094061e-05 -5.6232506e-07 -0.00014534709 -0.00014517247
000360 45 96 22 b7 df d5 0e b9 17 14 26 b9 f0 fc e1 b6
       -9.69094e-06 -0.00013621848 -0.00015838478 -6.7349683e-06
000370 5a ef 11 b9 b9 8d 19 b9 d7 ec bc 37 db 9c 30 b9
       -0.00013917443 -0.00014644013 2.2521634e-05 -0.00016843101
000380 67 60 33 b9 b2 8a 85 b7 ea 4d 08 b9 6e e6 0f b9
       -0.00017106683 -1.591942e-05 -0.00012998996 -0.00013723384
000390 45 73 c2 37 ac 4d 31 b9 ac 28 32 b9 45 73 c2 37
       2.3180279e-05 -0.0001690897 -0.00016990554 2.3180279e-05
0003a0 ac 4d 31 b9 ac 28 32 b9 db c0 2b 35 fe 63 c3 b6
       -0.0001690897 -0.00016990554 6.3983106e-07 -5.8230935e-06
0003b0 fe 63 c3 b6 c1 75 b3 34 3f 23 b9 b6 79 de b9 b6
       -5.8230935e-06 3.3427025e-07 -5.517533e-06 -5.539329e-06
0003c0 db c0 2b 35 fe 63 c3 b6 fe 63 c3 b6 61 b0 1b 36
       6.3983106e-07 -5.8230935e-06 -5.8230935e-06 2.3199466e-06
0003d0 13 c4 fb b6 3d a9 f8 b6 40 06 2c 35 aa 6c c3 b6
       -7.503209e-06 -7.410678e-06 6.408409e-07 -5.824103e-06
0003e0 3c 6b c3 b6 18 8e bf b4 03 f3 a1 b6 8a 5d d7 b6
       -5.8239366e-06 -3.567991e-07 -4.826464e-06 -6.4183887e-06
0003f0 c2 bc 8a 35 12 9b d0 b6 88 05 cf b6 d7 0a c2 b4
       1.0336737e-06 -6.2169356e-06 -6.1697247e-06 -3.6143203e-07

exp_avg_sq f4 [128, 39]
000000 84 f0 06 30 43 ac a7 33 43 ac a7 33 3b 68 58 30
       4.909071e-10 7.807878e-08 7.807878e-08 7.872846e-10
000010 30 1e a9 33 a1 f7 a8 33 84 f0 06 30 43 ac a7 33
       7.875167e-08 7.868153e-08 4.909071e-10 7.807878e-08
000020 43 ac a7 33 b5 66 0c 31 bd 20 a4 33 7a 4c a4 33
       7.807878e-08 2.0431064e-09 7.6428e-08 7.650756e-08
000030 1b 1f 07 30 d3 ab a7 33 67 ac a7 33 7a fd ed 32
       4.915692e-10 7.807798e-08 7.807903e-08 2.7705699e-08
000040 59 e2 42 33 18 44 81 33 af e0 08 30 c7 b9 a7 33
       4.5375007e-08 6.019417e-08 4.9795806e-10 7.810336e-08
000050 02 b8 a7 33 6c 86 81 32 d2 bb 70 33 cc 0e 82 33
       7.810014e-08 1.5078705e-08 5.6050176e-08 6.056288e-08
000060 f2 4e 2c 30 33 58 a6 33 c4 88 a6 33 f9 43 98 31
       6.2685424e-10 7.746021e-08 7.754855e-08 4.43151e-09
000070 4f e5 99 33 62 36 9b 33 94 1d 62 30 fc ae a5 33
       7.166329e-08 7.227642e-08 8.2260354e-10 7.715241e-08
000080 97 db a5 33 f4 8b cd 30 e9 41 a3 33 cc 6f a3 33
       7.7233544e-08 1.495549e-09 7.602268e-08 7.610615e-08
000090 f4 8b cd 30 e9 41 a3 33 cc 6f a3 33 0a 97 e9 2e
       1.495549e-09 7.602268e-08 7.610615e-08 1.0622443e-10
0000a0 e3 92 0a 33 e3 92 0a 33 5d 17 a8 2f eb a1 0c 33
       3.226422e-08 3.226422e-08 3.0575623e-10 3.2743554e-08
0000b0 1f 6c 0c 33 0a 97 e9 2e e3 92 0a 33 e3 92 0a 33
       3.2694626e-08 1.0622443e-10 3.226422e-08 3.226422e-08
0000c0 c9 2d 41 30 7e f5 09 33 fe d2 09 33 9f f6 e9 2e
       7.0278056e-10 3.2121072e-08 3.2089694e-08 1.0639422e-10
0000d0 23 93 0a 33 48 93 0a 33 7e 98 96 31 1c 11 e2 32
       3.226445e-08 3.226458e-08 4.382911e-09 2.6317643e-08
0000e0 49 3e f8 32 c6 95 f0 2e f3 8b 0a 33 c1 8c 0a 33
       2.8899324e-08 1.09405415e-10 3.2257912e-08 3.2258644e-08
0000f0 a2 75 18 32 b2 63 ad 32 da 4c bf 32 86 2d c1 2f
       8.874311e-09 2.0185187e-08 2.2270275e-08 3.5138842e-10
000100 b5 f3 07 33 16 39 08 33 7d 22 b6 31 8d cc d8 32
       3.1653787e-08 3.1716887e-08 5.300818e-09 2.5238728e-08
000110 a0 2d dd 32 d3 cd 37 30 bd 67 06 33 fb a6 06 33
       2.5748534e-08 6.6867506e-10 3.1293656e-08 3.1351174e-08
000120 cd fb dd 30 ab 69 fe 32 0b 19 ff 32 cd fb dd 30
       1.6151432e-09 2.9617544e-08 2.9697295e-08 1.6151432e-09
000130 ab 69 fe 32 0b 19 ff 32 f5 1d 69 2f 1c 01 47 32
       2.9617544e-08 2.9697295e-08 2.120187e-10 1.1583577e-08
000140 1c 01 47 32 ef c3 b5 2f 58 3a 49 32 6c ec 48 32
       1.1583577e-08 3.3062927e-10 1.1713006e-08 1.1695288e-08
000150 f5 1d 69 2f 1c 01 47 32 1c 01 47 32 db 41 0b 30
       2.120187e-10 1.1583577e-08 1.1583577e-08 5.066149e-10
000160 fe f2 44 32 90 c7 44 32 56 d4 69 2f b1 05 47 32
       1.1463952e-08 1.1454077e-08 2.1266663e-10 1.1584619e-08
000170 ee 05 47 32 07 d1 19 31 bd 02 19 32 51 a0 2b 32
       1.1584673e-08 2.2383249e-09 8.906395e-09 9.989962e-09
000180 f9 d6 74 2f 97 30 47 32 15 27 47 32 90 2a 6e 31
       2.2268044e-10 1.1594373e-08 1.1592211e-08 3.4657752e-09
000190 68 23 fb 31 4a 18 09 32 cf 43 8c 2f 31 88 44 32
       7.3090867e-09 7.979972e-09 2.5514033e-10 1.1439668e-08
0001a0 1f cd 44 32 5c 98 17 31 1f 65 1d 32 f2 33 20 32
       1.1455341e-08 2.2059998e-09 9.161595e-09 9.325037e-09
0001b0 eb 9d bc 2f 70 92 41 32 3e 02 42 32 fe 09 04 30
       3.4309208e-10 1.1267375e-08 1.1292796e-08 4.803552e-10
0001c0 a8 dc 3c 32 c3 4d 3d 32 fe 09 04 30 a8 dc 3c 32
       1.0993212e-08 1.1018929e-08 4.803552e-10 1.0993212e-08
0001d0 c3 4d 3d 32 a4 b2 35 2f a2 71 5a 33 a2 71 5a 33
       1.1018929e-08 1.652532e-10 5.086043e-08 5.086043e-08
0001e0 8c 44 82 2f ea 78 58 33 47 98 58 33 a4 b2 35 2f
       2.3695568e-10 5.040139e-08 5.0429914e-08 1.652532e-10
0001f0 a2 71 5a 33 a2 71 5a 33 bb 83 5e 30 5f 7e 59 33
       5.086043e-08 5.086043e-08 8.095033e-10 5.0639184e-08
000200 43 3a 59 33 d6 77 39 2f f3 85 5a 33 bc 82 5a 33
       5.057724e-08 1.6868226e-10 5.0878906e-08 5.0875983e-08
000210 83 88 71 31 ef 86 44 33 58 99 4f 33 23 4f 60 2f
       3.5147714e-09 4.5757528e-08 4.833541e-08 2.0400796e-10
000220 10 88 59 33 5d a4 59 33 c9 d3 bd 32 9d 4d d8 32
       5.0647998e-08 5.0673737e-08 2.2098805e-08 2.5181004e-08
000230 8c cd 03 33 aa 95 59 30 6b 4c 54 33 ce 0e 55 33
       3.0687758e-08 7.9156826e-10 4.9429598e-08 4.9606392e-08
000240 3a 88 12 31 7c 17 42 33 bc 87 45 33 8b 53 46 30
       2.1323232e-09 4.5190504e-08 4.5991086e-08 7.21507e-10
000250 42 a4 55 33 95 61 56 33 ec 79 c4 2f eb 43 59 33
       4.974232e-08 4.9914508e-08 3.5738823e-10 5.058602e-08
000260 cc 6d 59 33 ec 79 c4 2f eb 43 59 33 cc 6d 59 33
       5.062411e-08 3.5738823e-10 5.058602e-08 5.062411e-08
000270 a8 2c 75 2e 71 f4 08 33 71 f4 08 33 1f e6 fb 2e
       5.5746213e-11 3.1887286e-08 3.1887286e-08 1.1455036e-10
000280 bd b4 09 33 5c a2 09 33 a8 2c 75 2e 71 f4 08 33
       3.206218e-08 3.2045463e-08 5.5746213e-11 3.1887286e-08
000290 71 f4 08 33 9b bf a9 2f 0f c2 08 33 02 a3 08 33
       3.1887286e-08 3.0877065e-10 3.1841463e-08 3.1813222e-08
0002a0 55 93 7d 2e 09 f2 08 33 83 f2 08 33 d5 ad ac 31
       5.7656397e-11 3.1885097e-08 3.188553e-08 5.0256213e-09
0002b0 fc d7 d8 32 ef c6 f3 32 08 8d ae 2e 03 9b 08 33
       2.5243928e-08 2.8379388e-08 7.937656e-11 3.180595e-08
0002c0 2e a5 08 33 7b 12 bb 31 3f b2 cd 32 94 e0 dd 32
       3.1815198e-08 5.4445173e-09 2.3946198e-08 2.5829912e-08
0002d0 d8 ba 27 30 49 23 03 33 47 d3 03 33 3c 7e bf 30
       6.1019767e-10 3.0532906e-08 3.069297e-08 1.3932957e-09
0002e0 b6 83 fd 32 ed e6 ff 32 26 c6 12 30 43 96 04 33
       2.9512972e-08 2.979092e-08 5.3396076e-10 3.0870307e-08
0002f0 08 12 05 33 c1 4e 9d 2f a3 c4 06 33 79 d8 06 33
       3.0982875e-08 2.8614092e-10 3.1378146e-08 3.1396187e-08
000300 c1 4e 9d 2f a3 c4 06 33 79 d8 06 33 22 7f 6d 30
       2.8614092e-10 3.1378146e-08 3.1396187e-08 8.6400764e-10
000310 2f de b4 34 2f de b4 34 9b 38 10 31 26 05 b6 34
       3.3689273e-07 3.3689273e-07 2.0986934e-09 3.3903888e-07
000320 da e3 b5 34 22 7f 6d 30 2f de b4 34 2f de b4 34
       3.387966e-07 8.6400764e-10 3.3689273e-07 3.3689273e-07
000330 ad 7f ea 31 e0 cc b2 34 ff b7 b2 34 97 e0 75 30
       6.8248114e-09 3.330415e-07 3.3288958e-07 8.944964e-10
000340 37 d0 b4 34 ef d1 b4 34 61 da d6 33 76 96 62 34
       3.367911e-07 3.368036e-07 1.00048744e-07 2.1102628e-07
000350 d5 85 90 34 10 e4 8f 30 8a e6 b4 34 ce e3 b4 34
       2.6919466e-07 1.0469439e-09 3.3695352e-07 3.3693362e-07
000360 76 1f 40 33 ff a7 8f 34 7d ad 97 34 9f 1d 19 32
       4.4732097e-08 2.675806e-07 2.825217e-07 8.912507e-09
000370 0a a1 aa 34 76 c5 ab 34 4d f7 8d 32 ba 60 a7 34
       3.178214e-07 3.1994904e-07 1.652702e-08 3.1176552e-07
000380 45 b9 a8 34 3d 0d 27 32 02 c3 ab 34 eb b6 ac 34
       3.142724e-07 9.723689e-09 3.199312e-07 3.2170587e-07
000390 bc 0e 84 31 21 91 b1 34 c4 ae b1 34 bc 0e 84 31
       3.8433807e-09 3.3074414e-07 3.3095978e-07 3.8433807e-09
0003a0 21 91 b1 34 c4 ae b1 34 88 1e 09 2f 9e f8 8b 30
       3.3074414e-07 3.3095978e-07 1.2470924e-10 1.0184242e-09
0003b0 9e f8 8b 30 a5 fa 0e 2f 81 d2 8a 30 18 d9 8a 30
       1.0184242e-09 1.3003872e-10 1.010065e-09 1.0102523e-09
0003c0 88 1e 09 2f 9e f8 8b 30 9e f8 8b 30 e5 e9 1f 2f
       1.2470924e-10 1.0184242e-09 1.0184242e-09 1.4544062e-10
0003d0 11 91 88 30 ed 95 88 30 85 a6 09 2f 65 c0 8b 30
       9.936533e-10 9.937914e-10 1.2519237e-10 1.0168263e-09
0003e0 5d c7 8b 30 21 d4 8e 2f 07 3b 64 30 c4 90 7b 30
       1.0170244e-09 2.5980376e-10 8.30298e-10 9.151899e-10
0003f0 98 08 0b 2f 23 9a 8a 30 4a be 8a 30 66 13 b9 2f
       1.264503e-10 1.008463e-09 1.0094905e-09 3.3665087e-10

exp_avg f4 [128]
000000 91 a9 86 b8 f7 d0 02 b8 5a 62 5c 37 96 5c b2 b7
       -6.421202e-05 -3.118903e-05 1.3135921e-05 -2.1262367e-05
000010 79 45 4b 38 41 ff 18 b9 e5 eb ad b6 a7 70 f4 b8
       4.8463673e-05 -0.00014590939 -5.1832635e-06 -0.0001165581
000020 14 99 f0 b9 3a b3 d4 39 a2 67 b5 b8 bc 5c d9 38
       -0.0004589042 0.00040569325 -8.650056e-05 0.000103646395
000030 0f cd f5 35 4c 65 48 38 98 6d aa b9 a6 15 31 3a
       1.8313602e-06 4.7778056e-05 -0.0003250658 0.000675524
000040 60 d1 b0 b9 53 f7 80 39 a9 6b 07 b8 72 45 e7 38
       -0.00033725332 0.00024598333 -3.2286775e-05 0.000110278736
000050 f6 33 9f b9 dd 88 7d 38 85 9a 8b b7 b4 86 fd 37
       -0.00030365557 6.0447364e-05 -1.6642045e-05 3.0222676e-05
000060 17 0d 1a 3a 0e 4a c9 38 51 11 63 b7 7d 3f cc b7
       0.00058765843 9.598221e-05 -1.3534286e-05 -2.434826e-05
000070 26 5c 11 38 00 95 ed b6 61 29 c3 38 35 42 b5 b7
       3.4656514e-05 -7.0804963e-06 9.306032e-05 -2.1607711e-05
000080 d3 9c 0f b9 5d 03 37 ba 5e 27 22 37 3f c7 e2 b9
       -0.00013695964 -0.0006981397 9.665118e-06 -0.0004325453
000090 13 5b af b8 38 62 e1 39 2e 8b 2f 39 50 b5 6e b9
       -8.361614e-05 0.00042988523 0.00016741149 -0.00022764993
0000a0 5e 83 72 b9 a7 0e a3 34 e2 24 72 39 4b 6d 75 36
       -0.00023127857 3.0371777e-07 0.00023092658 3.6571462e-06
0000b0 b0 b3 8a b5 70 d1 52 b8 5d bc 12 38 63 3b f5 39
       -1.0334097e-06 -5.0262955e-05 3.498454e-05 0.00046774288
0000c0 82 82 32 37 60 44 50 39 47 ec d6 38 19 f4 90 b9
       1.0640013e-05 0.00019861897 0.00010248325 -0.00027647687
0000d0 e3 cc 8b 39 cb 3d 93 b9 a9 37 71 35 b1 49 89 b9
       0.00026664798 -0.00028084064 8.986049e-07 -0.0002618558
0000e0 ef 0d 28 38 0d 79 cf b8 51 34 24 b7 88 ae d6 b8
       4.0067298e-05 -9.893077e-05 -9.787343e-06 -0.00010236824
0000f0 06 bd 3b 36 d7 89 bf 38 3b 0e e0 39 c4 be 93 b8
       2.7975198e-06 9.1332644e-05 0.00042735212 -7.045039e-05
000100 b0 d5 2f 38 88 ad dd 39 48 34 c6 b9 13 c6 a5 38
       4.1922263e-05 0.00042281696 -0.00037804455 7.904707e-05
000110 ec 70 99 b9 45 1d cd b9 62 dd 1e b7 ae c9 f3 35
       -0.00029266567 -0.00039122454 -9.469079e-06 1.8163607e-06
000120 5e 9b fe b7 1c 89 9a 39 fa 93 36 39 90 fa 58 36
       -3.0351508e-05 0.00029475323 0.00017411998 3.2332355e-06
000130 5f 0f ea 35 1d 1d 4b b9 a6 8a 5e b7 d7 31 05 37
       1.7438832e-06 -0.00019370434 -1.3264513e-05 7.939022e-06
000140 74 28 8a b9 d9 5c c6 b7 8e 6a c8 b9 59 c4 d3 b6
       -0.0002635155 -2.3646675e-05 -0.00038226362 -6.311148e-06
000150 af 1d 5d 38 ab 17 e1 39 db 49 cf 39 d1 e7 84 b6
       5.271815e-05 0.00042932978 0.00039537143 -3.9608935e-06
000160 97 0a cf b7 31 7c bc 39 9d c4 e4 38 00 32 a5 37
       -2.4681254e-05 0.00035950684 0.00010908509 1.9692816e-05
000170 40 f3 bb b9 42 da 61 b9 02 a5 28 b8 b9 3c 24 39
       -0.00035848655 -0.0002153898 -4.0207997e-05 0.0001566288
000180 f7 bb 84 38 f7 eb 4b 39 77 34 29 b9 e6 0a de 39
       6.329262e-05 0.00019447492 -0.0001613664 0.0004235126
000190 bc 24 87 b5 1a 8f dd 38 76 73 9f 38 75 19 83 38
       -1.0068975e-06 0.00010564756 7.603217e-05 6.2513085e-05
0001a0 7a 89 07 b9 3a 22 89 b9 b2 90 0e b7 9e 88 5f 39
       -0.00012925817 -0.00026156177 -8.497549e-06 0.00021317831
0001b0 81 2d 1b b9 3e 61 3f b9 cb b6 72 b9 30 40 62 37
       -0.00014798903 -0.00018251405 -0.00023147014 1.34855945e-05
0001c0 a9 eb b8 b9 62 82 f6 b9 54 a8 95 39 92 16 38 b9
       -0.00035270795 -0.0004701792 0.0002854491 -0.00017556016
0001d0 8f 8e 88 38 d2 a9 8e 39 9a a8 ae 34 e7 a3 17 b8
       6.511539e-05 0.00027210877 3.25327e-07 -3.615385e-05
0001e0 f3 63 88 39 c9 1f 40 b9 90 05 68 b6 a0 76 20 b8
       0.0002601441 -0.00018322388 -3.4573932e-06 -3.825745e-05
0001f0 6b 49 fd 36 a6 85 e6 37 da 58 96 36 24 c2 a0 38
       7.5485345e-06 2.7480372e-05 4.480692e-06 7.665556e-05
