results/ia5/PlayerScript/PlayerScript-3815.pt (torch, 183095 bytes, 12 tensors)

network_body._body_endoder.seq_layers.0.weight f4 [128, 39]
000000 da bc 36 be e0 fc a4 3e 08 fd 1a bd ae 2f 1c 3e
       -0.17845479 0.32224178 -0.037838966 0.15252563
000010 ce da aa 3d 20 b0 77 bd ac ac d3 bd 3e c6 4f be
       0.08342515 -0.0604707 -0.10335669 -0.20290467
000020 a3 76 a6 3e d6 9e 8f be 48 79 50 be ca 1a 2a 3e
       0.32512388 -0.2805087 -0.20358765 0.16611782
000030 79 b0 39 be ed fa 98 3c 90 fc 3d 3d 93 c0 80 bd
       -0.18133725 0.018674338 0.04638344 -0.062867306
000040 76 8e ad bc 5c cd 9f 3e fd 30 a5 be 53 c6 80 3e
       -0.021186095 0.31211364 -0.32263938 0.2515131
000050 62 7c 8b 3d 44 d9 12 3d 63 25 9c 3e d9 bf 4c be
       0.068108335 0.035851732 0.30497274 -0.19995059
000060 07 8d 51 bd e0 74 e3 bd 4d e3 29 be ef 23 34 bd
       -0.051159885 -0.111062765 -0.16590615 -0.04397958
000070 69 e2 74 bd e3 06 32 3e d6 0d f2 bc 12 3a fc bb
       -0.059786234 0.1738544 -0.029547613 -0.007697352
000080 89 ef be 3c 22 17 44 3d a6 31 7a 3e a4 7c 94 bd
       0.023307579 0.047873624 0.24433002 -0.07250336
000090 15 74 42 3e ac 4b 9c bd 51 b8 d5 3c 87 c7 35 bd
       0.18989594 -0.07631621 0.026088865 -0.044379737
0000a0 61 93 5f bd 86 d5 8f 3e 1c 27 c7 bd e2 a2 2c 3e
       -0.05458391 0.28092593 -0.097242564 0.1685901
0000b0 e9 7f 03 3c ae 50 47 be 23 bb 7a 3e 82 c9 6a 3e
       0.008026102 -0.1946437 0.2448545 0.22928432
0000c0 36 c3 21 be 45 b5 ee 3d f9 bd 0c 3e a4 cf 3e bc
       -0.15797123 0.11655668 0.13744344 -0.011646185
0000d0 13 7e 1f be e1 68 24 3e b9 75 92 3d 27 f2 6b 3d
       -0.15575437 0.16055633 0.0715136 0.05760398
0000e0 1b e5 a6 bd 67 0f 13 3e bc 80 34 3e 47 47 8f 3d
       -0.08149167 0.14361344 0.17627233 0.06996017
0000f0 23 ea d1 3c 16 28 74 3d d9 48 01 be 2c e4 08 be
       0.02562434 0.05960854 -0.12625445 -0.1336829
000100 c2 13 d9 bc b2 92 df 3d 8d ae da bc 20 29 3e be
       -0.02649868 0.10916652 -0.02669456 -0.18570375
000110 ca 7b 93 3d 53 2f 05 be 85 64 e5 3d d0 73 0c 3d
       0.07201345 -0.13006334 0.11200813 0.034290135
000120 c7 f9 02 be c9 ac fe 3c 05 a0 2c be 8a d2 9f 3e
       -0.12790595 0.03108825 -0.16857918 0.31215316
000130 b6 de c4 3d 15 bb d9 3d 61 7d 44 3d a4 04 3f be
       0.09612791 0.10631386 0.047971133 -0.18654114
000140 20 99 15 bd 58 bc 9b be e0 5e 08 be f6 87 07 3d
       -0.036522985 -0.30417132 -0.13317442 0.033088647
000150 35 04 0a be 5c 9b 10 bd b9 43 7f bd 1f b1 07 bd
       -0.13478167 -0.035304412 -0.062320445 -0.0331279
000160 b0 7a ad 3e 17 7b 9c bd d9 d7 f1 bc 25 ba 60 be
       0.33882666 -0.07640665 -0.02952187 -0.21946009
000170 c4 a3 e2 3d 22 2c 2a 3e f6 02 83 3e bc ff 89 3e
       0.11066392 0.16618398 0.25588197 0.26952922
000180 7f e2 08 3e b6 1d 15 3d 73 fe 44 3e 4c 1e f8 3c
       0.13367651 0.036405288 0.1923769 0.030287884
000190 6c 7f 83 bd 87 43 72 bd 6c c3 17 be 30 f0 6f 3c
       -0.06420788 -0.05914643 -0.14820641 0.0146446675
0001a0 40 dd 89 be 16 1b 13 bd 74 04 4a 3e a4 e7 16 3c
       -0.26926613 -0.035914503 0.19728261 0.009210501
0001b0 2e 3f 61 bd d1 18 d3 3d bb f8 c1 bd 9d d0 1d 3c
       -0.054991893 0.10307468 -0.0947127 0.009632257
0001c0 ff cb 22 3e a5 67 27 3c 42 a3 54 3e cc 61 99 bd
       0.15898131 0.010217582 0.20765403 -0.074893564
0001d0 0d 8d 10 be 1f d8 32 bc b2 05 1f bd fe 3e 8c be
       -0.14116307 -0.010915785 -0.03882379 -0.2739181
0001e0 c3 eb c7 3e e2 3c 2b be b3 38 7f 3d 9f 9c 36 3d
       0.3904706 -0.16722444 0.062309932 0.04458296
0001f0 a1 6d 0c 3e 9d 3e 79 3d a1 eb b9 3e 57 d1 8b bd
       0.13713695 0.06085073 0.36312583 -0.06827038
000200 e2 0f 95 be b2 a3 28 bd 69 44 5f bd a8 ac 9f be
       -0.2911368 -0.041171737 -0.0545086 -0.31186414
000210 df 4f 4f be 3e b9 a9 3d 0a 4e 9a bd 9c a6 41 3e
       -0.20245312 0.08287285 -0.07534416 0.18911213
000220 11 7c b0 bc e1 4d 04 3e 1c 42 b2 3c 71 89 11 be
       -0.021543534 0.12920333 0.021760039 -0.14212586
000230 e4 6c 1d bb b0 9d b8 bd e1 1b e6 3d c0 10 04 3e
       -0.0024021203 -0.090144515 0.11235786 0.12897015
000240 db 2b a6 3d dc d6 54 be 3c 43 e8 bd e2 fb a1 3d
       0.081138335 -0.20785087 -0.11340949 0.07909371
000250 d8 33 6f bd 75 d0 0f bc ac bc 0e 3d 94 6e 87 3d
       -0.05839905 -0.008777727 0.0348479 0.06612888
000260 bd 06 f1 3d 56 d0 05 bf c2 1f 0d 3e 46 3a d7 3d
       0.11768863 -0.5227102 0.13781646 0.10509162
000270 68 b7 78 bc e3 97 9e bd dc c4 3e 3d 70 cf 83 3e
       -0.015180446 -0.07743814 0.04657446 0.257442
000280 b7 d6 12 3d da c9 7f 3d 58 b1 72 bc 4f d6 00 3e
       0.0358493 0.06244836 -0.01481279 0.12581752
000290 df ca 18 bd f5 44 b2 bd 89 36 5f 3d 0d 7e 1a 3e
       -0.037302848 -0.08704559 0.05449537 0.15087147
0002a0 53 d3 a2 be 4d 1f c4 bc 39 ab 02 3d 15 e2 ad 3d
       -0.31801853 -0.023940707 0.031901572 0.08490387
0002b0 90 58 2b 3d 67 29 93 3d 7a a2 52 bd 1f 7f 12 3e
       0.041832507 0.07185631 -0.05142448 0.14306305
0002c0 d8 b9 0c 3e 90 85 7b 3e ce 02 14 3d bc ea 54 3e
       0.13742769 0.24562669 0.036135487 0.20792669
0002d0 a4 c1 1a be 00 35 95 3d b1 6c ba bd 12 28 16 3e
       -0.1511293 0.072854996 -0.091027625 0.14663723
0002e0 b5 81 15 3e a6 10 f3 bc bd 37 11 be 46 38 9c bd
       0.1460026 -0.029671025 -0.14181419 -0.07627921
0002f0 89 f4 9b 3e f2 2c 44 be 15 01 84 3d fb 40 1b be
       0.30460003 -0.1915777 0.06445519 -0.15161507
000300 8e 5a 4e bd bf 29 11 bc cb c9 8b 3d 60 d7 12 bc
       -0.05037933 -0.008860051 0.06825598 -0.008962482
000310 06 60 59 be bf 01 0d be 5f 4e f6 bc 72 16 3d 3e
       -0.21228036 -0.13770197 -0.030066667 0.18465593
000320 80 08 16 3e 4c 74 51 3d b3 e0 3b 3d c9 4e 1a 3e
       0.1465168 0.0511363 0.045868587 0.15069117
000330 e9 de 52 bd 5f 56 d1 bc 62 bd e0 3c b6 0b 57 be
       -0.051482115 -0.02555388 0.027434055 -0.21000561
000340 e2 2e b9 3d 27 03 88 be 78 ac 64 be fd fa 08 be
       0.09042145 -0.26564905 -0.22331417 -0.13376994
000350 b9 87 13 3e 78 f6 64 3d ec c3 f3 bd 02 59 65 3d
       0.14407243 0.055899113 -0.119026035 0.055993088
000360 be cf a3 bd 13 15 bc 3d 3f e1 8d bd f3 5e 6e be
       -0.07998608 0.09183707 -0.06927728 -0.23278408
000370 e1 39 b9 bd 49 c6 4f 3e 55 51 36 3e 08 38 7c bc
       -0.09044243 0.20290484 0.17804463 -0.015394218
000380 6e 66 f5 3d ee 39 fd 3d ed a1 1a 3e 5e 52 76 3e
       0.119824275 0.12364565 0.15100832 0.24054858
000390 49 42 f1 3d 6a 95 aa bd 53 cf 31 be a3 4a aa 3e
       0.11780221 -0.0832928 -0.17364244 0.33260068
0003a0 a5 80 e7 bc 6c ba 38 be 19 67 4a bd 8d 37 2f 3d
       -0.028259585 -0.18039864 -0.049414728 0.042777587
0003b0 3e 7a 43 be 35 34 5d be c1 3a 27 be c2 18 e8 bd
       -0.190896 -0.21601947 -0.16331007 -0.11332847
0003c0 25 f9 e9 3e 03 c6 a1 3d 73 77 7f be e2 87 24 be
       0.45697895 0.07899096 -0.2494791 -0.1606746
0003d0 23 f6 97 3e e2 4b c9 3d 68 5d 3d 3d 73 5f 9c be
       0.29679975 0.098289266 0.046231657 -0.30541572
0003e0 06 5d 77 bd 8a 51 f9 3d b9 88 83 be a3 9e c8 3d
       -0.06039145 0.121737555 -0.2569025 0.097958826
0003f0 a7 1f 5f be bc b5 2b bd 60 84 8a be 35 09 97 bc
       -0.21789418 -0.041921362 -0.2705412 -0.018437007

network_body._body_endoder.seq_layers.0.bias f4 [128]
000000 00 00 00 00 00 00 00 00 00 00 00 00 00 00 00 00
       0.0 0.0 0.0 0.0
000010 00 00 00 00 00 00 00 00 00 00 00 00 00 00 00 00
       0.0 0.0 0.0 0.0
000020 00 00 00 00 00 00 00 00 00 00 00 00 00 00 00 00
       0.0 0.0 0.0 0.0
000030 00 00 00 00 00 00 00 00 00 00 00 00 00 00 00 00
       0.0 0.0 0.0 0.0
000040 00 00 00 00 00 00 00 00 00 00 00 00 00 00 00 00
       0.0 0.0 0.0 0.0
000050 00 00 00 00 00 00 00 00 00 00 00 00 00 00 00 00
       0.0 0.0 0.0 0.0
000060 00 00 00 00 00 00 00 00 00 00 00 00 00 00 00 00
       0.0 0.0 0.0 0.0
000070 00 00 00 00 00 00 00 00 00 00 00 00 00 00 00 00
       0.0 0.0 0.0 0.0
000080 00 00 00 00 00 00 00 00 00 00 00 00 00 00 00 00
       0.0 0.0 0.0 0.0
000090 00 00 00 00 00 00 00 00 00 00 00 00 00 00 00 00
       0.0 0.0 0.0 0.0
0000a0 00 00 00 00 00 00 00 00 00 00 00 00 00 00 00 00
       0.0 0.0 0.0 0.0
0000b0 00 00 00 00 00 00 00 00 00 00 00 00 00 00 00 00
       0.0 0.0 0.0 0.0
0000c0 00 00 00 00 00 00 00 00 00 00 00 00 00 00 00 00
       0.0 0.0 0.0 0.0
0000d0 00 00 00 00 00 00 00 00 00 00 00 00 00 00 00 00
       0.0 0.0 0.0 0.0
0000e0 00 00 00 00 00 00 00 00 00 00 00 00 00 00 00 00
       0.0 0.0 0.0 0.0
0000f0 00 00 00 00 00 00 00 00 00 00 00 00 00 00 00 00
       0.0 0.0 0.0 0.0
000100 00 00 00 00 00 00 00 00 00 00 00 00 00 00 00 00
       0.0 0.0 0.0 0.0
000110 00 00 00 00 00 00 00 00 00 00 00 00 00 00 00 00
       0.0 0.0 0.0 0.0
000120 00 00 00 00 00 00 00 00 00 00 00 00 00 00 00 00
       0.0 0.0 0.0 0.0
000130 00 00 00 00 00 00 00 00 00 00 00 00 00 00 00 00
       0.0 0.0 0.0 0.0
000140 00 00 00 00 00 00 00 00 00 00 00 00 00 00 00 00
       0.0 0.0 0.0 0.0
000150 00 00 00 00 00 00 00 00 00 00 00 00 00 00 00 00
       0.0 0.0 0.0 0.0
000160 00 00 00 00 00 00 00 00 00 00 00 00 00 00 00 00
       0.0 0.0 0.0 0.0
000170 00 00 00 00 00 00 00 00 00 00 00 00 00 00 00 00
       0.0 0.0 0.0 0.0
000180 00 00 00 00 00 00 00 00 00 00 00 00 00 00 00 00
       0.0 0.0 0.0 0.0
000190 00 00 00 00 00 00 00 00 00 00 00 00 00 00 00 00
       0.0 0.0 0.0 0.0
0001a0 00 00 00 00 00 00 00 00 00 00 00 00 00 00 00 00
       0.0 0.0 0.0 0.0
0001b0 00 00 00 00 00 00 00 00 00 00 00 00 00 00 00 00
       0.0 0.0 0.0 0.0
0001c0 00 00 00 00 00 00 00 00 00 00 00 00 00 00 00 00
       0.0 0.0 0.0 0.0
0001d0 00 00 00 00 00 00 00 00 00 00 00 00 00 00 00 00
       0.0 0.0 0.0 0.0
0001e0 00 00 00 00 00 00 00 00 00 00 00 00 00 00 00 00
       0.0 0.0 0.0 0.0
0001f0 00 00 00 00 00 00 00 00 00 00 00 00 00 00 00 00
       0.0 0.0 0.0 0.0

network_body._body_endoder.seq_layers.2.weight f4 [128, 128]
000000 03 77 52 3d 5b e0 96 bc fa 53 f5 3d 12 be 95 3d
       0.05138303 -0.018417528 0.11978908 0.07311644
000010 91 bf fe bd 27 cb 12 be e8 be b2 3d a4 19 f6 bd
       -0.12438882 -0.14335309 0.08727819 -0.12016609
000020 77 00 30 3e 60 b1 d8 3d e8 e4 40 bd 62 fc 61 bd
       0.17187677 0.105807066 -0.047093302 -0.05517233
000030 11 ff 59 bd 65 5a 4d 3d 62 c0 50 3d 26 71 ba bd
       -0.053221766 0.050135035 0.05096472 -0.091036126
000040 ab 53 ef 3c 06 92 0c be 6e e6 8e bd 91 ab dc 3d
       0.0292147 -0.13727579 -0.06977545 0.10774911
000050 66 7d 9e 3d f6 2d 81 be 60 0c 15 be 91 ac a4 bc
       0.077387616 -0.25230378 -0.14555502 -0.020101817
000060 e5 f0 33 3d 8a a4 82 3d ed cc d9 3c a4 69 08 3d
       0.043930907 0.063790396 0.026586974 0.03330387
000070 dd f3 34 3b 81 07 40 be be 5a 66 3e d4 57 97 bc
       0.0027611174 -0.18752863 0.22495553 -0.018474497
000080 3a e2 12 3e b0 e4 74 bd 9d 56 d8 3d 92 86 86 3d
       0.14344111 -0.059788406 0.10563395 0.06568636
000090 ec 8b 3c 3b aa fc 77 bd 6f f6 b8 bd 25 fa 3c bd
       0.0028769923 -0.060543694 -0.090313785 -0.046136994
0000a0 3a e7 e7 bd ce 4d f8 bc 29 e0 fd bb 48 bf ca 3d
       -0.113234 -0.030310538 -0.0077476692 0.09899765
0000b0 76 50 77 3d 95 15 04 ba 12 fd 2a 3e c9 50 c3 3d
       0.060379468 -0.00050386164 0.16698101 0.09536893
0000c0 c7 9a 49 3d 9f 39 e4 bc b5 8b 0f be 8d 43 2e 3d
       0.049219873 -0.027859507 -0.14018138 0.04254489
0000d0 fc 86 5e be 12 88 fc 3d 2b b7 b2 bc 75 46 b7 3d
       -0.2173118 0.12330641 -0.021815857 0.089489855
0000e0 1b 8d ce bd 9b 36 a5 3d eb 01 07 3e ec 3c 5e 3c
       -0.100855075 0.08067056 0.13184325 0.01356433
0000f0 98 18 3a 3a 64 c0 80 3d 10 25 a9 bd 65 ec 8d bc
       0.00070990017 0.062866956 -0.08259022 -0.017324636
000100 21 01 55 be c7 10 cd 3d 3e c7 35 be f1 9a 01 be
       -0.20801212 0.10012966 -0.17751786 -0.12656762
000110 5f d2 0f bb 86 76 1d be 83 71 99 3d 5e 06 d5 3c
       -0.002194546 -0.15377244 0.07492354 0.026004013
000120 3f cd c0 bd 39 01 10 3e 4b 52 95 bc c7 04 c2 3d
       -0.094141476 0.14062966 -0.018227717 0.094735675
000130 89 6a a4 3d 51 13 d2 bd 33 ec 44 3c b1 90 06 be
       0.080281325 -0.102575906 0.012019205 -0.13141133
000140 ce 40 b5 bd 3d a6 3b be 90 a4 93 bc df 96 c5 3c
       -0.08850251 -0.18325134 -0.018022805 0.024119793
000150 b5 8a 72 bc 76 43 6d bd 4d 2f 66 3d 82 c5 68 3d
       -0.014803578 -0.057925664 0.056197453 0.056828983
000160 f1 49 95 3a a2 cb 0b be 30 c0 a8 3d 1a a2 db bd
       0.0011389834 -0.13651899 0.08239782 -0.10724278
000170 95 69 87 bb 91 8a be 3d e1 f2 ae bc 11 23 c7 bd
       -0.0041324594 0.09303773 -0.021356048 -0.09723485
000180 59 1f 23 3c b0 3e a1 3c 13 a3 b4 3d b2 40 65 be
       0.009956204 0.019683212 0.088201664 -0.2238796
000190 4b 88 01 be 2f 05 23 3d 7b c7 c7 bc 7f c3 20 3e
       -0.12649648 0.039799865 -0.024387112 0.15699576
0001a0 f9 2d 08 bd 10 8e 75 3d b2 c3 bd 3d 4b e6 29 bd
       -0.033246968 0.059949934 0.092658415 -0.04147939
0001b0 d4 33 e3 bd 94 fa 68 3d a5 5b ce 3c ba 20 e3 3a
       -0.1109387 0.056879595 0.025190184 0.0017328479
0001c0 ec b3 9b bd ca aa 82 bc f5 05 86 3e 6a 76 03 bc
       -0.07602677 -0.01595058 0.2617642 -0.008023838
0001d0 54 04 52 bc 42 6f ce 3d 67 39 c4 bd 0d bb 99 3d
       -0.012818415 0.100798145 -0.09581261 0.0750638
0001e0 33 37 fb ba a1 bd 8a bd a1 32 89 3d 15 9c e2 bb
       -0.0019166231 -0.0677445 0.0669911 -0.006915579
0001f0 5e 8c a0 bc e9 a7 33 bd 52 23 1f bd a1 34 2e 3d
       -0.019598182 -0.043861303 -0.038852043 0.04253066
000200 03 20 cb bd 0c 28 19 bd 5c 83 b5 3d 7c db 11 3e
       -0.09918215 -0.037391707 0.088629454 0.14243883
000210 ec f4 9b bd 02 6c 93 bd e6 a4 8f bd 07 c0 a6 bd
       -0.076150745 -0.07198335 -0.07013874 -0.08142095
000220 0a 9c 66 3d 4b 64 c5 3d 61 d5 75 bd 27 41 47 be
       0.056301154 0.0963827 -0.060017947 -0.19458447
000230 d7 f2 9c ba a6 68 b1 bd 3c 61 29 bc 97 f6 a8 bd
       -0.0011974227 -0.08662538 -0.010338124 -0.08250158
000240 de 25 2a be 9d b1 2f 3d c4 ba 19 bd 92 c6 f9 3c
       -0.16616008 0.042893995 -0.03753163 0.030490194
000250 37 a1 f7 bd 57 c0 d1 bc 0f 60 54 bd 0c 87 bc bc
       -0.12091296 -0.02560441 -0.05184942 -0.023013614
000260 31 2f fa bc b3 88 b5 3c 48 f2 83 bd 86 bb af bd
       -0.03054008 0.02215991 -0.06442696 -0.08580689
000270 6d 6e 62 3d cd 47 a1 bd 02 84 b8 3c 8b ce e7 bd
       0.05528109 -0.07875023 0.022523884 -0.11318692
000280 ff a0 2a bd 97 32 7e 3c 2f c8 28 3d 0e 1c 3a be
       -0.041657444 0.015514991 0.041206535 -0.18174765
000290 b3 97 ee bd 36 c6 d9 bd 33 4f 9c bc 94 be ff bd
       -0.11650028 -0.10633509 -0.019080734 -0.12487522
0002a0 ed 65 c2 bd 29 aa 07 3e 41 e1 cf bd 0f 6e b5 3d
       -0.09492097 0.13248505 -0.10150386 0.08858883
0002b0 d2 1d cf bc 5b bc 5e 3d af e5 5f 3b b5 3c 96 bd
       -0.025282774 0.05437885 0.0034164002 -0.07335798
0002c0 91 35 01 be 61 12 c4 bc c7 9e 5b 3d 4c 1b cb bd
       -0.1261809 -0.023934545 0.05361822 -0.09917316
0002d0 34 03 2a 3e 48 76 7d 3d 57 c5 07 3e a7 f1 d6 bd
       0.16602784 0.06188038 0.13258873 -0.1049531
0002e0 51 91 02 3c be b6 6f 3d a1 85 fc 3d 0d c3 b0 3d
       0.007969216 0.058523886 0.12330175 0.08630953
0002f0 2f c1 ae 3d 3e 87 44 bd 86 7d bd 3d 92 2f 88 3d
       0.085329406 -0.04798054 0.09252457 0.06649698
000300 46 1c da bc 93 81 fd bd 2b a3 c6 3d e4 11 2f be
       -0.02662481 -0.1237823 0.096990906 -0.17096668
000310 ef 49 98 3d b2 e4 43 3e 39 80 05 3e 4e 15 0f 3e
       0.07435977 0.19130209 0.13037194 0.13972971
000320 a0 43 cd bd 8c af 88 3b 13 05 e8 3d 21 63 0d bd
       -0.10022664 0.0041713174 0.11329093 -0.034518365
000330 54 ca e8 bc 37 c9 a4 3c d3 5f ca 3d 3e 01 f5 3d
       -0.02841679 0.020115478 0.09881558 0.119631276
000340 70 82 aa 3d 52 14 e8 bb 24 40 be bc e9 03 c6 3b
       0.0832566 -0.0070825005 -0.023223944 0.0060429466
000350 db 59 fe 3c 0c 5f a6 bc 5a 88 f7 bd c7 3e 44 bd
       0.031048706 -0.020308994 -0.12086554 -0.04791143
000360 88 f0 e2 3d 1e 95 b7 ba 5a b1 a7 3d 21 e8 58 3d
       0.11081034 -0.0014006232 0.08188124 0.05295575
000370 1b da 43 3d d7 0c 97 3d e6 87 2c be 45 14 dd bd
       0.047815423 0.07375496 -0.16848716 -0.10794882
000380 b7 a0 3a bd dc 53 a1 bd 43 8e 24 3e cb f9 ad bd
       -0.045563426 -0.07877323 0.16069894 -0.0849491
000390 1b fe 32 bd 5c de 07 3e 5c ac 76 3c 2c 50 0f bc
       -0.043699365 0.13268417 0.015055742 -0.008747142
0003a0 59 12 ca bd be 2a cf 3c 41 2c 26 be d2 f5 88 bc
       -0.09866781 0.025288936 -0.16227819 -0.016718779
0003b0 81 e1 87 3d 4f 88 c2 bc 3f bb 6a 3e c3 62 11 3e
       0.06634808 -0.023746638 0.22922991 0.14197831
0003c0 bd e7 62 be bf 3f 7f bc 08 35 dc bd ff f2 a8 bc
       -0.22158714 -0.015579163 -0.107523024 -0.020623682
0003d0 95 96 5f bd 16 ea 1b be d9 54 db 3c bd 7b 4e bd
       -0.054586966 -0.15226015 0.026773857 -0.050410975
0003e0 71 25 82 3e da c6 31 3e 46 e9 94 b9 00 b8 b0 3d
       0.2541919 0.17361012 -0.00028402562 0.08628845
0003f0 40 fd 20 3e 2a ec 0b be 6d 56 2a 3d 7a 65 ab 3d
       0.15721607 -0.13664308 0.04158633 0.083689645

network_body._body_endoder.seq_layers.2.bias f4 [128]
000000 00 00 00 00 00 00 00 00 00 00 00 00 00 00 00 00
       0.0 0.0 0.0 0.0
000010 00 00 00 00 00 00 00 00 00 00 00 00 00 00 00 00
       0.0 0.0 0.0 0.0
000020 00 00 00 00 00 00 00 00 00 00 00 00 00 00 00 00
       0.0 0.0 0.0 0.0
000030 00 00 00 00 00 00 00 00 00 00 00 00 00 00 00 00
       0.0 0.0 0.0 0.0
000040 00 00 00 00 00 00 00 00 00 00 00 00 00 00 00 00
       0.0 0.0 0.0 0.0
000050 00 00 00 00 00 00 00 00 00 00 00 00 00 00 00 00
       0.0 0.0 0.0 0.0
000060 00 00 00 00 00 00 00 00 00 00 00 00 00 00 00 00
       0.0 0.0 0.0 0.0
000070 00 00 00 00 00 00 00 00 00 00 00 00 00 00 00 00
       0.0 0.0 0.0 0.0
000080 00 00 00 00 00 00 00 00 00 00 00 00 00 00 00 00
       0.0 0.0 0.0 0.0
000090 00 00 00 00 00 00 00 00 00 00 00 00 00 00 00 00
       0.0 0.0 0.0 0.0
0000a0 00 00 00 00 00 00 00 00 00 00 00 00 00 00 00 00
       0.0 0.0 0.0 0.0
0000b0 00 00 00 00 00 00 00 00 00 00 00 00 00 00 00 00
       0.0 0.0 0.0 0.0
0000c0 00 00 00 00 00 00 00 00 00 00 00 00 00 00 00 00
       0.0 0.0 0.0 0.0
0000d0 00 00 00 00 00 00 00 00 00 00 00 00 00 00 00 00
       0.0 0.0 0.0 0.0
0000e0 00 00 00 00 00 00 00 00 00 00 00 00 00 00 00 00
       0.0 0.0 0.0 0.0
0000f0 00 00 00 00 00 00 00 00 00 00 00 00 00 00 00 00
       0.0 0.0 0.0 0.0
000100 00 00 00 00 00 00 00 00 00 00 00 00 00 00 00 00
       0.0 0.0 0.0 0.0
000110 00 00 00 00 00 00 00 00 00 00 00 00 00 00 00 00
       0.0 0.0 0.0 0.0
000120 00 00 00 00 00 00 00 00 00 00 00 00 00 00 00 00
       0.0 0.0 0.0 0.0
000130 00 00 00 00 00 00 00 00 00 00 00 00 00 00 00 00
       0.0 0.0 0.0 0.0
000140 00 00 00 00 00 00 00 00 00 00 00 00 00 00 00 00
       0.0 0.0 0.0 0.0
000150 00 00 00 00 00 00 00 00 00 00 00 00 00 00 00 00
       0.0 0.0 0.0 0.0
000160 00 00 00 00 00 00 00 00 00 00 00 00 00 00 00 00
       0.0 0.0 0.0 0.0
000170 00 00 00 00 00 00 00 00 00 00 00 00 00 00 00 00
       0.0 0.0 0.0 0.0
000180 00 00 00 00 00 00 00 00 00 00 00 00 00 00 00 00
       0.0 0.0 0.0 0.0
000190 00 00 00 00 00 00 00 00 00 00 00 00 00 00 00 00
       0.0 0.0 0.0 0.0
0001a0 00 00 00 00 00 00 00 00 00 00 00 00 00 00 00 00
       0.0 0.0 0.0 0.0
0001b0 00 00 00 00 00 00 00 00 00 00 00 00 00 00 00 00
       0.0 0.0 0.0 0.0
0001c0 00 00 00 00 00 00 00 00 00 00 00 00 00 00 00 00
       0.0 0.0 0.0 0.0
0001d0 00 00 00 00 00 00 00 00 00 00 00 00 00 00 00 00
       0.0 0.0 0.0 0.0
0001e0 00 00 00 00 00 00 00 00 00 00 00 00 00 00 00 00
       0.0 0.0 0.0 0.0
0001f0 00 00 00 00 00 00 00 00 00 00 00 00 00 00 00 00
       0.0 0.0 0.0 0.0

action_model._continuous_distribution.log_sigma f4 [1, 2]
000000 00 00 00 00 00 00 00 00
       0.0 0.0

action_model._continuous_distribution.mu.weight f4 [2, 128]
000000 db b7 8c 3c 6d 4b 83 bc 87 33 0c 3d e3 2d d0 bc
       0.017177513 -0.016027177 0.034228828 -0.025412505
000010 76 e6 8a bc 6a 45 c4 3c 44 ae b1 3b eb 41 ee bc
       -0.016955595 0.02395888 0.0054223854 -0.029084167
000020 36 87 94 3c 70 16 c9 bc 6a df d0 bb 18 c1 d6 3a
       0.01813088 -0.024546832 -0.0063742893 0.0016384451
000030 e1 f5 3e 3c e0 b3 14 3c 3f f5 0d 3d d7 02 21 bc
       0.011655302 0.009076089 0.034657713 -0.009827337
000040 0b 89 2e bc e3 1c b4 3a 5d 2a 1e bb 48 bf c9 3b
       -0.010652791 0.0013741519 -0.0024134137 0.0061568357
000050 73 6a 76 3c 6f 2b e0 3b 5d 37 23 bc e3 85 12 3c
       0.015040028 0.006841115 -0.00996193 0.008943054
000060 a7 71 23 3c 68 4e b3 bc d7 6f 95 bb b5 f3 73 bc
       0.009975827 -0.021887973 -0.0045604515 -0.014889647
000070 c2 a1 1a 3d bb 4e 64 bb 1b 6b 64 3b 80 bf 6d ba
       0.03775192 -0.0034836966 0.003485388 -0.0009069368
000080 f5 b8 e6 3a be 76 b6 3c 53 89 88 bc e9 69 b2 bc
       0.0017602729 0.022273418 -0.016667044 -0.021779018
000090 cc 56 a1 3c 0a 52 e2 3b d6 5e 98 bb 59 06 28 bd
       0.019694708 0.0069067525 -0.004649977 -0.04102168
0000a0 e4 25 2a bb 5f 32 b6 ba 9e a3 b5 bc f2 57 55 3d
       -0.0025962526 -0.001390051 -0.022172745 0.052085824
0000b0 cd 34 5b 3c 2b eb 80 bb 57 2a 8e 3c 2a f7 92 bb
       0.013379288 -0.003934284 0.017354174 -0.0044850307
0000c0 d2 31 91 3c 88 8c b8 bb 9a 68 0b 3d ab 0b 01 3d
       0.017723951 -0.005631987 0.034035303 0.031505268
0000d0 7f 84 0a 3c 2d 0e 9e bc 4d 49 41 ba b3 26 ba bc
       0.008454441 -0.019293869 -0.00073732884 -0.022723531
0000e0 ab 44 97 3c f7 36 08 bc cf 3d a1 bc b0 e6 1d 3d
       0.01846536 -0.008313886 -0.019682793 0.03855008
0000f0 02 6d 14 bd bf 6b 3a 3c eb 65 e1 3c a7 fa e9 3c
       -0.03623677 0.011378228 0.027514419 0.028561903
000100 f7 c2 04 b9 2f 23 22 3d af 65 ce 3c a7 20 ab b9
       -0.00012661131 0.039584335 0.02519497 -0.0003263999
000110 d7 46 49 bc c9 30 12 3d c3 76 b9 3c 5f 07 18 3c
       -0.012284956 0.035691056 0.022639638 0.009279101
000120 6b 65 36 bc 23 50 4e 3c 38 17 af 3c a5 58 2c bb
       -0.011132578 0.012592348 0.021373376 -0.0026297953
000130 45 59 e0 3c ff 20 a3 3b 73 7f 54 bc 47 bf a9 3b
       0.027386317 0.0049782987 -0.012969839 0.0051802727
000140 2b c6 fb 3b 54 46 a2 bc 62 2d f3 bc 57 e1 48 3c
       0.0076835356 -0.019808926 -0.029684726 0.012260756
000150 9b cb ae 3b 13 b9 0e bc b6 b5 84 3b 9e ca 0c 3b
       0.0053343303 -0.008711117 0.004049982 0.0021483074
000160 d2 b0 67 bb a9 05 c6 bb 23 f4 a7 3c ab 88 09 bc
       -0.0035353196 -0.006043155 0.020502156 -0.008394401
000170 81 15 9b 3c 80 68 03 bc b0 35 71 3c 60 24 17 3c
       0.018931152 -0.00802052 0.014722273 0.009224981
000180 43 7a 7b 3b b0 92 e9 bc f8 70 85 bc ab 62 1b 3c
       0.0038372434 -0.028512329 -0.01628922 0.0094839735
000190 2e 44 ba 3c ba 1a e5 bc 82 17 e8 3b f3 66 6d bc
       0.022737589 -0.027966846 0.0070828805 -0.014489877
0001a0 df dc 65 3c 0f a4 9a 3b fc 3d 07 bc ed dc 17 bc
       0.014029711 0.0047192643 -0.008254524 -0.009268981
0001b0 18 34 3c 3c 4f fe 78 bb 98 1c 99 3b d5 83 8d 3a
       0.0114870295 -0.0037993377 0.004672598 0.0010796735
0001c0 20 0e e9 3c 4d 6e 95 3c 1e ce 48 3c 00 83 1f bd
       0.028449118 0.018241072 0.012256173 -0.03894329
0001d0 0f 7e ad 3a 7d 19 eb bb ce 9e 8c b9 af 58 24 bc
       0.0013236421 -0.0071746693 -0.000268212 -0.010030909
0001e0 89 7f 90 3b 1b 89 4b 3c cc 6a 9e 3b 09 3b 9b 3c
       0.0044097346 0.012422825 0.0048345085 0.018949049
0001f0 fd 9a d2 3c 51 e8 cb bb 0f 5b 32 bb b3 da 36 3c
       0.02570867 -0.0062227626 -0.002721492 0.01116054
000200 3c 0d 97 3c 9c 6a c8 bb 95 68 30 bd 70 65 6d 3c
       0.018438928 -0.0061162245 -0.043068487 0.014489517
000210 af a2 92 3c be c2 0a 3d 1d c4 59 3b 1d 2f 2f 3d
       0.01789984 0.033877127 0.0033228465 0.04276954
000220 0d e6 f7 bb 67 a4 0a 3c db b9 58 bc 7b b1 56 3c
       -0.007565266 0.008462048 -0.013227905 0.013103838
000230 1a 9d 59 bc 17 08 06 3b 9b 1f 0a 3b 72 d6 72 bb
       -0.013282085 0.00204516 0.0021075967 -0.003705409
000240 33 de 21 3c 1f 0d e8 3b d1 87 2d bc c7 0b 25 bc
       0.009879637 0.0070816423 -0.010591463 -0.010073609
000250 0a 73 a3 3c 4f a1 88 3b c3 02 f4 bb 38 01 69 3c
       0.019952316 0.00416962 -0.0074466183 0.014221482
000260 ef 49 80 bb 0e 1c ba bc bf 86 62 3c 9f 44 e8 3c
       -0.0039150636 -0.022718456 0.013826071 0.028353034
000270 3f a1 ad bb b5 f2 ce 3a 18 8b 10 bb ec 7b 9f 3c
       -0.005298763 0.0015788885 -0.0022055563 0.01946827
000280 06 f2 04 bd 01 47 14 bd 59 3b 38 3d 84 79 85 bb
       -0.032457374 -0.036200527 0.044978473 -0.0040733237
000290 17 f8 85 3c 96 a2 30 3c 45 96 1a bd 57 21 ee bc
       0.01635365 0.010780951 -0.037740964 -0.029068632
0002a0 0a 03 6f bc 78 62 ea bc 90 a8 d5 3c eb cc a0 3c
       -0.014588127 -0.028611407 0.026081353 0.019628963
0002b0 50 84 76 3b 4f 50 da 3b 03 5c 77 3b cf ab 32 bc
       0.0037615485 0.0066624056 0.0037744052 -0.01090522
0002c0 60 e2 57 bc 1c 6f 32 bb df 95 5e bc f4 87 af bb
       -0.013176531 -0.002722687 -0.013585537 -0.005356783
0002d0 cb 72 59 bb 28 2a 69 bc 82 f4 0e 3c 15 bd 1e 3c
       -0.0033179994 -0.014231242 0.008725287 0.009688635
0002e0 74 4c 22 3c db f4 88 3c 48 97 52 3c 9d a9 b5 3c
       0.009905923 0.016718319 0.012853451 0.022175604
0002f0 62 f1 bd 3b 1a 95 41 3b 9a b2 e8 3b cc 85 21 3b
       0.0057965973 0.0029538334 0.007101369 0.00246464
000300 84 0b 88 bc 4e b5 82 bc 3a 31 60 3c 54 70 8f bc
       -0.016607054 -0.015955593 0.0136836115 -0.017509617
000310 72 f4 1d bc ea 3e ad 3c 2f 67 93 bc f2 26 dc 3c
       -0.0096408 0.021148164 -0.017993538 0.02687404
000320 67 16 84 3c d2 6d f9 ba bd da 21 bc 1f ae 49 bb
       0.016123964 -0.0019029921 -0.009878811 -0.003077395
000330 c4 81 a7 3b 70 23 52 3c 0e 4f c2 bb 07 41 8e bb
       0.005111905 0.012825832 -0.005929834 -0.004341248
000340 b4 af 88 bc 2c e8 27 bc 8b 35 e3 3a 3f 49 ef bb
       -0.016685344 -0.010248225 0.0017334683 -0.007302433
000350 42 8e 04 3d 0b 4e fb 3c 89 99 9c bc 50 58 a5 3b
       0.03236223 0.030676862 -0.01911618 0.005045928
000360 82 f7 71 3c 5a b4 c8 bc 2b a3 a7 ba 78 f4 e1 3b
       0.014768483 -0.02450006 -0.0012789717 0.006895598
000370 d0 9f 4f 3c d7 1e 0f bd cd f9 f6 3c c8 7e a8 3c
       0.01267238 -0.03494152 0.030148411 0.020568267
000380 be cc 83 bc 9f c8 d4 bc af 3e e0 bc 27 1a 87 3c
       -0.01608884 -0.02597457 -0.02737364 0.016491963
000390 1a 0b e6 3c 89 a1 24 3b d5 7c d0 3b 73 8b ab 3c
       0.028081466 0.0025120697 0.0063625374 0.020940518
0003a0 af 02 ed bc 8b f2 1c 3c 33 ea 4d bc c0 fa 9a bc
       -0.028931944 0.009579311 -0.0125680445 -0.018918395
0003b0 55 07 ce bc ba 68 b0 3b e3 b8 6a 3c 7c ea 20 3c
       -0.02514998 0.005383578 0.014326307 0.00982153
0003c0 fb cc 57 3c 0b 3c 05 bc 83 bc dc bb 02 22 5c 3c
       0.01317143 -0.008131991 -0.0067363395 0.0134358425
0003d0 a3 be 3c bd f3 da 9c bc 71 8e 41 bc 3c 40 45 3c
       -0.046080243 -0.019147372 -0.011813746 0.01203924
0003e0 0e 73 c6 3c 63 a1 ce 3c 07 57 a7 3c 9a 2a 2a 3c
       0.024224784 0.02522344 0.02042724 0.010386134
0003f0 df 7e 95 bb 7a 45 50 bc 60 a0 ec 3b bd e6 66 bc
       -0.0045622434 -0.012711877 0.0072212666 -0.014093098

action_model._continuous_distribution.mu.bias f4 [2]
000000 00 00 00 00 00 00 00 00
       0.0 0.0

network_body._body_endoder.seq_layers.0.weight f4 [128, 39]
000000 66 d0 b8 3c c5 ff cb 3d 46 69 f9 3d 4c 3f 90 bd
       0.02256031 0.099608935 0.121782824 -0.07043323
000010 0e 4c 4b bd 97 83 de be 5d 8b 23 be ea 21 e4 bd
       -0.04963308 -0.4345977 -0.15971132 -0.11139281
000020 ab 4c 10 bd 5a 92 42 be cf 4d 2b bd a2 e6 1c bd
       -0.035229366 -0.19001141 -0.04182225 -0.038305886
000030 ca c3 83 bc 8e 5f 2a be 72 4d 05 3e db 7b c2 3b
       -0.01608457 -0.16638014 0.13017824 0.005935175
000040 f3 44 42 3d 8e c4 c8 3d 47 de d2 bd 41 fe 40 3e
       0.047429036 0.09803115 -0.10296302 0.1884699
000050 06 9f 5a 3e 57 7b 9b 3e cd a1 1c 3e 90 aa e1 3c
       0.21349725 0.30367538 0.15296097 0.02754715
000060 09 ba cf bd da 98 74 3d 9c 50 a1 bb 4b c0 55 bc
       -0.10142905 0.059716083 -0.0049229395 -0.0130463345
000070 35 7d 57 3e 05 dd 71 3e 9d 01 84 3e 68 70 d9 3d
       0.21043856 0.23619469 0.2578248 0.10617143
000080 de 51 a7 3d d0 21 1e 3e 7a 24 81 3c e1 bc cd 3d
       0.08169912 0.15442586 0.015764464 0.100457914
000090 1c 84 81 3d a4 94 76 be f6 2f 23 3e 3a 36 21 be
       0.06324026 -0.2408014 0.15936264 -0.15743342
0000a0 a2 da d0 bd 73 16 50 be bf 10 0a bd d2 b9 34 bd
       -0.10197951 -0.20321064 -0.033707377 -0.044122525
0000b0 b0 3a 44 be 22 19 b4 3e 71 44 30 be 80 f0 05 3d
       -0.19163013 0.35175425 -0.17213608 0.03270006
0000c0 86 41 3a be 23 4c 5c bd a0 db 95 bc e8 ba 1a be
       -0.18189058 -0.053783547 -0.018293202 -0.15110362
0000d0 f0 56 29 3d 4b 67 16 3e 24 a0 ee 3d 95 de 8e be
       0.041342676 0.1468784 0.11651638 -0.27904192
0000e0 5e 0f 71 be ff 63 e6 3d 1a d4 33 bd 6b 0a 38 3c
       -0.23541018 0.112495415 -0.043903448 0.011232953
0000f0 ea f3 bf bc 5b 09 23 3e 10 1c 5d be 28 1f 9c 3a
       -0.023431737 0.15921538 -0.21592736 0.0011911141
000100 c2 11 7a bd 38 0a 5e bd bd 06 cd bd 62 5c d4 3e
       -0.06105209 -0.054208964 -0.10011051 0.41476732
000110 85 9d 32 be 5b a2 8b 3e 1a 6f dd 3d 1c 05 b5 3d
       -0.17442901 0.27272305 0.108122066 0.08838865
000120 55 1d 74 be e4 a6 63 bd ed 5a 9d 3e cd 1a 69 be
       -0.23839314 -0.05557908 0.30733433 -0.2276413
000130 34 00 e9 3c 1f a8 67 3e 96 f5 5e 3e 4f 90 71 be
       0.02844248 0.22622727 0.21773371 -0.23590206
000140 49 4a e2 3e a9 be a0 be 7e 09 23 3d 79 1e 29 bd
       0.441973 -0.31395462 0.039803974 -0.041288827
000150 bc b9 40 3e 6e 90 4a 3e 6c 8d 8f 3e 01 67 68 be
       0.18820852 0.19781658 0.28037584 -0.22695543
000160 9f 2e 57 3e 68 f4 8f 3e 91 42 a9 3d 2f 28 38 be
       0.21013878 0.28116155 0.0826465 -0.17984079
000170 3d 23 e4 3d 1a c1 fe 3c cf 81 16 be 43 85 96 be
       0.11139534 0.031097937 -0.14697956 -0.29398546
000180 06 d4 7d 3d 79 d8 a8 bd 4c 68 9b be 4d 95 3c 3d
       0.06196978 -0.08244414 -0.3035301 0.04604082
000190 bf 77 35 3e f4 1b 3f be 94 f8 92 3e 42 b5 75 3e
       0.17721461 -0.18663007 0.28705275 0.23994926
0001a0 67 87 0b 3e 20 7e 39 3e 46 2d b4 be 8b 6d 71 be
       0.1362587 0.18114519 -0.3519079 -0.23576944
0001b0 8a 64 d3 bc 51 76 a0 3e 64 aa e9 bd 73 48 35 3e
       -0.025804777 0.31340268 -0.114094526 0.17703418
0001c0 88 80 26 be a1 86 9c 3d 19 93 9b 3c 1a ac 99 be
       -0.16259968 0.07642866 0.01899104 -0.30014116
0001d0 4e 80 53 3e d6 17 60 3d 39 4f 0f 3e d3 19 86 bd
       0.20654413 0.05471023 0.13995065 -0.06547894
0001e0 69 8d 96 3c d9 39 bf be 28 e6 a7 bd bf 7a 7f 3d
       0.018377976 -0.37348822 -0.08198196 0.06237292
0001f0 d2 69 2f 3c bd bf 93 3d c9 7c 8b 3e 48 9f 9f 3d
       0.010706382 0.072143055 0.2724364 0.07794052
000200 b7 4d a1 bd 41 cd ef bc d4 8c 6d 3e eb 06 7b be
       -0.07876151 -0.029272677 0.23198253 -0.24514358
000210 20 14 ad bd fa b4 5b be e6 67 0f 3c 56 2e 15 3d
       -0.08451104 -0.21455756 0.008752799 0.036421143
000220 01 bd 03 bd 92 28 48 3e f9 28 42 3d c8 85 4f 3e
       -0.03216267 0.19546726 0.047402356 0.20265877
000230 fc 68 bb 3d 98 ca f7 bb c6 13 46 3d 9f ee 13 3d
       0.091508836 -0.007561993 0.0483587 0.03611624
000240 8c 84 9d 3e a4 c1 a1 bd 6c 69 ff bd 7b 9d 5f 3d
       0.30765188 -0.07898262 -0.124712795 0.054593544
000250 88 92 a2 bd e8 ea 6c 3d 67 a6 0e be 68 ab 41 3e
       -0.07938105 0.05784121 -0.13930665 0.18913043
000260 30 68 a9 bd 7d 84 55 3e 67 ad 67 bd 9a cc 0e 3e
       -0.08271825 0.20851322 -0.056561854 0.13945237
000270 7b 36 01 3e 21 2f 2a be a6 72 16 be 68 54 4e 3e
       0.12618439 -0.16619541 -0.14692172 0.20149386
000280 8d 51 95 be f1 56 81 3e 48 d6 90 3d d3 89 21 be
       -0.2916378 0.25261644 0.07072121 -0.15775232
000290 28 5b 9e bd 35 d8 54 3e 41 6a 6c be d7 b7 94 bc
       -0.077322304 0.20785601 -0.23087408 -0.018154068
0002a0 ef a7 ee bd 44 18 0a bd 5d 93 82 bd e7 cb b8 3d
       -0.116531245 -0.033714548 -0.063757636 0.09023266
0002b0 ea 25 71 be 23 bd b0 bb dc d1 5a be 3c 5d 29 be
       -0.2354962 -0.0053936406 -0.21369117 -0.16539472
0002c0 59 10 a2 bd ff a2 b2 bd 98 a6 89 3c f0 47 33 bd
       -0.07913274 -0.08722495 0.01680307 -0.043769777
0002d0 c3 76 1d 3d 4e 9d 05 be 96 58 13 be 58 e5 c0 3c
       0.038443338 -0.13048288 -0.14389262 0.02354686
0002e0 0b ba fb bd 9d e4 9a 3d 4b 78 be bd bb bd 8c bd
       -0.12291344 0.07563136 -0.09300288 -0.06872126
0002f0 ed 23 15 bd 1c 31 8f bd f8 b4 1a 3e 21 15 95 be
       -0.036411215 -0.06991789 0.15108097 -0.29117683
000300 95 43 42 3e 99 15 72 3e f0 92 c9 3d 6c f3 05 3e
       0.18971093 0.23641051 0.09842479 0.1308114
000310 a7 35 a0 3d e0 6f eb bd a9 63 34 3d bd fe 84 be
       0.07822733 -0.11495948 0.044040356 -0.259756
000320 df 42 59 3e 85 c4 5a 3e 87 0e 41 3e 58 7e 34 3c
       0.21216916 0.21364029 0.18853198 0.011016451
000330 28 5c fd bd f1 83 15 3e c5 3a 31 3e 51 64 d9 3d
       -0.12371093 0.14601113 0.17307575 0.10614837
000340 b4 26 88 bd f4 6d 59 be 8e 10 66 3e 4f 92 28 ba
       -0.06648007 -0.2123335 0.22467253 -0.0006430493
000350 30 82 a9 bd fe fd ab bd c6 ea e0 3d cc 3b f1 3c
       -0.082767844 -0.083980545 0.109822795 0.029447459
000360 4f 24 bc 3d 94 21 e7 3d 96 99 a7 3d 74 fe 85 be
       0.09186613 0.112857014 0.08183591 -0.26170695
000370 71 bb 77 3d ec b0 1d bd f9 6f 4f be d6 b1 97 3e
       0.060481492 -0.038498804 -0.20257558 0.29627866
000380 29 b0 67 3d 4a f9 27 be 1a e9 e2 bd 65 47 da bd
       0.056564484 -0.1640369 -0.11079617 -0.10658149
000390 16 fa 35 bd c2 2c 7e 3e 7a 90 56 3e b0 36 2f 3e
       -0.044427954 0.24821761 0.20953551 0.17110705
0003a0 48 55 99 3d 42 c4 01 3e 82 e5 e9 3d 08 26 9e 3d
       0.07486969 0.12672523 0.11420728 0.07722098
0003b0 75 f8 7f 3e 74 82 48 3c 66 59 a7 3c c6 03 f2 bd
       0.24997123 0.012238134 0.02042837 -0.11817126
0003c0 8c 51 30 3e 6a 74 6c be 8f 16 ea 3d ef 76 fd 3d
       0.17218608 -0.23091283 0.11430084 0.123762004
0003d0 17 73 12 be 44 10 6d be f7 59 72 bc dc 8a f7 3c
       -0.14301716 -0.23150736 -0.014791957 0.03021758
0003e0 26 00 8a bd c4 52 e6 bd 6f c2 2c 3e f7 ff e4 3d
       -0.067383096 -0.11246255 0.16871046 0.11181634
0003f0 fd 5f ab 3e 08 7e 9e be b7 76 22 be 6b 9a 02 3e
       0.3347167 -0.3095553 -0.15865599 0.12754218

network_body._body_endoder.seq_layers.0.bias f4 [128]
000000 00 00 00 00 00 00 00 00 00 00 00 00 00 00 00 00
       0.0 0.0 0.0 0.0
000010 00 00 00 00 00 00 00 00 00 00 00 00 00 00 00 00
       0.0 0.0 0.0 0.0
000020 00 00 00 00 00 00 00 00 00 00 00 00 00 00 00 00
       0.0 0.0 0.0 0.0
000030 00 00 00 00 00 00 00 00 00 00 00 00 00 00 00 00
       0.0 0.0 0.0 0.0
000040 00 00 00 00 00 00 00 00 00 00 00 00 00 00 00 00
       0.0 0.0 0.0 0.0
000050 00 00 00 00 00 00 00 00 00 00 00 00 00 00 00 00
       0.0 0.0 0.0 0.0
000060 00 00 00 00 00 00 00 00 00 00 00 00 00 00 00 00
       0.0 0.0 0.0 0.0
000070 00 00 00 00 00 00 00 00 00 00 00 00 00 00 00 00
       0.0 0.0 0.0 0.0
000080 00 00 00 00 00 00 00 00 00 00 00 00 00 00 00 00
       0.0 0.0 0.0 0.0
000090 00 00 00 00 00 00 00 00 00 00 00 00 00 00 00 00
       0.0 0.0 0.0 0.0
0000a0 00 00 00 00 00 00 00 00 00 00 00 00 00 00 00 00
       0.0 0.0 0.0 0.0
0000b0 00 00 00 00 00 00 00 00 00 00 00 00 00 00 00 00
       0.0 0.0 0.0 0.0
0000c0 00 00 00 00 00 00 00 00 00 00 00 00 00 00 00 00
       0.0 0.0 0.0 0.0
0000d0 00 00 00 00 00 00 00 00 00 00 00 00 00 00 00 00
       0.0 0.0 0.0 0.0
0000e0 00 00 00 00 00 00 00 00 00 00 00 00 00 00 00 00
       0.0 0.0 0.0 0.0
0000f0 00 00 00 00 00 00 00 00 00 00 00 00 00 00 00 00
       0.0 0.0 0.0 0.0
000100 00 00 00 00 00 00 00 00 00 00 00 00 00 00 00 00
       0.0 0.0 0.0 0.0
000110 00 00 00 00 00 00 00 00 00 00 00 00 00 00 00 00
       0.0 0.0 0.0 0.0
000120 00 00 00 00 00 00 00 00 00 00 00 00 00 00 00 00
       0.0 0.0 0.0 0.0
000130 00 00 00 00 00 00 00 00 00 00 00 00 00 00 00 00
       0.0 0.0 0.0 0.0
000140 00 00 00 00 00 00 00 00 00 00 00 00 00 00 00 00
       0.0 0.0 0.0 0.0
000150 00 00 00 00 00 00 00 00 00 00 00 00 00 00 00 00
       0.0 0.0 0.0 0.0
000160 00 00 00 00 00 00 00 00 00 00 00 00 00 00 00 00
       0.0 0.0 0.0 0.0
000170 00 00 00 00 00 00 00 00 00 00 00 00 00 00 00 00
       0.0 0.0 0.0 0.0
000180 00 00 00 00 00 00 00 00 00 00 00 00 00 00 00 00
       0.0 0.0 0.0 0.0
000190 00 00 00 00 00 00 00 00 00 00 00 00 00 00 00 00
       0.0 0.0 0.0 0.0
0001a0 00 00 00 00 00 00 00 00 00 00 00 00 00 00 00 00
       0.0 0.0 0.0 0.0
0001b0 00 00 00 00 00 00 00 00 00 00 00 00 00 00 00 00
       0.0 0.0 0.0 0.0
0001c0 00 00 00 00 00 00 00 00 00 00 00 00 00 00 00 00
       0.0 0.0 0.0 0.0
0001d0 00 00 00 00 00 00 00 00 00 00 00 00 00 00 00 00
       0.0 0.0 0.0 0.0
0001e0 00 00 00 00 00 00 00 00 00 00 00 00 00 00 00 00
       0.0 0.0 0.0 0.0
0001f0 00 00 00 00 00 00 00 00 00 00 00 00 00 00 00 00
       0.0 0.0 0.0 0.0

network_body._body_endoder.seq_layers.2.weight f4 [128, 128]
000000 c1 cc e5 3d 65 bd 95 3d de 85 29 3e 54 6f 81 bd
       0.11220694 0.07311515 0.16554973 -0.06320062
000010 bc ec 3c 3d db fe 60 bd 2a 45 a9 3d c6 52 00 bd
       0.046124205 -0.05493055 0.08265145 -0.03132894
000020 1b a6 a5 bd c1 7d a9 3c 6a 34 a8 bd a6 a8 dc 3d
       -0.08088323 0.020689847 -0.08213122 0.10774355
000030 a1 c0 e9 bc c5 b2 95 3d e8 e1 61 bd 25 46 e3 3d
       -0.028534235 0.07309488 -0.05514708 0.110973634
000040 a1 3c e1 39 d7 7f 87 bd a2 66 3c 3e 45 67 dd bd
       0.00042960516 -0.066161804 0.18398526 -0.10810713
000050 ba d5 18 be 5d 6d 12 be 27 2f 51 be df 0f d0 3b
       -0.1492528 -0.14299531 -0.20428143 0.006349548
000060 02 8a a8 bc 9e 09 4a bc 85 aa 0c bd e8 86 0b bd
       -0.02057362 -0.0123313945 -0.034342308 -0.034064204
000070 ca d2 44 3d 35 b7 08 3d e9 a3 e3 3d b9 66 49 3e
       0.048052587 0.033377845 0.11115248 0.19668092
000080 92 12 bc 3d 5e 3c 22 3d e5 02 1f be d3 89 3a 3d
       0.091832295 0.039608352 -0.15528448 0.045541596
000090 96 e3 46 3d fb 83 d9 bd 9e 69 5b bd 6d 17 0b 3c
       0.048556887 -0.106208764 -0.05356752 0.008489472
0000a0 8f df 78 be b8 a9 03 3d fd dd d1 3d e3 ee 96 bc
       -0.24304031 0.03214428 0.10247419 -0.018424457
0000b0 e7 a1 8f bd e5 9d 13 bd 0e ac 89 3d 92 61 63 bd
       -0.07013302 -0.03603925 0.0672227 -0.055512972
0000c0 8e 43 f3 bd 0c ff a6 bc dd 25 4b bc e6 f6 69 3e
       -0.118781194 -0.020385288 -0.012399164 0.2284809
0000d0 06 b5 03 bc 83 fe f9 bc 06 6b 3c 3d 2a 20 87 bd
       -0.008038765 -0.030516868 0.046000503 -0.06597932
0000e0 a0 58 d8 3d 8b 68 11 be 17 42 ec bd 93 7a 3c 3e
       0.10563779 -0.14200036 -0.11536043 0.18406133
0000f0 ba a5 80 bd ba 25 09 be 80 fb a4 3d 20 36 2f be
       -0.0628161 -0.13393298 0.08055782 -0.17110491
000100 2e 28 77 3d b5 38 d1 3b 4d 3d eb bd eb 56 86 3d
       0.060341053 0.006384934 -0.114863016 0.06559547
000110 3c b7 e3 3d 6f 59 0b 3d e2 ca ae 3d 87 c2 eb bd
       0.111189336 0.034020837 0.085347906 -0.115117125
000120 3e e1 a7 3d ee 98 b6 3c 79 8b b6 3d cf 8b f3 3d
       0.081972584 0.02228972 0.08913321 0.11891901
000130 ee 35 06 be 1d 26 a7 bc 01 94 de bc 28 f4 89 bd
       -0.1310651 -0.020403916 -0.027170183 -0.06736022
000140 5f 43 55 bd 0d a2 7b bd 9d e7 ec 3c de 33 32 3d
       -0.052066203 -0.06143384 0.028919036 0.043506496
000150 76 98 bd 3d 60 da 17 3c f8 7a ae 3d 6d 05 fb 3c
       0.09257595 0.009268373 0.08519548 0.030642236
000160 e7 23 b7 3d 34 19 87 3d f7 5d 8e 3d 1d d0 47 bd
       0.08942395 0.06596604 0.06951516 -0.048782457
000170 8b 38 85 bc e4 46 72 3d e4 5a c7 bd e3 d2 a6 3d
       -0.016262313 0.059149638 -0.09734133 0.08145692
000180 a3 b2 5a 3d b8 64 b1 bc 7f d9 b2 bd 1a 6c dc bb
       0.053393018 -0.021654472 -0.0873289 -0.006726754
000190 4c 41 0b bd 52 50 aa 3d 72 aa eb bd 30 3b 80 bd
       -0.03399782 0.08316101 -0.11507119 -0.06261289
0001a0 80 00 06 be 97 28 83 3d 27 96 6d bd fc 25 2f 3e
       -0.13086128 0.06404226 -0.058004525 0.17104334
0001b0 79 4e 4a bc 7d 1e 90 3c 78 81 d7 3d 00 ad 17 3d
       -0.012347811 0.017592663 0.10522741 0.03703022
0001c0 8b 71 78 be 61 c9 a8 bd 6d 94 1c 3e fe 2c 8b bd
       -0.24262063 -0.08241535 0.15290995 -0.06795691
0001d0 6d 78 64 bd cc 32 42 3d 8a 1c 49 bd eb 66 80 3d
       -0.05577891 0.047411725 -0.049099483 0.0626963
0001e0 54 d9 b5 3d 8e a8 e9 3d d3 b7 72 bd 75 43 ba bd
       0.08879343 0.114091024 -0.05925734 -0.09094898
0001f0 7e eb 8b 39 70 10 0b 3e 8f ff 8a bd f8 c9 31 3d
       0.000266876 0.13580489 -0.06787025 0.043405503
000200 f5 9a c1 3d 33 b1 d5 3d 01 89 85 3b 86 0e 5c bc
       0.09453384 0.10434189 0.00407517 -0.013431197
000210 93 31 17 be a1 3b 4d 3d b4 03 ba bd fe f1 b3 3c
       -0.14765005 0.050105695 -0.090827376 0.021965977
000220 d3 b9 1a 3e 09 ad 90 3d 51 0c d9 3b 8a d5 03 be
       0.15109949 0.07064254 0.0066237827 -0.12874427
000230 cc 4a 16 3d 56 3e 65 3c 88 24 5c bd d6 6b 93 bc
       0.036692426 0.013991913 -0.053745776 -0.017995756
000240 a0 7f fc 3d 4b e8 f1 bd 3b 78 aa 3d 5e 50 80 bb
       0.1232903 -0.118118845 0.083237134 -0.0039158305
000250 2c 14 c1 bd 29 35 3c 3e a2 f9 e0 3b 32 01 f7 3c
       -0.094276756 0.18379654 0.006865696 0.030151937
000260 d1 3a 30 bc cf f8 a0 bd 86 b5 8a 3c 75 af 4f be
       -0.01075621 -0.078599565 0.01693226 -0.20281775
000270 8d b7 37 be eb fc af bc 41 ef 8b 3d 9f c9 b8 3d
       -0.17941113 -0.021482905 0.068327434 0.09022831
000280 0c 09 0d 3e 58 4e c3 3c e2 96 3f 3e 02 d6 ee bc
       0.13772982 0.023841068 0.18709901 -0.029154781
000290 e7 56 ce 3d e4 a1 21 bd d1 73 91 3d 1b a1 0f be
       0.10075169 -0.03946103 0.07102168 -0.140263
0002a0 c1 0f 24 bd fd 44 22 3d 8e 1a 58 3e e0 44 d9 3d
       -0.040054087 0.039616574 0.2110388 0.1060884
0002b0 86 46 4a bd f3 38 f6 3d 8a ba b2 bc b6 86 77 bd
       -0.049383663 0.12022581 -0.021817464 -0.060431205
0002c0 3b b5 e1 bd 01 2b 96 3d 22 05 5f 3d 97 36 03 3e
       -0.11020895 0.07332421 0.054448254 0.12813793
0002d0 d4 5b 40 3d bf 24 c5 3d ea 53 96 3d 9f 60 b3 bd
       0.046962574 0.096261494 0.07340224 -0.087586634
0002e0 78 67 26 bd f8 15 01 3e 3f 51 a6 3c ab 66 99 3d
       -0.04062602 0.12606037 0.020302413 0.074902855
0002f0 97 a3 81 3d 1f 05 30 bd 73 c4 b5 bd 32 d9 d2 b9
       0.063300304 -0.042973634 -0.0887536 -0.00040216144
000300 f8 27 1f be c1 67 b4 be 9a 85 bc 3d 03 dd e4 bd
       -0.1554259 -0.35235408 0.0920517 -0.11174967
000310 b3 04 c6 3c 75 46 0d 3d 20 2c c3 3d 04 90 0b bd
       0.024172163 0.03449102 0.095299006 -0.03407289
000320 7b ff 71 bd 3c b6 b6 bd 05 c6 3b bc 01 c0 bf bd
       -0.059081536 -0.08921477 -0.011460786 -0.09362794
000330 35 57 49 3d b2 c3 e8 bb 48 34 bc 3d 0e 6e d2 bd
       0.049155433 -0.007103407 0.09189659 -0.102748975
000340 7d 43 b7 bb 4b 1b 87 bc e4 12 32 bd fb 77 c5 3d
       -0.005592762 -0.016492506 -0.043475047 0.09642025
000350 66 da bf bd 92 3f 7b be ce 1c 8b bd e4 a9 01 bd
       -0.09367828 -0.24535969 -0.067926034 -0.03165616
000360 7a 47 53 bd da 81 aa bd a2 1c 30 bd 5c 21 20 be
       -0.051581837 -0.083255485 -0.042996056 -0.15637726
000370 b8 24 97 3d ee 61 29 bb 2b a0 9a 3b 8a 73 da bd
       0.073800504 -0.0025845724 0.0047188005 -0.106665686
000380 01 f2 95 bd da c8 8f 3d 7d 0e 5d 3b 91 2b fc 3d
       -0.07321549 0.07020731 0.003373056 0.12312997
000390 0e ed 44 bb f8 0d da 3d cb 9b 3c 3e 3b 2c fd bd
       -0.0030048522 0.106471956 0.18418805 -0.12361952
0003a0 ae e7 dc bd 3d 32 1e bd 76 c8 2a 3e 95 09 dd bc
       -0.10786377 -0.03862213 0.16678032 -0.026982108
0003b0 4a 79 94 bd c5 3a 63 bc 36 a2 61 be b4 35 67 3e
       -0.072496966 -0.013868992 -0.22034535 0.2257908
0003c0 fc 77 9b bb 77 20 00 3e 2e c0 73 3d 5d c7 7b bd
       -0.004744528 0.12512384 0.05950945 -0.061469425
0003d0 e3 e9 c8 bd 65 69 39 3c ab c4 34 3e de 90 e0 bd
       -0.09810235 0.011316632 0.17653148 -0.10965131
0003e0 2b 28 ce bd 9c 8d 20 3e 1b b9 a4 3d 30 04 90 3a
       -0.10066255 0.1567902 0.080431186 0.0010987576
0003f0 d4 51 9b bd be 9f d8 3d 0c 81 6e 3d 0b c1 d4 bc
       -0.07583967 0.105773434 0.058228537 -0.025970956

network_body._body_endoder.seq_layers.2.bias f4 [128]
000000 00 00 00 00 00 00 00 00 00 00 00 00 00 00 00 00
       0.0 0.0 0.0 0.0
000010 00 00 00 00 00 00 00 00 00 00 00 00 00 00 00 00
       0.0 0.0 0.0 0.0
000020 00 00 00 00 00 00 00 00 00 00 00 00 00 00 00 00
       0.0 0.0 0.0 0.0
000030 00 00 00 00 00 00 00 00 00 00 00 00 00 00 00 00
       0.0 0.0 0.0 0.0
000040 00 00 00 00 00 00 00 00 00 00 00 00 00 00 00 00
       0.0 0.0 0.0 0.0
000050 00 00 00 00 00 00 00 00 00 00 00 00 00 00 00 00
       0.0 0.0 0.0 0.0
000060 00 00 00 00 00 00 00 00 00 00 00 00 00 00 00 00
       0.0 0.0 0.0 0.0
000070 00 00 00 00 00 00 00 00 00 00 00 00 00 00 00 00
       0.0 0.0 0.0 0.0
000080 00 00 00 00 00 00 00 00 00 00 00 00 00 00 00 00
       0.0 0.0 0.0 0.0
000090 00 00 00 00 00 00 00 00 00 00 00 00 00 00 00 00
       0.0 0.0 0.0 0.0
0000a0 00 00 00 00 00 00 00 00 00 00 00 00 00 00 00 00
       0.0 0.0 0.0 0.0
0000b0 00 00 00 00 00 00 00 00 00 00 00 00 00 00 00 00
       0.0 0.0 0.0 0.0
0000c0 00 00 00 00 00 00 00 00 00 00 00 00 00 00 00 00
       0.0 0.0 0.0 0.0
0000d0 00 00 00 00 00 00 00 00 00 00 00 00 00 00 00 00
       0.0 0.0 0.0 0.0
0000e0 00 00 00 00 00 00 00 00 00 00 00 00 00 00 00 00
       0.0 0.0 0.0 0.0
0000f0 00 00 00 00 00 00 00 00 00 00 00 00 00 00 00 00
       0.0 0.0 0.0 0.0
000100 00 00 00 00 00 00 00 00 00 00 00 00 00 00 00 00
       0.0 0.0 0.0 0.0
000110 00 00 00 00 00 00 00 00 00 00 00 00 00 00 00 00
       0.0 0.0 0.0 0.0
000120 00 00 00 00 00 00 00 00 00 00 00 00 00 00 00 00
       0.0 0.0 0.0 0.0
000130 00 00 00 00 00 00 00 00 00 00 00 00 00 00 00 00
       0.0 0.0 0.0 0.0
000140 00 00 00 00 00 00 00 00 00 00 00 00 00 00 00 00
       0.0 0.0 0.0 0.0
000150 00 00 00 00 00 00 00 00 00 00 00 00 00 00 00 00
       0.0 0.0 0.0 0.0
000160 00 00 00 00 00 00 00 00 00 00 00 00 00 00 00 00
       0.0 0.0 0.0 0.0
000170 00 00 00 00 00 00 00 00 00 00 00 00 00 00 00 00
       0.0 0.0 0.0 0.0
000180 00 00 00 00 00 00 00 00 00 00 00 00 00 00 00 00
       0.0 0.0 0.0 0.0
000190 00 00 00 00 00 00 00 00 00 00 00 00 00 00 00 00
       0.0 0.0 0.0 0.0
0001a0 00 00 00 00 00 00 00 00 00 00 00 00 00 00 00 00
       0.0 0.0 0.0 0.0
0001b0 00 00 00 00 00 00 00 00 00 00 00 00 00 00 00 00
       0.0 0.0 0.0 0.0
0001c0 00 00 00 00 00 00 00 00 00 00 00 00 00 00 00 00
       0.0 0.0 0.0 0.0
0001d0 00 00 00 00 00 00 00 00 00 00 00 00 00 00 00 00
       0.0 0.0 0.0 0.0
0001e0 00 00 00 00 00 00 00 00 00 00 00 00 00 00 00 00
       0.0 0.0 0.0 0.0
0001f0 00 00 00 00 00 00 00 00 00 00 00 00 00 00 00 00
       0.0 0.0 0.0 0.0

value_heads.value_heads.extrinsic.weight f4 [1, 128]
000000 d1 cc 27 be e9 2d d0 bd 68 2d 68 3d 8c 57 3a be
       -0.16386725 -0.10165007 0.056683928 -0.18197459
000010 d3 70 1d be 5a 6b 93 bd 88 41 cb 3d b0 4f 67 bd
       -0.1537507 -0.0719821 0.099246085 -0.05647248
000020 a0 2e e4 3c a0 4f 8c bd d6 dc 3b 3e 73 8d f0 bd
       0.027854264 -0.06851125 0.18345961 -0.11745729
000030 a9 01 42 be 00 29 4f 3b 7e a1 00 3e e0 7e 77 bc
       -0.18945946 0.0031610131 0.12561604 -0.015105933
000040 c0 cf f0 bb 90 10 0d bc c4 b5 ab 3d 8e 61 2f 3e
       -0.0073489845 -0.008609906 0.083842784 0.17127058
000050 70 ec c8 3c 40 df 46 3d 58 6b 74 bd a8 be 0e 3e
       0.024526805 0.04855275 -0.059672683 0.13939917
000060 90 b4 9a 3c 54 12 9d 3d 16 f0 90 bd be 77 ce bd
       0.018884927 0.076695114 -0.07077043 -0.10081433
000070 b8 4a 3b 3d a0 13 ff bb a5 01 54 be 3c 09 55 bd
       0.045725554 -0.007784322 -0.20703752 -0.05201076
000080 98 f3 22 be 40 c2 3b bb b9 5a d1 bd 45 39 20 be
       -0.15913236 -0.0028649718 -0.10222382 -0.15646847
000090 1e 5f 3d 3e 30 f8 62 3c 18 fe bd 3d 86 d6 33 be
       0.18493316 0.013853118 0.0927698 -0.17562303
0000a0 cc 5d a4 3d 40 cb eb bb 40 f8 29 3c 27 db 4b be
       0.08025703 -0.00719586 0.010374129 -0.19907819
0000b0 c2 d6 1c be 2d bc 26 be b4 7b 39 3e 2c f0 a8 3d
       -0.15316299 -0.16282721 0.18113595 0.08248934
0000c0 c8 56 55 3d b8 35 f4 3c 7d dd 36 be 70 20 56 3c
       0.052084714 0.029810771 -0.17857929 0.013069257
0000d0 58 de 46 3d 80 12 3f 3e a8 8d 76 3d ec 49 af 3d
       0.048551887 0.18659401 0.060193688 0.08559021
0000e0 0c 37 0b be fe 44 29 be da 75 1c be 20 d7 e4 bb
       -0.13595217 -0.16530225 -0.15279332 -0.0069836527
0000f0 74 6c 2c bd 20 82 4f bd 38 9e b0 3d a5 59 2e be
       -0.042095616 -0.050661206 0.08623928 -0.17026384
000100 c8 44 15 3e 2e ea 34 3e b5 9b f4 bd 87 f3 36 be
       0.14577019 0.17667457 -0.11943761 -0.17866336
000110 eb e1 27 be 44 e6 af bd c4 26 38 be ea bf 2c 3e
       -0.16394775 -0.085888416 -0.17983538 0.16870084
000120 18 80 60 3d d7 7a 02 be 28 2a f7 bc 20 54 0e bc
       0.05480966 -0.12742172 -0.030171469 -0.008687049
000130 64 99 cf 3d 00 3b d3 ba a8 83 c6 3d 32 5c 38 3e
       0.10136679 -0.0016115606 0.0969308 0.1800392
000140 ec cc 22 3e 30 c5 fe 3d e8 0d d1 bc 20 89 dd bd
       0.15898484 0.12439954 -0.025519326 -0.1081717
000150 00 61 de ba 48 1e f0 3d f0 ad 16 bd 36 53 02 be
       -0.0016966164 0.11724526 -0.036786973 -0.12727055
000160 10 33 d3 3d 80 fa 8f 3d 92 b3 3b 3e 53 4d 10 be
       0.10312474 0.07030201 0.1833022 -0.14091997
000170 ae d7 30 3e d2 f1 48 be 3c a4 15 be 68 ad 29 3d
       0.17269775 -0.19623497 -0.14613432 0.04142514
000180 71 d4 c0 bd c0 42 3c 3e ec c7 92 3d 30 98 3a 3e
       -0.0941552 0.18384838 0.07167038 0.18222117
000190 b8 7e 09 be 28 65 2c be 38 e3 97 bd 28 64 30 3d
       -0.13427246 -0.16835463 -0.074163854 0.043064266
0001a0 fc 96 1c be 60 b7 78 bc 78 ed 0d 3e b8 b5 32 be
       -0.15291971 -0.015180439 0.13860118 -0.17452133
0001b0 bc af 6e bd 80 aa 8f 3a 4a 56 d9 bd fe 3d aa bd
       -0.058273062 0.0010960847 -0.106121615 -0.08312605
0001c0 52 11 f6 bd 8c ec 44 3e 20 57 e2 3d 40 ea 40 be
       -0.12015022 0.1923086 0.11051774 -0.1883936
0001d0 ce 06 3a 3e 3c 05 b5 3d ec 63 f0 bd c1 e0 3b be
       0.18166658 0.08838889 -0.117378086 -0.18347456
0001e0 5c d3 f6 3d 90 22 80 bc a0 7b 5a bd 40 d9 07 bb
       0.12052032 -0.01564148 -0.053340554 -0.0020728856
0001f0 60 63 b6 3d 50 e9 0b bc 3b ea 29 be 28 8b db bc
       0.08905673 -0.008539513 -0.16593258 -0.026799753
