results/ia6/PlayerScript/PlayerScript-8627.pt (torch, 183095 bytes, 12 tensors)

network_body._body_endoder.seq_layers.0.weight f4 [128, 39]
0	0x3dbc3458	0.09189671
1	0x3e9efe1b	0.31053242
2	0x3d06843a	0.032840945
3	0xbd9eccdc	-0.077539176
4	0x3e2faaca	0.17154995
5	0x3d3c01e1	0.04590023
6	0xbd799bc1	-0.060939554
7	0x3dd08171	0.10180939
8	0xbe52313e	-0.20526597
9	0xbe0cc0cb	-0.1374542
10	0x3e68f920	0.22751284
11	0xbe25adaa	-0.16179529
12	0xbd298119	-0.041382883
13	0xbe4a71fc	-0.19770044
14	0xbe210f24	-0.15728432
15	0xbe5a3842	-0.21310523
16	0xbdffae47	-0.12484413
17	0x3e40d520	0.188313
18	0x3d8dd66e	0.06925665
19	0x3d8535a7	0.06504374
20	0xbdad2405	-0.08454136
21	0x3ed572c0	0.4168911
22	0xbc4450bd	-0.01198214
23	0xbec4ff47	-0.3847601
24	0x3e39ae0c	0.181328
25	0x3e739af9	0.23789586
26	0xbd8b0297	-0.06787603
27	0x3c92b516	0.017908614
28	0x3db4e7a2	0.08833243
29	0x3e64d7fa	0.22348014
30	0x3e187f6e	0.1489236
31	0x3e3c7387	0.18403445
32	0xbe172f7c	-0.14764208
33	0xbedb0b27	-0.42781946
34	0xbc665a44	-0.014059607
35	0x3d55ace9	0.052166853
36	0xbdc02970	-0.093829036
37	0xbe6bf7fe	-0.2304382
38	0xbdfff9e3	-0.12498834
39	0x3d2ad435	0.041706283
40	0xbde4e3d1	-0.11176265
41	0x3d87ff9d	0.06640551
42	0xbe478eb7	-0.19488035
43	0xbe073de0	-0.13207197
44	0xbcbc7e5a	-0.023009468
45	0x3cc9206f	0.024551598
46	0x3e90090d	0.28131905
47	0xbc97f148	-0.018547669
48	0xbe5e4974	-0.21707708
49	0xbdc54870	-0.09632957
50	0xbe75556b	-0.23958366
51	0xbe3727e1	-0.17886306
52	0xbaa642cb	-0.0012684701
53	0xbdcc3121	-0.09970308
54	0x3d9504d6	0.07276313
55	0xbd9f5c40	-0.07781267
56	0x3e04768f	0.12935852
57	0x3e119508	0.14217007
58	0x3e732e58	0.23748147
59	0xbddcd6ba	-0.10783143
60	0x3e902cda	0.2815922
61	0x3ccee457	0.025255365
62	0x3e054d2d	0.13017721
63	0xbd1259c3	-0.035730135
64	0x3da501fc	0.08057019
65	0xbe3a2133	-0.18176727
66	0xbe6f0ab6	-0.2334393
67	0x3ce4db01	0.02793646
68	0x3d71f12b	0.059067886
69	0xbd60b453	-0.05485947
70	0x3de4860d	0.11158381
71	0x3e1d93fc	0.15388483
72	0x3d5126c7	0.05106237
73	0x3e560d85	0.20903595
74	0x3e3e748f	0.18599151
75	0xbe36404b	-0.17797963
76	0x3dafd8f7	0.08586305
77	0xbeb06f4b	-0.3445991
78	0x3e7d87c7	0.24758826
79	0xbe44e0a8	-0.19226325
80	0xbe962404	-0.29324353
81	0x3d3aa49c	0.04556714
82	0xbe2f2d60	-0.17107153
83	0xbe01b2d3	-0.12665872
84	0x3e3979c0	0.1811285
85	0xbe4e33ca	-0.20136943
86	0xbcb40e9d	-0.021979624
87	0x3e2048be	0.15652749
88	0xbc822fa4	-0.015891857
89	0x3c90b622	0.017664973
90	0xbe94c08c	-0.29053152
91	0xbe360a2e	-0.1777732
92	0x3dc1a502	0.09455301
93	0xbd874277	-0.06604474
94	0x3e7cafd3	0.24676447
95	0xbe125604	-0.14290625
96	0xbe284a36	-0.16434559
97	0xbd26dc88	-0.04073766
98	0xbd8eb433	-0.06967964
99	0xbe2c8aea	-0.16849867
100	0xbdb234ff	-0.087015145
101	0xbc9dace8	-0.019247487
102	0xbe10f42d	-0.14155646
103	0x3d287bef	0.041133817
104	0xbe18ec24	-0.1493383
105	0xbe463489	-0.19355978
106	0xbe547386	-0.20747194
107	0xbd46795b	-0.048455577
108	0xbc8da42e	-0.017290201
109	0x3d182b0c	0.037150428
110	0x3e48eb94	0.19621116
111	0xbd865b0c	-0.065603346
112	0x3e06661c	0.13124889
113	0xbd6ef6e8	-0.058340937
114	0x3e1b37d9	0.15158023
115	0x3d62d25e	0.055376403
116	0x3e9d4841	0.30719188
117	0x3e8d6e95	0.2762343
118	0xbe85a137	-0.2609956
119	0x3cad7de6	0.021178197
120	0xbb1a481e	-0.002354152
121	0x3d26a57f	0.040685173
122	0x3d13c386	0.036075138
123	0x3d0796d6	0.033102833
124	0xbe3e1d3c	-0.1856584
125	0xbe314424	-0.1731115
126	0xbeb7ea5e	-0.35920995
127	0xbd881686	-0.06644921
128	0xbea5fd96	-0.32420033
129	0x3e14037f	0.14454459
130	0xbd5007a4	-0.050788537
131	0xbdc7398d	-0.09727774
132	0x3e16e943	0.1473742
133	0xbddf6bbf	-0.10909223
134	0xbc16f316	-0.00921323
135	0xbe816f66	-0.25280303
136	0x3da7956f	0.08182799
137	0xbcf82742	-0.030292157
138	0xbaab187a	-0.0013053559
139	0x3c29911f	0.010349541
140	0xbe2bcf9d	-0.16778417
141	0xbe36c4f8	-0.17848575
142	0x3dddc1d0	0.108279824
143	0x3d72b051	0.05925018
144	0xbd880e90	-0.066434026
145	0x3d2ac803	0.041694652
146	0x3d2bce21	0.041944627
147	0x3a67089f	0.00088132353
148	0x3db7c0ae	0.089722976
149	0xbe480ed3	-0.19536905
150	0x3de5588c	0.111985296
151	0xbcac3775	-0.021022538
152	0xbe31d330	-0.17365718
153	0x3e3fe3be	0.1873922
154	0x3da8b8f9	0.08238406
155	0xbbbc158a	-0.0057398723
156	0xbe6a323d	-0.22870727
157	0xbe6b637e	-0.22987172
158	0x3dbc0be4	0.091819555
159	0x3eed72fb	0.46376786
160	0xbd47845a	-0.048710205
161	0x3e0b2778	0.13589275
162	0x3c125368	0.008931018
163	0xbe256777	-0.1615275
164	0xbda4bae9	-0.08043463
165	0xbdc662da	-0.09686823
166	0xbd5c6177	-0.053803887
167	0x3d0a4c9d	0.03376447
168	0xbe3d5da1	-0.18492748
169	0xbd92fa54	-0.071766526
170	0x3e632445	0.22181804
171	0xbe4bf1cf	-0.19916461
172	0xbcf7a605	-0.030230531
173	0xbdef8937	-0.116960935
174	0x3ca7cbf9	0.020483004
175	0xbe713524	-0.23555428
176	0xbdf67f3a	-0.12035985
177	0xbddebcbd	-0.10875843
178	0x3daf4b51	0.08559287
179	0x3ea11552	0.3146158
180	0x3d52ce65	0.051466364
181	0x3e969678	0.29411674
182	0x3e9933ae	0.2992224
183	0xbd0564a8	-0.032566696
184	0xbe1df50c	-0.15425509
185	0x3e578332	0.21046141
186	0xbd8778f7	-0.06614869
187	0x3db3ff31	0.08788908
188	0x3df077cf	0.11741602
189	0x3e80ff1f	0.25194642
190	0x3bf9d3f4	0.0076241437
191	0xbd043d50	-0.032285035
192	0xbd200fdf	-0.039077636
193	0x3e3c07e0	0.18362379
194	0x3d115fa3	0.035491597
195	0xbe1a82d8	-0.15088975
196	0xbdf14755	-0.11781184
197	0x3d074f36	0.033034526
198	0xbdb4227b	-0.08795639
199	0x3de00754	0.10938898
200	0x3e428d7c	0.18999285
201	0x3e06ea0f	0.13175224
202	0xbe148e5f	-0.14507435
203	0x3c657f8d	0.014007461
204	0x3e70e134	0.23523408
205	0x3e44abd5	0.19206174
206	0x3d5daecb	0.054121774
207	0x3e2c2ada	0.16813222
208	0xbc04ab28	-0.008097447
209	0xbc970b0b	-0.018437883
210	0x3e007817	0.1254581
211	0x3dd03910	0.10167134
212	0xbdc38075	-0.095459856
213	0xbd0d2dd0	-0.03446752
214	0x3dd66a10	0.104694486
215	0xbe3666ae	-0.17812607
216	0xbe1da23b	-0.15393917
217	0xbd408f6e	-0.047011785
218	0x3d993eac	0.07482657
219	0x3dcd0c2b	0.100120865
220	0x3cd6c53d	0.026217097
221	0xbd7c6ba2	-0.061626084
222	0x3c315453	0.010823327
223	0x3d280237	0.041017737
224	0x3d0fab5f	0.03507554
225	0xbe7dd45e	-0.24788043
226	0x3e74f353	0.23920946
227	0xbeaa1a7c	-0.3322333
228	0x3e798f61	0.24371101
229	0x3d01cf58	0.03169188
230	0x3ded93e3	0.11600473
231	0xbdf1c906	-0.1180592
232	0x3eea5b95	0.45772997
233	0x3c3c6f4a	0.011501143
234	0x3c9f6546	0.01945747
235	0xbdd2fb82	-0.103018776
236	0xbd50f5db	-0.051015716
237	0x3d5b90fa	0.053605057
238	0xbd0db5dd	-0.034597266
239	0x3cbcce44	0.023047574
240	0xbe159ce3	-0.14610629
241	0xbe37f0e1	-0.17962982
242	0x3e9a77f2	0.30169636
243	0xbdc4191c	-0.09575102
244	0xbe7d4373	-0.24732761
245	0x3d0055ef	0.031331953
246	0x3c95c38d	0.018281722
247	0xbdfe4f35	-0.12417451
248	0x3cfa151f	0.03052765
249	0x3dc592ad	0.09647117
250	0xbea5d1a8	-0.32386518
251	0x3e0faa6a	0.14029852
252	0x3a7c295e	0.00096192013
253	0xbe027c35	-0.12742694
254	0xbdaade5e	-0.083431944
255	0xbee56956	-0.44806927

network_body._body_endoder.seq_layers.0.bias f4 [128]
0	0x00000000	0.0
1	0x00000000	0.0
2	0x00000000	0.0
3	0x00000000	0.0
4	0x00000000	0.0
5	0x00000000	0.0
6	0x00000000	0.0
7	0x00000000	0.0
8	0x00000000	0.0
9	0x00000000	0.0
10	0x00000000	0.0
11	0x00000000	0.0
12	0x00000000	0.0
13	0x00000000	0.0
14	0x00000000	0.0
15	0x00000000	0.0
16	0x00000000	0.0
17	0x00000000	0.0
18	0x00000000	0.0
19	0x00000000	0.0
20	0x00000000	0.0
21	0x00000000	0.0
22	0x00000000	0.0
23	0x00000000	0.0
24	0x00000000	0.0
25	0x00000000	0.0
26	0x00000000	0.0
27	0x00000000	0.0
28	0x00000000	0.0
29	0x00000000	0.0
30	0x00000000	0.0
31	0x00000000	0.0
32	0x00000000	0.0
33	0x00000000	0.0
34	0x00000000	0.0
35	0x00000000	0.0
36	0x00000000	0.0
37	0x00000000	0.0
38	0x00000000	0.0
39	0x00000000	0.0
40	0x00000000	0.0
41	0x00000000	0.0
42	0x00000000	0.0
43	0x00000000	0.0
44	0x00000000	0.0
45	0x00000000	0.0
46	0x00000000	0.0
47	0x00000000	0.0
48	0x00000000	0.0
49	0x00000000	0.0
50	0x00000000	0.0
51	0x00000000	0.0
52	0x00000000	0.0
53	0x00000000	0.0
54	0x00000000	0.0
55	0x00000000	0.0
56	0x00000000	0.0
57	0x00000000	0.0
58	0x00000000	0.0
59	0x00000000	0.0
60	0x00000000	0.0
61	0x00000000	0.0
62	0x00000000	0.0
63	0x00000000	0.0
64	0x00000000	0.0
65	0x00000000	0.0
66	0x00000000	0.0
67	0x00000000	0.0
68	0x00000000	0.0
69	0x00000000	0.0
70	0x00000000	0.0
71	0x00000000	0.0
72	0x00000000	0.0
73	0x00000000	0.0
74	0x00000000	0.0
75	0x00000000	0.0
76	0x00000000	0.0
77	0x00000000	0.0
78	0x00000000	0.0
79	0x00000000	0.0
80	0x00000000	0.0
81	0x00000000	0.0
82	0x00000000	0.0
83	0x00000000	0.0
84	0x00000000	0.0
85	0x00000000	0.0
86	0x00000000	0.0
87	0x00000000	0.0
88	0x00000000	0.0
89	0x00000000	0.0
90	0x00000000	0.0
91	0x00000000	0.0
92	0x00000000	0.0
93	0x00000000	0.0
94	0x00000000	0.0
95	0x00000000	0.0
96	0x00000000	0.0
97	0x00000000	0.0
98	0x00000000	0.0
99	0x00000000	0.0
100	0x00000000	0.0
101	0x00000000	0.0
102	0x00000000	0.0
103	0x00000000	0.0
104	0x00000000	0.0
105	0x00000000	0.0
106	0x00000000	0.0
107	0x00000000	0.0
108	0x00000000	0.0
109	0x00000000	0.0
110	0x00000000	0.0
111	0x00000000	0.0
112	0x00000000	0.0
113	0x00000000	0.0
114	0x00000000	0.0
115	0x00000000	0.0
116	0x00000000	0.0
117	0x00000000	0.0
118	0x00000000	0.0
119	0x00000000	0.0
120	0x00000000	0.0
121	0x00000000	0.0
122	0x00000000	0.0
123	0x00000000	0.0
124	0x00000000	0.0
125	0x00000000	0.0
126	0x00000000	0.0
127	0x00000000	0.0

network_body._body_endoder.seq_layers.2.weight f4 [128, 128]
0	0x3d35eab3	0.04441328
1	0x3d020f71	0.031753007
2	0xbcf3dee6	-0.029769372
3	0x3e279fd6	0.16369566
4	0xbd8fae37	-0.07015651
5	0xbc69d768	-0.014272548
6	0xbdf6a74e	-0.120436296
7	0xbd171ece	-0.036894612
8	0x3d2488e4	0.04016961
9	0x3da5dcfb	0.08098789
10	0xbc593105	-0.013256316
11	0x3dd7e21d	0.105411746
12	0x3d3e2023	0.046417367
13	0x3d8e30e7	0.06942921
14	0xbe469a00	-0.19394684
15	0x3d5d8527	0.054082062
16	0x3e767df0	0.24071479
17	0x3d288f01	0.041152004
18	0xbd9d5999	-0.07683105
19	0xbd5134ee	-0.05107587
20	0x3df5a59e	0.119944796
21	0x3dd76bd1	0.10518611
22	0x3c696508	0.014245279
23	0xbce32fff	-0.027732847
24	0xbe00cdc1	-0.12578489
25	0x3db361e9	0.08758909
26	0x3d0c4f5d	0.034255374
27	0xbc8fec42	-0.017568711
28	0xbd05bb1e	-0.032649152
29	0x3c59d7d5	0.013296087
30	0xbd592263	-0.05301131
31	0xbd430631	-0.047613326
32	0x3ddbde64	0.10735777
33	0xbe0ad877	-0.13559137
34	0xbd5e958f	-0.05434185
35	0xbdb038e5	-0.08604602
36	0xbdb8e13e	-0.090273365
37	0xbc5f7804	-0.013639454
38	0xb9e700b6	-0.00044060283
39	0x3af612ec	0.001877395
40	0x3d0e79d1	0.034784142
41	0xbdcdc570	-0.10047424
42	0xbd9119b4	-0.070849806
43	0xbe076dac	-0.1322543
44	0xbdc08e08	-0.0940209
45	0x3d26abc4	0.040691152
46	0xbd04c7e6	-0.0324172
47	0x3e11dfd2	0.14245537
48	0x3d202b1a	0.039103605
49	0x3d6b40e1	0.05743492
50	0xbe1a9db0	-0.15099216
51	0xbdc069b1	-0.09395159
52	0x3d6ad43c	0.05733131
53	0xbcb2b746	-0.021815907
54	0xbc247ba1	-0.010039241
55	0xbdc1de0a	-0.09466179
56	0x3d85f2b8	0.065404356
57	0xbc89854f	-0.0167872
58	0xbdb10ca0	-0.08644986
59	0xbe102612	-0.14077023
60	0x3c531c8f	0.012885227
61	0x3dbeb471	0.0931176
62	0x3d4c000a	0.049804725
63	0x3dbad0d9	0.09121866
64	0xbe0c2c7e	-0.13688847
65	0x3d102e0a	0.035200156
66	0xbd0bdd53	-0.034146618
67	0xbb2c1ebd	-0.0026263439
68	0xbc4f5157	-0.01265367
69	0xbe1b41fb	-0.15161888
70	0x3a3789ad	0.0007001411
71	0xbde5d221	-0.112217195
72	0xbe1b2aed	-0.15153094
73	0xbdebbc93	-0.11510577
74	0xbdecdccf	-0.115655534
75	0x3c6f99d4	0.014624078
76	0x3d035491	0.03206307
77	0xbc074679	-0.008256548
78	0x3cbc4d4c	0.022986077
79	0xbd8d0503	-0.068857215
80	0xbcc814be	-0.024423953
81	0x3e1ffb7d	0.15623279
82	0x3cb52bdb	0.022115638
83	0xbd40c40e	-0.047061972
84	0x3e3785f5	0.17922194
85	0xbd72661e	-0.059179418
86	0xbb368a1b	-0.0027853313
87	0x3d0d3d99	0.034482572
88	0xbbde9414	-0.0067925546
89	0x3d23d596	0.039998613
90	0x3d9ebb39	0.07750554
91	0xbc2a4d68	-0.010394432
92	0x3d540cf4	0.051770166
93	0xbcfdc5fa	-0.030978192
94	0xbd569fc1	-0.052398447
95	0xbc1501dd	-0.0090946825
96	0x3debee08	0.1152001
97	0xbe2ab430	-0.16670299
98	0x3d154321	0.036440972
99	0x3de8ea56	0.11372821
100	0xbd33d7fc	-0.04390715
101	0xbcb7d01b	-0.0224381
102	0x3dd81a2f	0.10551869
103	0xbd380597	-0.044927206
104	0x3e209c01	0.15684511
105	0x3d28eae7	0.041239645
106	0xbd30ed73	-0.0431952
107	0xbc8cfbac	-0.01720985
108	0xbc9af08e	-0.018913534
109	0x3e4dd8d7	0.20102249
110	0xbe01aba7	-0.12663136
111	0x3c8ac91e	0.016941603
112	0x3cf93249	0.030419486
113	0x3e12a300	0.14319992
114	0xbbd17e29	-0.0063932133
115	0x3d6d36ec	0.057913706
116	0xbdefeff5	-0.1171569
117	0x3c9fbabd	0.019498223
118	0xbd24de3e	-0.04025101
119	0xbba3b08a	-0.0049954103
120	0xbdba40f5	-0.09094421
121	0x3cc0d562	0.023539249
122	0x3dec7457	0.115456276
123	0xbc498b33	-0.012301254
124	0x3d542482	0.05179263
125	0xbdbea626	-0.09309034
126	0x3d33813c	0.04382442
127	0xbce4fc8b	-0.027952453
128	0x3dd13073	0.10214319
129	0x3d103d4c	0.035214707
130	0x3db064fc	0.08613011
131	0xbd7a2dc4	-0.0610788
132	0x3bfe8857	0.007767718
133	0xbe6404aa	-0.22267404
134	0x3d8fb789	0.070174284
135	0x3e016f5d	0.12640138
136	0x3dddf687	0.10838037
137	0xbcd7b6ad	-0.026332224
138	0x3dcca500	0.09992409
139	0xbd7e7759	-0.062125538
140	0x3c5eb158	0.013592087
141	0xbcccb2cc	-0.0249876
142	0x3d963baf	0.073356025
143	0x3d0bff9a	0.034179308
144	0xbd8028e3	-0.062577985
145	0xbdd43b98	-0.10362929
146	0xbd82e29b	-0.06390878
147	0xbd67386c	-0.056450292
148	0xbd937761	-0.07200504
149	0x3d75ff39	0.060057852
150	0xbd9e9736	-0.07743685
151	0xbe316bdd	-0.17326303
152	0xbd416b98	-0.04722175
153	0xbd4dd50d	-0.05025201
154	0x3db6d32c	0.089269966
155	0xbc00644a	-0.007836411
156	0x3e0cc968	0.13748705
157	0xbdae403f	-0.08508348
158	0x3bc22564	0.0059248675
159	0xbd9b5cab	-0.075860344
160	0xbdf4cc7a	-0.11953063
161	0xbb9f1095	-0.0048542717
162	0xbe09de07	-0.13463603
163	0xbbb964ff	-0.0056577916
164	0x3d98b8cf	0.074571244
165	0x3dd8d98e	0.1058837
166	0xbdff0911	-0.12452901
167	0xbdb87d37	-0.09008258
168	0x3d972c84	0.073815376
169	0x3e264dcd	0.16240616
170	0xbd8cf1e0	-0.068820715
171	0xbd93f2cf	-0.072240464
172	0xbe228e56	-0.1587461
173	0xbcea78d6	-0.028622072
174	0xbddca178	-0.10772985
175	0x3d79c442	0.06097818
176	0x3b0e5299	0.0021716713
177	0x3b902ec5	0.0044001066
178	0xbdc34517	-0.09534662
179	0xbde9287b	-0.11384674
180	0x3d8c7790	0.06858742
181	0xbdf8d31e	-0.121496424
182	0xbce5f030	-0.028068632
183	0x3e20ac58	0.15690744
184	0xbd8a6470	-0.06757438
185	0xbe05e960	-0.13077307
186	0xbd9e2d41	-0.07723475
187	0xbd4177a3	-0.047233235
188	0xbd2b6bae	-0.04185074
189	0x38f11664	0.00011495946
190	0x3a2adf90	0.0006518299
191	0x3dada75b	0.08479186
192	0x394a6e91	0.0001930541
193	0xbd92dbe7	-0.07170849
194	0x3e4bdcaf	0.19908403
195	0x3cc3db4a	0.023908276
196	0xbd16a86c	-0.036781713
197	0xbcac8fff	-0.021064756
198	0x3d4e2fa3	0.0503384
199	0x3dc531d8	0.096286476
200	0x3df27c8a	0.1184016
201	0x3d96d882	0.07365514
202	0x3d544cb5	0.051830966
203	0xbd2aec33	-0.041729163
204	0xbc9492c0	-0.018136382
205	0xbc4271f1	-0.011867986
206	0x3d2be452	0.04196579
207	0x3d0f5008	0.034988433
208	0x3e0b99dc	0.13632911
209	0xbc1b99c0	-0.009497106
210	0x3ca4181c	0.020031027
211	0x3d9b092c	0.07570109
212	0xbc969370	-0.01838085
213	0x3de4230f	0.111394994
214	0x3d9cce15	0.076564945
215	0xbc8c4da7	-0.017126871
216	0x3dad1477	0.08451169
217	0x3e47667c	0.19472688
218	0xbd239773	-0.039939355
219	0x3dde6d41	0.10860682
220	0xbc95e385	-0.018296966
221	0x3dd09149	0.10183961
222	0x3dbf4024	0.09338406
223	0x3d283a62	0.041071303
224	0xbcbb7b2a	-0.022885878
225	0xbb590cb8	-0.0033119153
226	0x3d604cdf	0.05476081
227	0xbd129193	-0.03578336
228	0x3dd0feea	0.10204871
229	0x3b12626b	0.0022336494
230	0x3c9793e5	0.018503139
231	0xbe180811	-0.14846827
232	0xbd18e5bf	-0.037328478
233	0xbdb48ad4	-0.08815542
234	0xbdb5a515	-0.088693775
235	0xbda43769	-0.08018381
236	0x3b9c533b	0.004770664
237	0xbd3f994c	-0.046777055
238	0xbdae2484	-0.085030586
239	0xbcf7f80a	-0.030269641
240	0x3d8ff12a	0.0702842
241	0xbc6101a3	-0.0137333
242	0x3cc435db	0.023951462
243	0x3d40f4c4	0.047108427
244	0x3ca3cbee	0.019994702
245	0x3d119951	0.035546605
246	0xbcd8e8e7	-0.026478244
247	0xbd9db4ae	-0.077004775
248	0x3df58af1	0.119893916
249	0xbdda805c	-0.10669014
250	0xbdec0fdc	-0.115264624
251	0x3c93eaab	0.018056234
252	0x3da57d24	0.08080509
253	0xbe23d469	-0.15998997
254	0x3b827194	0.0039808247
255	0xbacd39a8	-0.0015657442

network_body._body_endoder.seq_layers.2.bias f4 [128]
0	0x00000000	0.0
1	0x00000000	0.0
2	0x00000000	0.0
3	0x00000000	0.0
4	0x00000000	0.0
5	0x00000000	0.0
6	0x00000000	0.0
7	0x00000000	0.0
8	0x00000000	0.0
9	0x00000000	0.0
10	0x00000000	0.0
11	0x00000000	0.0
12	0x00000000	0.0
13	0x00000000	0.0
14	0x00000000	0.0
15	0x00000000	0.0
16	0x00000000	0.0
17	0x00000000	0.0
18	0x00000000	0.0
19	0x00000000	0.0
20	0x00000000	0.0
21	0x00000000	0.0
22	0x00000000	0.0
23	0x00000000	0.0
24	0x00000000	0.0
25	0x00000000	0.0
26	0x00000000	0.0
27	0x00000000	0.0
28	0x00000000	0.0
29	0x00000000	0.0
30	0x00000000	0.0
31	0x00000000	0.0
32	0x00000000	0.0
33	0x00000000	0.0
34	0x00000000	0.0
35	0x00000000	0.0
36	0x00000000	0.0
37	0x00000000	0.0
38	0x00000000	0.0
39	0x00000000	0.0
40	0x00000000	0.0
41	0x00000000	0.0
42	0x00000000	0.0
43	0x00000000	0.0
44	0x00000000	0.0
45	0x00000000	0.0
46	0x00000000	0.0
47	0x00000000	0.0
48	0x00000000	0.0
49	0x00000000	0.0
50	0x00000000	0.0
51	0x00000000	0.0
52	0x00000000	0.0
53	0x00000000	0.0
54	0x00000000	0.0
55	0x00000000	0.0
56	0x00000000	0.0
57	0x00000000	0.0
58	0x00000000	0.0
59	0x00000000	0.0
60	0x00000000	0.0
61	0x00000000	0.0
62	0x00000000	0.0
63	0x00000000	0.0
64	0x00000000	0.0
65	0x00000000	0.0
66	0x00000000	0.0
67	0x00000000	0.0
68	0x00000000	0.0
69	0x00000000	0.0
70	0x00000000	0.0
71	0x00000000	0.0
72	0x00000000	0.0
73	0x00000000	0.0
74	0x00000000	0.0
75	0x00000000	0.0
76	0x00000000	0.0
77	0x00000000	0.0
78	0x00000000	0.0
79	0x00000000	0.0
80	0x00000000	0.0
81	0x00000000	0.0
82	0x00000000	0.0
83	0x00000000	0.0
84	0x00000000	0.0
85	0x00000000	0.0
86	0x00000000	0.0
87	0x00000000	0.0
88	0x00000000	0.0
89	0x00000000	0.0
90	0x00000000	0.0
91	0x00000000	0.0
92	0x00000000	0.0
93	0x00000000	0.0
94	0x00000000	0.0
95	0x00000000	0.0
96	0x00000000	0.0
97	0x00000000	0.0
98	0x00000000	0.0
99	0x00000000	0.0
100	0x00000000	0.0
101	0x00000000	0.0
102	0x00000000	0.0
103	0x00000000	0.0
104	0x00000000	0.0
105	0x00000000	0.0
106	0x00000000	0.0
107	0x00000000	0.0
108	0x00000000	0.0
109	0x00000000	0.0
110	0x00000000	0.0
111	0x00000000	0.0
112	0x00000000	0.0
113	0x00000000	0.0
114	0x00000000	0.0
115	0x00000000	0.0
116	0x00000000	0.0
117	0x00000000	0.0
118	0x00000000	0.0
119	0x00000000	0.0
120	0x00000000	0.0
121	0x00000000	0.0
122	0x00000000	0.0
123	0x00000000	0.0
124	0x00000000	0.0
125	0x00000000	0.0
126	0x00000000	0.0
127	0x00000000	0.0

action_model._continuous_distribution.log_sigma f4 [1, 2]
0	0x00000000	0.0
1	0x00000000	0.0

action_model._continuous_distribution.mu.weight f4 [2, 128]
0	0x3c300408	0.010743149
1	0x3bdca74a	0.0067338096
2	0x3c8181ea	0.015809018
3	0x3bedbead	0.0072553963
4	0x3beaf162	0.0071698884
5	0xba4bb99e	-0.00077714946
6	0xbc234629	-0.009965458
7	0x3c0ec95b	0.008714999
8	0xba9817fe	-0.001160383
9	0x3c904002	0.017608646
10	0x3c9ccf0f	0.019141702
11	0xbc89b840	-0.01681149
12	0x3c25879a	0.010103131
13	0xbba0aaa7	-0.004903156
14	0x3b301b8d	0.002687189
15	0x3c915556	0.017740887
16	0x3cff3a02	0.03115559
17	0xbc471347	-0.012150592
18	0x3c915783	0.017741924
19	0xba846c7f	-0.0010103135
20	0xbb6938fa	-0.003558694
21	0xbc555665	-0.013021086
22	0xbb9b1442	-0.0047326395
23	0x3be56598	0.0070006363
24	0xbbfc843a	-0.0077061923
25	0xbc8120ae	-0.015762653
26	0x3ca08e58	0.019599125
27	0xbb622a15	-0.0034509946
28	0x3b984697	0.004647087
29	0xbcd272fa	-0.02568959
30	0x3c8d31cb	0.017235657
31	0xbbad7294	-0.0052932
32	0xbd10d767	-0.035361674
33	0x3c53f592	0.0129369665
34	0x3d37d929	0.044884834
35	0xbb05ae10	-0.0020397939
36	0xbc9ca433	-0.019121265
37	0xbba597f2	-0.0050535137
38	0x3c1053ad	0.008809012
39	0xbcb60b38	-0.022222146
40	0x3bc787a5	0.006089168
41	0xbcc22a9c	-0.023701958
42	0xbba86a67	-0.0051396373
43	0x3baa3c2f	0.0051951627
44	0x3b4ad5ca	0.0030950182
45	0x3be7a127	0.0070687714
46	0xbcebe6c0	-0.028796554
47	0xbcaa968f	-0.020823745
48	0xbb720f82	-0.0036935513
49	0x3c87c4e7	0.016573383
50	0xbc9d1e3f	-0.019179462
51	0x3bc43967	0.005988288
52	0xbc97998f	-0.01850584
53	0xbbdcb120	-0.006734982
54	0xbd197447	-0.037464406
55	0x3c8783f7	0.016542418
56	0xbca54afa	-0.020177353
57	0xbbcd123f	-0.0062582786
58	0x3c917399	0.017755317
59	0x3ca69486	0.020334493
60	0x3a578ad2	0.0008222285
61	0xb9e1f067	-0.00043094458
62	0xba9f132b	-0.001213645
63	0xbc6b6068	-0.014366247
64	0x3c82f413	0.015985524
65	0xbba967f4	-0.005169863
66	0xbb4a87d3	-0.0030903711
67	0x3c2e4087	0.010635502
68	0x3a98bb1f	0.0011652446
69	0xbbbfeea7	-0.005857307
70	0x3c693ff0	0.014236435
71	0x3b3df2d3	0.0028983846
72	0x3c727c48	0.014800139
73	0x3c56e82a	0.013116876
74	0xbc7fa8df	-0.015604227
75	0xbc44b22f	-0.012005373
76	0x3c5e15c5	0.013554995
77	0xbc22ed1b	-0.009944226
78	0xbccefa28	-0.025265768
79	0x3c7f8b17	0.015597126
80	0x3b0800fa	0.0020752535
81	0x3c04039c	0.008057501
82	0x3b6b5a87	0.0035912113
83	0xbbd5708d	-0.0065136612
84	0x3d687ec0	0.056761503
85	0xbcbc6cb7	-0.023001058
86	0x3c1012dd	0.00879356
87	0xbc35ca9e	-0.011095671
88	0xbca20cc7	-0.019781483
89	0xbbd4b53b	-0.006491331
90	0x3c3b2bb5	0.011423995
91	0xbc829eaf	-0.015944807
92	0xbcd2d3a5	-0.025735686
93	0xbc07d165	-0.00828967
94	0x3c83c6f7	0.016086085
95	0x3b47f0a7	0.003050843
96	0xbd2ac79d	-0.041694272
97	0x3cad51cf	0.021157173
98	0x3c428b6a	0.011874059
99	0xbcb06f4b	-0.021537444
100	0xbb2e92db	-0.0026637826
101	0xbaa76f2e	-0.0012774223
102	0xbc29a584	-0.010354403
103	0xbc376643	-0.011193815
104	0xbcd08eaa	-0.025458653
105	0xbbebbf5b	-0.007194442
106	0x3b1c10c3	0.0023813702
107	0x3cfd9cdf	0.030958591
108	0x3ab8b36d	0.0014091559
109	0x3cab1787	0.020885242
110	0xbb089edf	-0.0020846648
111	0x3cbefe84	0.023314722
112	0x3a261a4e	0.0006336317
113	0x3c321747	0.010869808
114	0x3c96641e	0.018358286
115	0x3b87dea5	0.0041464143
116	0x3cca9bd9	0.024732517
117	0x3ba4b847	0.0050268504
118	0x3b60164f	0.0034192984
119	0x3c80926f	0.015694825
120	0xba70271a	-0.00091611
121	0xbcefdae0	-0.029279172
122	0xbc91a081	-0.01777673
123	0x3b54eea3	0.0032490871
124	0x39db080b	0.00041776928
125	0x3ccd733a	0.025079358
126	0x3be387e5	0.00694369
127	0xbb53111b	-0.003220624
128	0x3c742945	0.014902418
129	0x3c59f6a7	0.013303435
130	0xbbb7cf34	-0.0056094173
131	0xbc5f4aba	-0.013628656
132	0xbd638edb	-0.05555616
133	0xbbe583fa	-0.007004258
134	0x3bdfd1fa	0.006830451
135	0x38a49eaf	7.8496865e-05
136	0xbc904c2b	-0.017614445
137	0x3ca8e201	0.02061558
138	0xbd025a1d	-0.03182422
139	0xbc54093f	-0.012941658
140	0x3b80d992	0.0039321864
141	0x3cbf9d13	0.023390329
142	0xbb6c8eff	-0.0036095975
143	0xbcb3c892	-0.021946225
144	0xbc7f8052	-0.015594559
145	0x3c15dfec	0.009147625
146	0x3c466267	0.012108422
147	0x3c729213	0.014805335
148	0xbce266fd	-0.027637
149	0xbc7d236a	-0.015450338
150	0xbc48b6b4	-0.012250591
151	0xbbad0c6b	-0.0052810214
152	0x3c8b75a3	0.017023867
153	0xbcc6e7ff	-0.024280546
154	0xbb98bc1f	-0.0046610977
155	0x3ccea820	0.025226653
156	0xbaf02a52	-0.0018323159
157	0x3bf7c500	0.007561326
158	0xbc176c2b	-0.009242098
159	0x3bb0f9f7	0.005400892
160	0x3c6fea73	0.014643299
161	0xbc712227	-0.014717615
162	0x3cc533a1	0.02407247
163	0xbc9d08e6	-0.019169282
164	0x3aba3200	0.0014205575
165	0x3b819ea6	0.00395568
166	0xbb44b2c2	-0.0030013775
167	0xbbe47dda	-0.0069730105
168	0xbc68c24f	-0.014206483
169	0xbc79c65d	-0.015245047
170	0x3cfcfa6a	0.030881125
171	0x3c898d2c	0.016790949
172	0xbcb5581c	-0.02213674
173	0x3cfa198a	0.030529756
174	0xbc9fef5c	-0.019523315
175	0xbca2c99b	-0.019871524
176	0xbc8eadc4	-0.017416842
177	0x3cf37d3f	0.029722808
178	0xbba89c38	-0.005145576
179	0xbd1a1827	-0.03762069
180	0xbba331af	-0.004980288
181	0x3c25f3d7	0.010128937
182	0xbc6dae5a	-0.014506901
183	0xbb174edb	-0.0023087773
184	0xbceb8e70	-0.028754443
185	0x3c6f210f	0.014595284
186	0x3d0b4380	0.03399992
187	0xb7fdaa97	-3.0239387e-05
188	0x3b9e5e4b	0.004833018
189	0x3b71686d	0.0036835924
190	0xbb2dd3d1	-0.0026523957
191	0xbca19f6a	-0.019729335
192	0xbcf174b7	-0.0294746
193	0xbcb55994	-0.02213744
194	0xbc7ec5ad	-0.015550059
195	0x3c700995	0.014650722
196	0x3d03b5da	0.03215585
197	0x3cb67c53	0.02227608
198	0x3d1ca34e	0.038241677
199	0xbc07fb8b	-0.008299719
200	0xbd04870f	-0.032355364
201	0x3cc3ab23	0.023885315
202	0x3c51e30f	0.012810483
203	0x3b53a41a	0.0032293857
204	0x3ce93012	0.028465305
205	0xbc875c97	-0.016523642
206	0x3c960513	0.018312966
207	0xbc350c63	-0.0110503165
208	0xbbef1817	-0.007296573
209	0x3a177651	0.00057778234
210	0xbce1555a	-0.02750652
211	0xbc705aa0	-0.014670044
212	0x3ab4b6c1	0.0013787375
213	0xbcf6426b	-0.030060967
214	0xb98cb43e	-0.00026837172
215	0x3ceba1f8	0.028763756
216	0xbd2a0cd0	-0.041516125
217	0x3bbabc08	0.0056986846
218	0xbbf79d62	-0.0075566033
219	0xbcdbeb20	-0.026845515
220	0xbbd06a57	-0.006360333
221	0xbc880cf9	-0.016607748
222	0x3cb29f6b	0.021804532
223	0x3bcdea35	0.006284023
224	0xbb647f58	-0.0034865942
225	0x3d02ebc8	0.03196314
226	0xbcc58c47	-0.024114741
227	0xbc7708aa	-0.015077749
228	0xb8085d53	-3.251184e-05
229	0x3abf7cf7	0.0014609386
230	0xbc08ab4f	-0.008341624
231	0x3c232144	0.009956662
232	0xbc8bc6fd	-0.017062658
233	0xbca858d3	-0.020550167
234	0x3b7b36e0	0.0038332269
235	0xbc779ff8	-0.015113823
236	0x3ba0a86c	0.00490289
237	0x3bdb197a	0.0066863867
238	0xbc399c3f	-0.011328756
239	0xbc986545	-0.018602977
240	0xbc373bc2	-0.011183681
241	0xbbae6d0e	-0.005323059
242	0x3d049427	0.03236785
243	0x3cde6b08	0.027150646
244	0xbc062549	-0.0081876
245	0x3c68a712	0.014199989
246	0x3ce4f247	0.027947558
247	0xbc38dc73	-0.011283028
248	0x3c4bf132	0.012447642
249	0xbcd02d98	-0.025412366
250	0xbd0ba01e	-0.034088247
251	0x3c84342b	0.016138157
252	0x3c2a20ea	0.010383824
253	0x3bcf070d	0.006317979
254	0x3ab87a50	0.0014074538
255	0x3cc9660d	0.024584794

action_model._continuous_distribution.mu.bias f4 [2]
0	0x00000000	0.0
1	0x00000000	0.0

network_body._body_endoder.seq_layers.0.weight f4 [128, 39]
0	0x3df54835	0.11976663
1	0xbdf1cbc6	-0.11806445
2	0x3e4cc2d0	0.1999619
3	0xbe81c5eb	-0.25346312
4	0x3e4feaa9	0.2030436
5	0xbd12b63f	-0.035818335
6	0xbe24718e	-0.16058943
7	0x3d577eea	0.05261127
8	0x3e8a98ed	0.27069798
9	0x3cd42706	0.025897514
10	0xbe52105a	-0.2051405
11	0x3e078afc	0.13236612
12	0xbe3d4a43	-0.1848536
13	0xbe829381	-0.25503162
14	0xbd41d1b4	-0.04731913
15	0xbc215bbf	-0.009848534
16	0xbd20a244	-0.03921725
17	0xbbf100ee	-0.007354847
18	0xbe4bd1b4	-0.19904214
19	0x3e4c3465	0.19941862
20	0x3d18b724	0.03728403
21	0xbddad57d	-0.10685251
22	0xbdec3a8e	-0.11534606
23	0xbca44703	-0.020053392
24	0x3e67c089	0.2263204
25	0x3dc08804	0.09400943
26	0xbd34ab3d	-0.044108618
27	0x3c9965f1	0.018725367
28	0x3e7927d9	0.24331607
29	0xbe8cfa20	-0.2753458
30	0x3db8d8a5	0.09025697
31	0xbe0e164c	-0.13875693
32	0xbe6c59d9	-0.23081149
33	0x3cdc58b0	0.026897758
34	0xbd1b460e	-0.037908606
35	0x3e84c64e	0.25932544
36	0x3d9423b6	0.07233374
37	0xbe368fde	-0.17828318
38	0xbd8607c2	-0.065444484
39	0x3c840f8a	0.01612069
40	0xbe48300d	-0.1954958
41	0x3e3a3f02	0.18188098
42	0x3e3f9e2d	0.18712683
43	0x3b0c2cde	0.0021389048
44	0xbe4f8c40	-0.20268345
45	0xbd15fc85	-0.036617775
46	0xbe3a435d	-0.1818976
47	0x3db3268b	0.08747586
48	0x3e0be80a	0.13662735
49	0x3cbe4ef0	0.023231
50	0xbda68c05	-0.08132175
51	0x3e1b9739	0.15194406
52	0xbe003404	-0.12519842
53	0x3dfe4365	0.12415198
54	0xbe3d027a	-0.18457976
55	0x3e761898	0.2403282
56	0xbe080460	-0.13282919
57	0xbe04bfe1	-0.12963821
58	0xbb9c9ed2	-0.004779675
59	0x3ca3b254	0.019982494
60	0xbe86696b	-0.26252303
61	0x3dd96241	0.106144436
62	0x3d372c71	0.044720117
63	0xbce07569	-0.027399736
64	0x3d97a186	0.07403855
65	0x3dba7a65	0.09105376
66	0xbe2970af	-0.16546892
67	0xbe3fd380	-0.18733025
68	0x3e49836a	0.19679037
69	0xbd7f091f	-0.062264558
70	0x3d283123	0.041062485
71	0xbc81b37c	-0.015832655
72	0xbdadf85a	-0.08494635
73	0x3e3be654	0.18349582
74	0x3e87e628	0.26542783
75	0xbe98c5df	-0.29838464
76	0x3e12fbd7	0.14353882
77	0xbdaaade7	-0.083339505
78	0xbdff0c49	-0.12453515
79	0x3ea9e2d1	0.3318086
80	0x3e46c6a5	0.19411714
81	0x3df754b5	0.120767035
82	0x3b1ef4d3	0.0024254813
83	0xbe140efd	-0.14458843
84	0xbe8148cf	-0.2525086
85	0x3c6cada0	0.014445692
86	0xbea3679b	-0.31914982
87	0x3e418844	0.18899637
88	0x3d3a480e	0.045478873
89	0x3ebcbf59	0.36864737
90	0x3e1b0db9	0.15141954
91	0xbe283386	-0.16425905
92	0xbd20724b	-0.0391715
93	0x3ec7cca5	0.3902332
94	0x3e96c77f	0.29449078
95	0xbdb2c3f0	-0.08728778
96	0xbe2185a4	-0.15773636
97	0xbd03664d	-0.032079984
98	0xbe91db39	-0.28487566
99	0xbdfedcaf	-0.12444436
100	0xbe8fb49d	-0.28067484
101	0xbc696f5d	-0.0142477425
102	0xbdc58205	-0.0964394
103	0x3ee15a7d	0.4401435
104	0x3e180383	0.1484509
105	0x3ce80481	0.02832246
106	0x3c913ef6	0.017730217
107	0xbca7e61d	-0.020495469
108	0x3b90d5c3	0.0044200136
109	0x3d4bbb74	0.049739316
110	0xbcf56b0b	-0.029958269
111	0xbe2cb1f8	-0.16864765
112	0x3e14459d	0.1447968
113	0xbcfe18d9	-0.031017708
114	0xbbd218bd	-0.0064116404
115	0xbe30a5c3	-0.17250733
116	0xbe403794	-0.18771201
117	0xbcbbf7a4	-0.022945233
118	0xbe5686dc	-0.20949882
119	0xbebfe9ef	-0.37483165
120	0xbe5459d7	-0.20737396
121	0x3dfdc96f	0.12391936
122	0x3c9b671f	0.01897007
123	0xbc9bbb61	-0.019010248
124	0xbe6d566c	-0.23177499
125	0xbe2237f6	-0.1584166
126	0x3cb44377	0.022004826
127	0xbdc9b974	-0.098498255
128	0x3e1c667f	0.15273474
129	0x3df0ffaf	0.11767518
130	0xbd888d45	-0.0666757
131	0x3dd3f84d	0.10350094
132	0xbe212c6b	-0.157396
133	0x3e8f67cb	0.28008875
134	0xbd1def7b	-0.038558464
135	0x3dcd0996	0.10011594
136	0x3c9dbb93	0.019254481
137	0x3ed0afa5	0.40759006
138	0xbea94481	-0.33060077
139	0x3e1bbef2	0.15209559
140	0xbdb70af6	-0.089376375
141	0xbed22b3d	-0.41048613
142	0xbd97f4ee	-0.074197635
143	0x3e7577e6	0.23971519
144	0x3da092e4	0.07840517
145	0xbe197a4b	-0.14988057
146	0xbd65cb41	-0.05610204
147	0xbe2ef795	-0.17086633
148	0xbb1ebaa7	-0.002422014
149	0xbd269399	-0.040668104
150	0xbe002cd1	-0.12517096
151	0xbd78d34b	-0.06074838
152	0x3ea9f1c4	0.33192265
153	0x3cf6da93	0.030133521
154	0xbe7cc478	-0.24684322
155	0xbd2b3fa0	-0.041808724
156	0xbe489fbd	-0.19592185
157	0xbe729488	-0.23689473
158	0x3d6ed965	0.058312792
159	0xbae1d80f	-0.0017230528
160	0x3e3dc207	0.18531047
161	0x3e638760	0.2221961
162	0x3de2046d	0.110360004
163	0xbd8a3b46	-0.06749587
164	0xbe1243cd	-0.14283676
165	0x3d883700	0.066511154
166	0x3d90e581	0.070750244
167	0x3ce5a9c0	0.028035045
168	0xbe41bc07	-0.18919383
169	0xbd3a839e	-0.045535676
170	0xbe1773ca	-0.14790264
171	0xbe5329e2	-0.20621446
172	0x3e9589d3	0.29206714
173	0xbd3f1573	-0.046651315
174	0xbd3bf490	-0.04588753
175	0xbd95d5b6	-0.07316153
176	0xbbed018d	-0.007232851
177	0xbe13dcd4	-0.14439708
178	0x3d430cdf	0.047619697
179	0xbe25cd6e	-0.16191646
180	0x3e34337d	0.17597766
181	0x3de6a17d	0.1126127
182	0x3dd2c028	0.10290557
183	0x3e10af1d	0.141293
184	0x3cb220c3	0.021744138
185	0x3dc6e087	0.09710794
186	0x3d8f28e9	0.06990225
187	0x3e0c1d4f	0.13683055
188	0xbe502305	-0.20325859
189	0x3e6b8026	0.22998103
190	0xbc180cd6	-0.009280404
191	0x3e1bc1fb	0.15210716
192	0xbd424aeb	-0.04743473
193	0xbe073ba8	-0.13206351
194	0x3e3c9a07	0.18418132
195	0xbef22859	-0.47296408
196	0xbe2577f1	-0.16159035
197	0xbe5c082a	-0.2148749
198	0x3dfdda3f	0.12395143
199	0x3d721bbc	0.05910848
200	0x3ddbd633	0.10734215
201	0x3e0056ef	0.12533163
202	0x3e33328b	0.1749975
203	0xbd62afe2	-0.055343516
204	0x3d552027	0.052032616
205	0x3cf18ceb	0.02948614
206	0xbe93d60f	-0.2887425
207	0xbe0439a4	-0.12912613
208	0x3d98fa21	0.07469583
209	0xbde2c498	-0.110726535
210	0xbdabf703	-0.08396723
211	0xbe6148ca	-0.22000423
212	0xbca5f8a8	-0.02026017
213	0xbe7c1b47	-0.2461978
214	0x3d9a000b	0.075195394
215	0x3c83dc7b	0.016096344
216	0x3db292ab	0.08719381
217	0xbdb8dc1a	-0.09026356
218	0xbd616c8f	-0.05503517
219	0xbde45d32	-0.11150588
220	0x3e3428f2	0.17593744
221	0xbe95c6bf	-0.29253194
222	0xbd183b18	-0.03716573
223	0xbcbb3256	-0.02285115
224	0xbc065bff	-0.0082006445
225	0xbe358678	-0.17727077
226	0xbdcee0fe	-0.101015076
227	0xbc98b356	-0.018640202
228	0xbd129aff	-0.035792347
229	0xbd8c8cbb	-0.0686278
230	0x3dd86a15	0.105671085
231	0xbe05ec64	-0.13078457
232	0xbd58bb69	-0.052913103
233	0xbd419f95	-0.04727133
234	0xbe18fb6a	-0.14939657
235	0xbe11442d	-0.14186163
236	0xbe1bc3c5	-0.15211399
237	0xbcd3ef70	-0.025871009
238	0xbdcfd418	-0.101478755
239	0xbbb4778f	-0.0055074166
240	0xbdfee43c	-0.12445876
241	0x3e7d5de3	0.24742846
242	0x3e34524b	0.17609517
243	0xbd1cf839	-0.03832266
244	0xbde7004c	-0.112793535
245	0xbe8777ab	-0.26458487
246	0xbe0d93d0	-0.13825917
247	0xbbe78f9a	-0.007066679
248	0xbe6ae064	-0.2293716
249	0x3e957e2a	0.29197818
250	0x3dd416e3	0.10355928
251	0xbc45844f	-0.012055471
252	0x3dde140d	0.10843668
253	0x3c9fc847	0.01950468
254	0xbd1a7dad	-0.03771751
255	0x3db3f323	0.08786609

network_body._body_endoder.seq_layers.0.bias f4 [128]
0	0x00000000	0.0
1	0x00000000	0.0
2	0x00000000	0.0
3	0x00000000	0.0
4	0x00000000	0.0
5	0x00000000	0.0
6	0x00000000	0.0
7	0x00000000	0.0
8	0x00000000	0.0
9	0x00000000	0.0
10	0x00000000	0.0
11	0x00000000	0.0
12	0x00000000	0.0
13	0x00000000	0.0
14	0x00000000	0.0
15	0x00000000	0.0
16	0x00000000	0.0
17	0x00000000	0.0
18	0x00000000	0.0
19	0x00000000	0.0
20	0x00000000	0.0
21	0x00000000	0.0
22	0x00000000	0.0
23	0x00000000	0.0
24	0x00000000	0.0
25	0x00000000	0.0
26	0x00000000	0.0
27	0x00000000	0.0
28	0x00000000	0.0
29	0x00000000	0.0
30	0x00000000	0.0
31	0x00000000	0.0
32	0x00000000	0.0
33	0x00000000	0.0
34	0x00000000	0.0
35	0x00000000	0.0
36	0x00000000	0.0
37	0x00000000	0.0
38	0x00000000	0.0
39	0x00000000	0.0
40	0x00000000	0.0
41	0x00000000	0.0
42	0x00000000	0.0
43	0x00000000	0.0
44	0x00000000	0.0
45	0x00000000	0.0
46	0x00000000	0.0
47	0x00000000	0.0
48	0x00000000	0.0
49	0x00000000	0.0
50	0x00000000	0.0
51	0x00000000	0.0
52	0x00000000	0.0
53	0x00000000	0.0
54	0x00000000	0.0
55	0x00000000	0.0
56	0x00000000	0.0
57	0x00000000	0.0
58	0x00000000	0.0
59	0x00000000	0.0
60	0x00000000	0.0
61	0x00000000	0.0
62	0x00000000	0.0
63	0x00000000	0.0
64	0x00000000	0.0
65	0x00000000	0.0
66	0x00000000	0.0
67	0x00000000	0.0
68	0x00000000	0.0
69	0x00000000	0.0
70	0x00000000	0.0
71	0x00000000	0.0
72	0x00000000	0.0
73	0x00000000	0.0
74	0x00000000	0.0
75	0x00000000	0.0
76	0x00000000	0.0
77	0x00000000	0.0
78	0x00000000	0.0
79	0x00000000	0.0
80	0x00000000	0.0
81	0x00000000	0.0
82	0x00000000	0.0
83	0x00000000	0.0
84	0x00000000	0.0
85	0x00000000	0.0
86	0x00000000	0.0
87	0x00000000	0.0
88	0x00000000	0.0
89	0x00000000	0.0
90	0x00000000	0.0
91	0x00000000	0.0
92	0x00000000	0.0
93	0x00000000	0.0
94	0x00000000	0.0
95	0x00000000	0.0
96	0x00000000	0.0
97	0x00000000	0.0
98	0x00000000	0.0
99	0x00000000	0.0
100	0x00000000	0.0
101	0x00000000	0.0
102	0x00000000	0.0
103	0x00000000	0.0
104	0x00000000	0.0
105	0x00000000	0.0
106	0x00000000	0.0
107	0x00000000	0.0
108	0x00000000	0.0
109	0x00000000	0.0
110	0x00000000	0.0
111	0x00000000	0.0
112	0x00000000	0.0
113	0x00000000	0.0
114	0x00000000	0.0
115	0x00000000	0.0
116	0x00000000	0.0
117	0x00000000	0.0
118	0x00000000	0.0
119	0x00000000	0.0
120	0x00000000	0.0
121	0x00000000	0.0
122	0x00000000	0.0
123	0x00000000	0.0
124	0x00000000	0.0
125	0x00000000	0.0
126	0x00000000	0.0
127	0x00000000	0.0

network_body._body_endoder.seq_layers.2.weight f4 [128, 128]
0	0xbdacb9ed	-0.084339
1	0xbc5311de	-0.012882678
2	0x3c89004e	0.016723778
3	0x3d5b759f	0.05357897
4	0x3e05fc4b	0.13084523
5	0x3ce88c9e	0.028387364
6	0x3a8fbaed	0.0010965742
7	0xbd5ab061	-0.053390864
8	0xbd045466	-0.03230705
9	0xbcd6e855	-0.026233831
10	0xbd2c1a92	-0.042017527
11	0x3b83167e	0.004000484
12	0xbc957a6e	-0.018246856
13	0xbd6ae4d0	-0.05734712
14	0x3e182c6a	0.14860693
15	0x3d86b962	0.06578328
16	0xbd959bba	-0.07305093
17	0x3c768d08	0.015048273
18	0x3e2c45f6	0.16823563
19	0x3dd3279e	0.10310291
20	0xbc6528e3	-0.013986799
21	0xbcdd3023	-0.027000492
22	0xbe184cbb	-0.1487302
23	0x3e30eeda	0.17278615
24	0x3da03c26	0.078239724
25	0x3e0dad63	0.13835673
26	0xbce9bb53	-0.028531706
27	0xbd77f128	-0.06053272
28	0xbae80911	-0.0017702897
29	0xbda1a798	-0.07893294
30	0xbb119996	-0.0022216788
31	0xbd232b98	-0.039836496
32	0x3cafcaa2	0.021458928
33	0xbd421b77	-0.047389474
34	0xbe07a0ae	-0.13244888
35	0x3cfaab9c	0.030599408
36	0x3d8205e3	0.06348779
37	0xbe1a0148	-0.15039551
38	0xbd0a0f30	-0.03370589
39	0x3d3021a1	0.04300082
40	0xbe18f8a1	-0.14938594
41	0x3d947094	0.07248035
42	0xbdb8ac05	-0.09017185
43	0xbd4eea7d	-0.050516594
44	0xbd88bfbe	-0.06677197
45	0x3d279c54	0.04092057
46	0xbdef0cea	-0.11672385
47	0x3dd77d11	0.105219014
48	0xbda94a31	-0.08266104
49	0x3da0ce38	0.07851833
50	0xbc1a57a2	-0.009420307
51	0xbc3bb038	-0.011455588
52	0x3d1e7cc5	0.03869321
53	0x3e0a7773	0.13522129
54	0x3ce1695b	0.027516058
55	0xbe213262	-0.15741876
56	0xbdd006b7	-0.10157531
57	0x3bb792e8	0.0056022294
58	0xbe40ba4e	-0.1882107
59	0x3bd5ab78	0.006520685
60	0x3db02d07	0.08602338
61	0x3e0fd2c6	0.14045247
62	0xbe297113	-0.1654704
63	0xbcd49b7c	-0.025953047
64	0x3e0a693d	0.13516708
65	0x3d7ffe59	0.062498424
66	0x3d86adf2	0.06576146
67	0xbbfa20c0	-0.0076332986
68	0x3d98f40f	0.074684255
69	0xbd822def	-0.063564174
70	0x3d8913c2	0.06693222
71	0xbd5dd0c2	-0.054154165
72	0xbaedd446	-0.0018144927
73	0xbd573082	-0.052536495
74	0x3d753359	0.059863422
75	0x3d6e650f	0.058201846
76	0x3d8c9cdc	0.06865856
77	0xbdc26f17	-0.09493845
78	0x3ca2acbc	0.019857757
79	0xbd90c641	-0.07069064
80	0x3e040a8a	0.12894645
81	0x3d97608e	0.07391463
82	0x3d905eef	0.07049357
83	0xbd1ba9e1	-0.038003806
84	0x3cbee708	0.023303524
85	0x3d4ced99	0.05003128
86	0x3d197f65	0.03747501
87	0xbd5fd09b	-0.0546423
88	0xbc9602f2	-0.018311951
89	0x3dae3b3d	0.085073926
90	0x3dd0ca85	0.101948775
91	0x3d856e92	0.0651523
92	0xbb101abf	-0.0021988598
93	0x3e2f12c8	0.17097008
94	0xbd9a920b	-0.07547387
95	0x3dacca28	0.08436996
96	0xbd094aa1	-0.033518437
97	0xbdea87ec	-0.11451706
98	0x39ac77c4	0.0003289563
99	0x3c9f28e1	0.019428672
100	0xbc815f5c	-0.015792541
101	0x3da0fa2f	0.07860219
102	0x3cbd22c7	0.023087872
103	0xbdf52647	-0.119701914
104	0xbba182af	-0.004928909
105	0xbd9e89ff	-0.077411644
106	0x3db3b6c8	0.08775097
107	0xbe5e7f45	-0.21728237
108	0x3db29e13	0.087215565
109	0x3cc8f711	0.024531873
110	0xbc61491f	-0.013750344
111	0xbc5d272b	-0.013498108
112	0xbd70e29f	-0.058809873
113	0xbe5c8306	-0.21534356
114	0x3dfe3338	0.12412113
115	0xbd7ef8df	-0.06224906
116	0xbd4a82a3	-0.04944099
117	0x3e410c65	0.18852384
118	0x3e07ee26	0.1327444
119	0xbe6658dc	-0.22494835
120	0x3dba2601	0.0908928
121	0xbe0ef50a	-0.13960662
122	0xbd3cac01	-0.046062473
123	0xbd82a6ce	-0.06379472
124	0xbd7858a8	-0.060631424
125	0x3d09f7b1	0.033683483
126	0xbe50a560	-0.20375586
127	0x3d5d91d6	0.054094158
128	0xbe6ef263	-0.2333465
129	0xbca4117d	-0.02002787
130	0xbda39642	-0.07987644
131	0xbceff01f	-0.029289303
132	0xbdbce52a	-0.09223397
133	0x3cc385e1	0.02386755
134	0xbd0b2109	-0.03396705
135	0xbd8b066d	-0.06788335
136	0x3dbb4e6b	0.091458164
137	0x3dd8e958	0.10591382
138	0xbd9cc140	-0.07654047
139	0xbcc241c6	-0.023713004
140	0xbd5aa384	-0.053378597
141	0xbbf0f148	-0.0073529817
142	0xbe0dd860	-0.13852072
143	0xbd94ef79	-0.07272238
144	0x3d9a996c	0.07548794
145	0xbd60490e	-0.05475717
146	0xbbc51e1c	-0.006015552
147	0x3cf7be70	0.030242175
148	0x3d145a47	0.036218908
149	0x3c93c30b	0.01803734
150	0x3dcf91cc	0.101352304
151	0x3ce8a4a7	0.028398825
152	0xbdae8ca2	-0.08522917
153	0x3e191b86	0.14951906
154	0xbc1d0632	-0.009583997
155	0xbd27d6ee	-0.040976457
156	0x3e070fb7	0.13189588
157	0xbd14ebc8	-0.03635767
158	0x3dafe352	0.0858828
159	0xbcd9fe5a	-0.026610542
160	0x3d0142ab	0.03155772
161	0x3e77dcf9	0.24205388
162	0xbd3de08d	-0.046356726
163	0x3da5ddf5	0.080989756
164	0xbdd9ec73	-0.10640802
165	0x3d1c7f6c	0.038207456
166	0xbe05e064	-0.1307388
167	0x3c444296	0.011978766
168	0x3daa29d1	0.08308757
169	0x3ced1003	0.028938299
170	0xbd9d751c	-0.076883525
171	0xbcc31c25	-0.023817131
172	0x3d807fcc	0.06274375
173	0x3e017641	0.12642767
174	0xbc7e05d2	-0.015504317
175	0xbe00ceb8	-0.12578857
176	0xbd4919dd	-0.04909693
177	0x3d36c7d4	0.044624165
178	0xbe32b81d	-0.17453046
179	0xbe09c2bd	-0.13453193
180	0xbb847cae	-0.0040431833
181	0xbc03609f	-0.008018642
182	0x3cf3b957	0.029751463
183	0xbda3081c	-0.07960531
184	0xbcb4abec	-0.022054635
185	0xbda38ad0	-0.07985461
186	0xbd9c6c65	-0.07637862
187	0xbddd3dd7	-0.10802811
188	0x3d5a0ad9	0.053233
189	0xbc080a9f	-0.0083033135
190	0xbd3ff82e	-0.046867542
191	0xbd691b75	-0.05691095
192	0x3dca0381	0.098639496
193	0x3d43caf7	0.047800984
194	0xbdb5d2a0	-0.08878064
195	0x3de3904e	0.11111508
196	0xbc896a44	-0.016774304
197	0xbd49b8f5	-0.049248654
198	0x3d82f822	0.06394984
199	0x3cdf9903	0.027294641
200	0xbc2adbf3	-0.010428417
201	0xbd81156b	-0.06302913
202	0x3c1793ee	0.009251578
203	0x3e13aa28	0.14420378
204	0x3da11d9d	0.078669764
205	0xbdcaa19a	-0.09894104
206	0xbd909cbe	-0.07061146
207	0x3e095732	0.13412169
208	0x3d2a7471	0.041614953
209	0x3c41b859	0.011823737
210	0xbdaa1e49	-0.08306558
211	0x3d14c4aa	0.036320366
212	0x3dc0e467	0.09418564
213	0x3e0ed6f1	0.13949181
214	0xbe3ba881	-0.18325998
215	0xbd8b4e98	-0.068021
216	0xbbd33c84	-0.006446423
217	0xbda50ecf	-0.08059465
218	0xbdf048bd	-0.11732624
219	0xbe38517c	-0.17999834
220	0xbd8b2e42	-0.06795932
221	0xbe95e9df	-0.29279992
222	0x3cb6feb1	0.022338243
223	0x3d56ffdd	0.052490104
224	0xbd02e028	-0.031952053
225	0xbde152e9	-0.11002142
226	0xbd65a4c6	-0.056065343
227	0x3dd43e3d	0.103634335
228	0x3d9e1993	0.07719722
229	0x3dd29403	0.10282137
230	0xbd68c61f	-0.056829568
231	0xbc02a62c	-0.007974189
232	0x3d8fb119	0.070162006
233	0xb9c15e50	-0.00036882097
234	0xbc8f19b8	-0.017468318
235	0x3e1788cd	0.14798279
236	0xbe31ceac	-0.17363995
237	0x3da55fad	0.08074889
238	0x3cb88864	0.022525974
239	0xbdc68ff2	-0.09695424
240	0xbd109a15	-0.035303194
241	0xbd1c1291	-0.038103644
242	0xbd8e8871	-0.06959618
243	0x3e17f582	0.14839748
244	0xbde29dbf	-0.11065244
245	0xbd8a03e9	-0.06739027
246	0xbe0e4536	-0.1389359
247	0xbd25c1e8	-0.040468127
248	0x3d620eac	0.055189773
249	0xbd8ff276	-0.07028668
250	0x3db597db	0.08866855
251	0x3da084f6	0.0783786
252	0xba8169a9	-0.0009873408
253	0xbd75fe87	-0.06005719
254	0x3de0a668	0.109692395
255	0x3c033c74	0.008010019

network_body._body_endoder.seq_layers.2.bias f4 [128]
0	0x00000000	0.0
1	0x00000000	0.0
2	0x00000000	0.0
3	0x00000000	0.0
4	0x00000000	0.0
5	0x00000000	0.0
6	0x00000000	0.0
7	0x00000000	0.0
8	0x00000000	0.0
9	0x00000000	0.0
10	0x00000000	0.0
11	0x00000000	0.0
12	0x00000000	0.0
13	0x00000000	0.0
14	0x00000000	0.0
15	0x00000000	0.0
16	0x00000000	0.0
17	0x00000000	0.0
18	0x00000000	0.0
19	0x00000000	0.0
20	0x00000000	0.0
21	0x00000000	0.0
22	0x00000000	0.0
23	0x00000000	0.0
24	0x00000000	0.0
25	0x00000000	0.0
26	0x00000000	0.0
27	0x00000000	0.0
28	0x00000000	0.0
29	0x00000000	0.0
30	0x00000000	0.0
31	0x00000000	0.0
32	0x00000000	0.0
33	0x00000000	0.0
34	0x00000000	0.0
35	0x00000000	0.0
36	0x00000000	0.0
37	0x00000000	0.0
38	0x00000000	0.0
39	0x00000000	0.0
40	0x00000000	0.0
41	0x00000000	0.0
42	0x00000000	0.0
43	0x00000000	0.0
44	0x00000000	0.0
45	0x00000000	0.0
46	0x00000000	0.0
47	0x00000000	0.0
48	0x00000000	0.0
49	0x00000000	0.0
50	0x00000000	0.0
51	0x00000000	0.0
52	0x00000000	0.0
53	0x00000000	0.0
54	0x00000000	0.0
55	0x00000000	0.0
56	0x00000000	0.0
57	0x00000000	0.0
58	0x00000000	0.0
59	0x00000000	0.0
60	0x00000000	0.0
61	0x00000000	0.0
62	0x00000000	0.0
63	0x00000000	0.0
64	0x00000000	0.0
65	0x00000000	0.0
66	0x00000000	0.0
67	0x00000000	0.0
68	0x00000000	0.0
69	0x00000000	0.0
70	0x00000000	0.0
71	0x00000000	0.0
72	0x00000000	0.0
73	0x00000000	0.0
74	0x00000000	0.0
75	0x00000000	0.0
76	0x00000000	0.0
77	0x00000000	0.0
78	0x00000000	0.0
79	0x00000000	0.0
80	0x00000000	0.0
81	0x00000000	0.0
82	0x00000000	0.0
83	0x00000000	0.0
84	0x00000000	0.0
85	0x00000000	0.0
86	0x00000000	0.0
87	0x00000000	0.0
88	0x00000000	0.0
89	0x00000000	0.0
90	0x00000000	0.0
91	0x00000000	0.0
92	0x00000000	0.0
93	0x00000000	0.0
94	0x00000000	0.0
95	0x00000000	0.0
96	0x00000000	0.0
97	0x00000000	0.0
98	0x00000000	0.0
99	0x00000000	0.0
100	0x00000000	0.0
101	0x00000000	0.0
102	0x00000000	0.0
103	0x00000000	0.0
104	0x00000000	0.0
105	0x00000000	0.0
106	0x00000000	0.0
107	0x00000000	0.0
108	0x00000000	0.0
109	0x00000000	0.0
110	0x00000000	0.0
111	0x00000000	0.0
112	0x00000000	0.0
113	0x00000000	0.0
114	0x00000000	0.0
115	0x00000000	0.0
116	0x00000000	0.0
117	0x00000000	0.0
118	0x00000000	0.0
119	0x00000000	0.0
120	0x00000000	0.0
121	0x00000000	0.0
122	0x00000000	0.0
123	0x00000000	0.0
124	0x00000000	0.0
125	0x00000000	0.0
126	0x00000000	0.0
127	0x00000000	0.0

value_heads.value_heads.extrinsic.weight f4 [1, 128]
0	0xbcd18908	-0.025578037
1	0xbd966ab8	-0.07344574
2	0x3c03ae20	0.00803712
3	0xbddb75d2	-0.10715832
4	0xbde33c69	-0.11095507
5	0x3e45141e	0.19245955
6	0x3df4aa60	0.11946559
7	0x3e54b8e8	0.20773661
8	0x3dbcca74	0.09218302
9	0x3dbde4ec	0.09272179
10	0x3dac7d70	0.08422363
11	0xbcfb7e68	-0.030699924
12	0xbe57bd58	-0.21068323
13	0xbda445c8	-0.08021122
14	0xbe1dba5e	-0.15403125
15	0x3dbf6ee0	0.093473196
16	0xbdf4b772	-0.11949052
17	0xbe5c2fdd	-0.21502633
18	0x3d510bb0	0.051036537
19	0xbc49e230	-0.012321994
20	0xbe0df99c	-0.1386475
21	0xbb1837c0	-0.002322659
22	0xbd8cf13a	-0.06881948
23	0x3d994718	0.07484263
24	0xbd216998	-0.039407343
25	0x3c846d10	0.016165286
26	0x3d205e98	0.03915271
27	0xbd27a7cc	-0.040931508
28	0x3dfc69b8	0.12324852
29	0x3e3a3350	0.18183637
30	0xbc90eb10	-0.017690212
31	0x3c6b44f0	0.014359698
32	0xbd5c7a30	-0.053827465
33	0xbe2397da	-0.15975896
34	0xbc817820	-0.01580435
35	0xbe0f0414	-0.139664
36	0xbbbe4c00	-0.0058073997
37	0xbe04cd2c	-0.12968892
38	0xbe5b17f2	-0.21395853
39	0x3d778830	0.060432613
40	0xbe571926	-0.21005687
41	0x3e039ce0	0.12852812
42	0x3ccdf1f0	0.025139779
43	0x3d80969c	0.062787265
44	0xbe4afcb0	-0.19822955
45	0xbe4f522c	-0.2024619
46	0x3c622300	0.01380229
47	0x3d3665e8	0.04453078
48	0xbc7531b0	-0.01496546
49	0x3ce65890	0.028118402
50	0xbdadba06	-0.08482747
51	0xbdca5905	-0.098802604
52	0x3de6ed58	0.112757385
53	0x3dd5e074	0.10443202
54	0xbd91e85e	-0.07124399
55	0x3df92644	0.12165502
56	0xbd61dee8	-0.05514422
57	0xbdf6bce1	-0.120477445
58	0x3d79b4a8	0.060963303
59	0x3d7d4778	0.061835736
60	0x3e3b44a4	0.18287903
61	0x3d093c08	0.033504516
62	0xbd7ac9ac	-0.061227486
63	0x3e2046d0	0.15652013
64	0x3cc28c48	0.023748532
65	0xbd5f5f48	-0.054534227
66	0xbdb5feba	-0.08886476
67	0xbe3dcefc	-0.1853599
68	0x3d32afa0	0.04362452
69	0x3df99244	0.12186101
70	0xbdfa43f4	-0.12219992
71	0x3d62c748	0.05536583
72	0xbd15cfa4	-0.036574975
73	0xbddb8ae6	-0.10719852
74	0x3bf56d60	0.007489845
75	0xbd95459e	-0.07288669
76	0x3e0160dc	0.12634605
77	0xbdb6beb6	-0.08923094
78	0x3d9f6334	0.07782593
79	0x3db36eb8	0.08761352
80	0x3db05b54	0.086111695
81	0xbe4a4018	-0.19751012
82	0xbd864bb4	-0.06557408
83	0xbd4fc384	-0.050723568
84	0xbdcb0b3d	-0.09914253
85	0xbcd005e0	-0.025393426
86	0xbe4f44cc	-0.20241088
87	0x3db39378	0.08768362
88	0x3e454782	0.1926556
89	0x3e02594c	0.12729377
90	0x3e236d9a	0.15959778
91	0xbe18ed60	-0.14934301
92	0x3d826c14	0.063682705
93	0xbe1c774e	-0.15279886
94	0xbe249637	-0.16072927
95	0xbe07b72e	-0.13253471
96	0xbe06af80	-0.13152885
97	0xbb8e83c0	-0.004349202
98	0x3c2985c0	0.01034683
99	0x3e3e2dd4	0.1857217
100	0xbe414805	-0.1887513
101	0xbcf0c018	-0.029388472
102	0xbe57bba4	-0.21067673
103	0xbdc3bc0f	-0.09557354
104	0xbd96ae90	-0.07357514
105	0x3d8c816c	0.06860623
106	0xbe4a6d0b	-0.19768159
107	0xbdb980d6	-0.09057777
108	0xbd936fa8	-0.07199031
109	0x3e11e372	0.1424692
110	0xbdb501ba	-0.0883822
111	0x3e296138	0.16540992
112	0x3dc127b4	0.09431401
113	0x3e113630	0.14180827
114	0x3e2475dc	0.16060585
115	0xbdda34db	-0.10654613
116	0xbd7eca60	-0.06220472
117	0x3ce66730	0.028125376
118	0x3d153e30	0.03643626
119	0x3d952a1c	0.07283422
120	0x3d1e2178	0.038606137
121	0x3e484a60	0.19559622
122	0xbdfda332	-0.12384643
123	0xbe3c0cf7	-0.1836432
124	0xbd77bd18	-0.06048307
125	0x3e4260ec	0.18982285
126	0x3e2eeb0a	0.17081848
127	0xbe3065de	-0.17226359
