results/ia4/PlayerScript.onnx (onnx, 77252 bytes, 7 tensors)

network_body._body_endoder.seq_layers.0.weight f4 [128, 15]
0.08059329 0.22833869 0.17909904 -0.015257226 -0.34142697 -0.41625953 0.1747272 -0.25723448
-0.40146852 0.010738687 0.0021555226 -0.07102578 -0.008502083 0.13261439 -0.20232548 0.32140154
0.23981692 -0.29759166 -0.17446832 0.38451692 0.1362507 -0.14838924 0.40407923 -0.62675375
0.034492265 -0.43367913 0.10742582 -0.14965136 -0.4119125 -0.074318856 -0.17266731 0.010220948
0.16747615 -0.001691006 -0.41938287 0.030071825 -0.24112943 -0.19295834 -0.04134735 0.056551475
0.17113186 -0.1577686 0.12398119 0.11665879 0.37823722 -0.40215993 0.056253623 -0.41719088
0.43465173 0.015607617 0.48360196 0.13075046 0.33458894 -0.12736017 -0.54511416 0.2309571
-0.28976148 0.073255606 -0.35280016 -0.37390223 -0.07391485 0.20683317 -0.041982934 -0.39994013
-0.11743431 -0.38581955 -0.02515601 0.20992659 -0.17897579 -0.43539008 0.13760528 -0.15728235
-0.2047436 0.46546015 -0.2656333 -0.14015354 -0.1255063 -0.13967909 0.48834628 -0.10137925
0.06205535 -0.027094701 -0.02089446 0.015150218 0.66623634 0.09306369 -0.020358203 -0.24564455
-0.09052792 0.42941827 -0.1969188 -0.045877628 0.58614635 0.06297652 -0.3579741 0.0028371697
-0.1670395 0.120787084 0.10943991 -0.07784534 0.024998223 -0.0021306493 -0.26236758 0.24286845
-0.069798864 0.111114524 -0.0063754204 -0.35661036 0.44979426 0.0397859 0.05407686 -0.29201213
0.17705254 -0.030795872 0.028505445 -0.21436335 0.10394043 0.3691247 -0.34787366 -0.12212979
-0.08819907 0.32245302 0.036676534 0.41956803 -0.04002701 0.7203963 -0.22128451 -0.6951891
-0.26428884 0.48512527 0.46996737 -0.23913401 -0.0076934122 -0.048008986 -0.2512165 0.12496564
0.30737293 -0.36306566 -0.16331382 0.27597567 0.10478053 -0.6013917 -0.34225178 0.11498085
-0.13655092 -0.25547248 0.008861528 0.3264984 0.15987176 -0.102643944 -0.28440708 0.031943824
0.37296715 -0.13931513 -0.20297456 0.43118253 0.5289364 0.03434111 -0.06962463 0.119711645
0.043029033 0.09815727 0.027799549 0.31596604 -0.078878276 0.07573819 0.08994554 0.18584867
0.24146314 0.21350516 -0.12049739 -0.28153673 0.46203074 -0.007966079 -0.641064 -0.35698316
-0.46232995 0.13555254 -0.008307742 -0.44584668 -0.030932795 0.108734764 -0.28636977 0.31689417
-0.06687619 -0.42607114 0.1269619 -0.09763865 -0.39138004 -0.09640727 -0.101541065 -0.43642446
-0.10985038 0.4668076 -0.22252463 0.11255462 -0.54982007 0.15889896 -0.16538699 0.212882
0.14088322 -0.09770254 -0.08538674 -0.17123513 0.17434826 0.5233081 0.43941796 0.2182246
-0.030051133 0.059565473 0.04297893 -0.13167433 -0.1940282 0.116056636 -0.0793808 -0.4128181
-0.030232368 0.08897021 -0.06715925 0.26420346 0.083734095 -0.45079136 0.32452536 0.11119103
0.12937562 0.23824543 0.5146104 0.10570463 -0.3354289 0.5214241 -0.2969029 0.50936747
0.29021847 0.22062707 -0.19948813 -0.53279614 0.035962895 0.4613529 0.23148492 -0.06291507
-0.019560043 0.08162378 -0.051968463 0.225347 -0.1486664 0.46201578 -0.13145879 -0.09521351
-0.35190758 -0.38705656 -0.008118052 0.058951236 -0.2668463 -0.2792628 0.068994515 0.16523907
00000000: 180e a53d 9ed1 693e bd65 373e 72f9 79bc
00000010: 84cf aebe f81f d5be b0eb 323e 3db4 83be
00000020: 488d cdbe 51f1 2f3c ab43 0d3b f775 91bd
00000030: 524c 0bbc 11cc 073e 692e 4fbe be8e a43e
00000040: 9192 753e ef5d 98be d3a7 32be 67df c43e
00000050: 4e85 0b3e 59f3 17be 79e3 ce3e ef72 20bf
00000060: c347 0d3d 310b debe 1102 dc3d 353e 19be
00000070: 32e6 d2be 7c34 98bd b3cf 30be c375 273c
00000080: de7e 2b3e bfa4 ddba 5ab9 d6be 3059 f63c
00000090: a2ea 76be df96 45be d75b 29bd 85a2 673d
000000a0: 313d 2f3e 188e 21be dae9 fd3d ceea ee3d
000000b0: 4fa8 c13e e8e7 cdbe 336a 663d 0b9a d5be
000000c0: ac8a de3e 17b7 7f3c ad9a f73e 73e3 053e
000000d0: 3e4f ab3e b46a 02be 9a8c 0bbf 0580 6c3e
000000e0: 9e5b 94be 0907 963d 39a2 b4be 1d70 bfbe
000000f0: ab60 97bd 13cc 533e 4cf6 2bbd f4c4 ccbe
00000100: 6681 f0bd 248a c5be fa13 cebc fff6 563e
00000110: 6e45 37be 73eb debe 66e8 0c3e a00e 21be
00000120: 4ea8 51be cb50 ee3e 1701 88be 6984 0fbe
00000130: b984 00be 0908 0fbe 8608 fa3e ed9f cfbd
00000140: c02d 7e3d b5f5 ddbc dc2a abbc 9f38 783c
00000150: 778e 2a3f 2d98 be3d 3fc6 a6bc 3f8a 7bbe
00000160: b466 b9bd b6dc db3e 15a5 49be 2eea 3bbd
00000170: b00d 163f d5f9 803d 6248 b7be cfef 393b
00000180: 670c 2bbe 385f f73d 0822 e03d 616d 9fbd
00000190: 13c9 cc3c 5da2 0bbb 0b55 86be 82b2 783e
000001a0: b5f2 8ebd 0390 e33d e7e8 d0bb a295 b6be
000001b0: 6f4b e63e 8af6 223d b37f 5d3d 9d82 95be
000001c0: 434d 353e a047 fcbc 4084 e93c 1182 5bbe
000001d0: b8de d43d eafd bc3e 7f1c b2be 2f1f fabd
000001e0: b7a1 b4bd 9018 a53e 223a 163d 9fd1 d63e
000001f0: 5df3 23bd e46b 383f 6898 62be eaf7 31bf
00000200: de50 87be 5762 f83e 909f f03e 8cdf 74be
00000210: 0519 fcbb 12a5 44bd 739f 80be fced ff3d
00000220: fc5f 9d3e bee3 b9be bd3b 27be af4c 8d3e
00000230: 2d97 d63d cef4 19bf a03b afbe 147b eb3d
00000240: 01d4 0bbe 4acd 82be f12f 113c cc2a a73e
00000250: 6cb5 233e fd36 d2bd ce9d 91be 87d7 023d
00000260: 8df5 be3e a0a8 0ebe 90d8 4fbe f5c3 dc3e
00000270: 6068 073f 44a9 0c3d 5c97 8ebd 612b f53d
00000280: 363f 303d ae06 c93d e1bb e33c 4dc6 a13e
00000290: ef8a a1bd a01c 9b3d 5e35 b83d 1d4f 3e3e
000002a0: 1d42 773e 19a1 5a3e 56c7 f6bd 9525 90be
000002b0: 4b8f ec3e 2884 02bc c51c 24bf 7fc6 b6be
000002c0: 83b6 ecbe 49ce 0a3e 321d 08bc 0446 e4be
000002d0: c666 fdbc 55b0 de3d 0f9f 92be f43f a23e
000002e0: 62f6 88bd ff25 dabe 4d02 023e c6f6 c7bd
000002f0: f762 c8be 2d71 c5bd c3f4 cfbd 0773 dfbe
00000300: 3cf9 e0bd 6801 ef3e 7fdd 63be 0983 e63d
00000310: 02c1 0cbf 69b6 223e 355b 29be bdfd 593e
00000320: b143 103e 4518 c8bd 3edf aebd 4358 2fbe
00000330: 5a88 323e 85f7 053f 64fb e03e 4576 5f3e
00000340: cb2d f6bc edfa 733d ad0a 303d a3d5 06be
00000350: 54af 46be 1aaf ed3d 6792 a2bd e55c d3be
00000360: dfa9 f7bc 0336 b63d ca8a 89bd ad45 873e
00000370: c87c ab3d 20ce e6be 3028 a63e 1fb8 e33d
00000380: 0b7b 043e 9cf6 733e 82bd 033f ab7b d83d
00000390: 56bd abbe 0d7c 053f a803 98be e865 023f
000003a0: 8497 943e 10ec 613e 9e46 4cbe 5465 08bf
000003b0: d44d 133d 7336 ec3e 620a 6d3e 9ed9 80bd
000003c0: 623c a0bc 5e2a a73d e2dc 54bd 5dc1 663e
000003d0: 013c 18be 558d ec3e 229d 06be 4dff c2bd
000003e0: 3b2d b4be 472c c6be 9401 05bc da76 713d
000003f0: 14a0 88be 89fb 8ebe ff4c 8d3d 6e34 293e

network_body._body_endoder.seq_layers.0.bias f4 [128]
0.0 0.0 0.0 0.0 0.0 0.0 0.0 0.0
0.0 0.0 0.0 0.0 0.0 0.0 0.0 0.0
0.0 0.0 0.0 0.0 0.0 0.0 0.0 0.0
0.0 0.0 0.0 0.0 0.0 0.0 0.0 0.0
0.0 0.0 0.0 0.0 0.0 0.0 0.0 0.0
0.0 0.0 0.0 0.0 0.0 0.0 0.0 0.0
0.0 0.0 0.0 0.0 0.0 0.0 0.0 0.0
0.0 0.0 0.0 0.0 0.0 0.0 0.0 0.0
0.0 0.0 0.0 0.0 0.0 0.0 0.0 0.0
0.0 0.0 0.0 0.0 0.0 0.0 0.0 0.0
0.0 0.0 0.0 0.0 0.0 0.0 0.0 0.0
0.0 0.0 0.0 0.0 0.0 0.0 0.0 0.0
0.0 0.0 0.0 0.0 0.0 0.0 0.0 0.0
0.0 0.0 0.0 0.0 0.0 0.0 0.0 0.0
0.0 0.0 0.0 0.0 0.0 0.0 0.0 0.0
0.0 0.0 0.0 0.0 0.0 0.0 0.0 0.0
00000000: 0000 0000 0000 0000 0000 0000 0000 0000
00000010: 0000 0000 0000 0000 0000 0000 0000 0000
00000020: 0000 0000 0000 0000 0000 0000 0000 0000
00000030: 0000 0000 0000 0000 0000 0000 0000 0000
00000040: 0000 0000 0000 0000 0000 0000 0000 0000
00000050: 0000 0000 0000 0000 0000 0000 0000 0000
00000060: 0000 0000 0000 0000 0000 0000 0000 0000
00000070: 0000 0000 0000 0000 0000 0000 0000 0000
00000080: 0000 0000 0000 0000 0000 0000 0000 0000
00000090: 0000 0000 0000 0000 0000 0000 0000 0000
000000a0: 0000 0000 0000 0000 0000 0000 0000 0000
000000b0: 0000 0000 0000 0000 0000 0000 0000 0000
000000c0: 0000 0000 0000 0000 0000 0000 0000 0000
000000d0: 0000 0000 0000 0000 0000 0000 0000 0000
000000e0: 0000 0000 0000 0000 0000 0000 0000 0000
000000f0: 0000 0000 0000 0000 0000 0000 0000 0000
00000100: 0000 0000 0000 0000 0000 0000 0000 0000
00000110: 0000 0000 0000 0000 0000 0000 0000 0000
00000120: 0000 0000 0000 0000 0000 0000 0000 0000
00000130: 0000 0000 0000 0000 0000 0000 0000 0000
00000140: 0000 0000 0000 0000 0000 0000 0000 0000
00000150: 0000 0000 0000 0000 0000 0000 0000 0000
00000160: 0000 0000 0000 0000 0000 0000 0000 0000
00000170: 0000 0000 0000 0000 0000 0000 0000 0000
00000180: 0000 0000 0000 0000 0000 0000 0000 0000
00000190: 0000 0000 0000 0000 0000 0000 0000 0000
000001a0: 0000 0000 0000 0000 0000 0000 0000 0000
000001b0: 0000 0000 0000 0000 0000 0000 0000 0000
000001c0: 0000 0000 0000 0000 0000 0000 0000 0000
000001d0: 0000 0000 0000 0000 0000 0000 0000 0000
000001e0: 0000 0000 0000 0000 0000 0000 0000 0000
000001f0: 0000 0000 0000 0000 0000 0000 0000 0000

network_body._body_endoder.seq_layers.2.weight f4 [128, 128]
0.045518517 0.092585474 0.0013642627 0.05959206 0.1432254 0.030505048 0.035931733 -0.06299301
0.2007069 0.03742865 -0.022425123 -0.017224165 -0.03346689 -0.14262733 -0.04039078 -0.027257586
-0.12345904 0.13067049 0.024514522 0.027877564 0.14437215 -0.017178705 0.08767894 0.036602397
0.045463704 0.10670128 0.002995695 -0.10448619 -0.07746658 0.06113917 0.028434463 0.046878185
-0.1060633 0.061991833 -0.07191249 0.011149515 0.19057435 0.049794182 0.1894371 0.00491236
-0.021313284 0.028864076 0.1374467 -0.038948182 0.034126084 0.08344361 -0.004075953 -0.0092159035
0.05178613 0.075316235 0.0072993133 -0.19704838 0.042780243 -0.11656133 0.13799596 0.072376475
0.01575548 -0.09048557 -0.058089152 -0.08810849 -0.086665556 -0.07812365 -0.12247686 0.050577145
0.001704214 -0.09161725 -0.042339332 0.043053776 -0.047303446 0.124012105 -0.19987479 0.09399511
0.14356235 0.033974707 -0.009532218 -0.035077754 -0.048473448 0.11798817 -0.05410451 -0.1151176
0.05664526 0.0844054 -0.030446561 -0.16158265 -0.003334109 0.09457972 0.10888186 0.07247867
0.12908368 -0.16730578 -0.033513907 -0.010288702 0.07834111 -0.017119287 -0.014265439 0.014120847
-0.05293327 0.10643039 0.10448365 0.09828419 -0.07070844 -0.10385801 -0.060305633 0.036299832
-0.08132614 -0.03700064 -0.05770783 0.0053608892 -0.111964226 0.13770516 0.06363716 -0.030417826
-0.042560913 -0.07763516 -0.069573075 0.06521283 0.052570753 0.013790284 -0.0006350421 0.025491128
0.0065887445 -0.0038668516 0.009581791 0.05388655 -0.036790956 -0.042673938 -0.14323239 0.04246819
0.13293388 0.020276386 -0.023810754 -0.117042005 -0.10194508 -0.017635671 0.093449585 -0.011828784
0.014382413 0.11495301 -0.05681108 -0.09009782 -0.034274876 -0.124056704 0.060037147 -0.0030931714
0.07768161 -0.06717893 -0.016784798 -0.06474024 0.049961664 -0.112186335 -0.04943777 0.096454844
-0.07166273 0.21166764 0.06591333 -0.0017888534 0.044928093 -0.06694104 -0.05444738 0.023735495
0.050997406 0.168523 0.09181695 -0.08211298 -0.061244227 0.08634635 0.00046458296 0.10618025
0.031491574 0.012251498 -0.1262919 0.044337604 -0.1428715 -0.08096485 -0.033729356 -0.07787611
-0.02105291 0.07454877 0.103273004 -0.020623285 0.09583893 -0.05891063 0.26073292 0.027929163
0.08135437 -0.06936945 -0.008111645 0.011159926 0.09316352 -0.07364227 0.08704316 -0.03943504
-0.13818903 -0.08739965 0.011519071 -0.03478313 0.025454357 0.17549305 0.055335276 0.16438237
0.13303636 0.008707323 -0.054667357 0.04124168 0.12808004 -0.06561687 -0.09097302 0.027433055
0.0648735 -0.20654735 -0.18917556 -0.031621594 0.033501416 -0.036508407 0.025166623 -0.07004855
-0.014349108 -0.02034048 -0.061048266 0.07769102 0.03725639 0.03165067 -0.1352589 -0.17499979
0.0008552999 -0.04763172 -0.013750924 -0.003019296 0.072132625 -0.017805764 0.05263293 -0.04178822
-0.05604153 -0.00041937994 -0.17698441 0.047156423 -0.13524355 0.0013331043 -0.08413963 -0.017459536
-0.1169377 0.059669852 -0.045831636 0.12347814 -0.03537318 -0.014838303 0.0050510983 0.10083036
-0.007014092 -0.0021317832 0.016513022 0.030169556 0.023124637 -0.11419803 0.0022473594 0.025184507
00000000: a071 3a3d 749d bd3d 0fd1 b23a ce16 743d
00000010: aea9 123e b9e5 f93c 272d 133d 7b02 81bd
00000020: 1c86 4d3e c94e 193d e4b4 b7bc b119 8dbc
00000030: 9414 09bd e60c 12be cd70 25bd 4d4b dfbc
00000040: 18d8 fcbd 7cce 053e aed2 c83c 7d5f e43c
00000050: 4bd6 133e 5bba 8cbc 0491 b33d 65ec 153d
00000060: 2638 3a3d 3386 da3d 6c53 443b dbfc d5bd
00000070: cca6 9ebd 116d 7a3d 64ef e83c 5703 403d
00000080: b737 d9bd 26eb 7d3d db46 93bd 75ac 363c
00000090: ec25 433e fcf4 4b3d cdfb 413e ddf7 a03b
000000a0: 3299 aebc 5b74 ec3c d4be 0c3e 2188 1fbd
000000b0: cbc7 0b3d 7ce4 aa3d 928f 85bb 4dfe 16bc
000000c0: b11d 543d 663f 9a3d 142f ef3b 0dc7 49be
000000d0: 563a 2f3d b5b7 eebd d04e 0d3e 1e3a 943d
000000e0: a311 813c 8050 b9bd e4ee 6dbd 3972 b4bd
000000f0: b67d b1bd 4bff 9fbd 26d5 fabd fb29 4f3d
00000100: ef5f df3a d3a1 bbbd 026c 2dbd 2859 303d
00000110: 42c1 41bd 0ffa fd3d faab 4cbe 8280 c03d
00000120: 0202 133e 1029 0b3d 052d 1cbc b1ad 0fbd
00000130: 188c 46bd c8a3 f13d b19c 5dbd c7c2 ebbd
00000140: dc04 683d bddc ac3d 116b f9bc ec75 25be
00000150: 1181 5abb 03b3 c13d 74fd de3d b26f 943d
00000160: 832e 043e 3552 2bbe e145 09bd f291 28bc
00000170: 4e71 a03d bf3d 8cbc 96b9 69bc 205b 673c
00000180: 8ed0 58bd 2df8 d93d 86fb d53d 3949 c93d
00000190: 96cf 90bd 82b3 d4bd 0a03 77bd 22af 143d
000001a0: 528e a6bd fc8d 17bd 0c5f 6cbd 66aa af3b
000001b0: 804d e5bd 9502 0d3e 3354 823d ce2e f9bc
000001c0: 5a54 2ebd 2fff 9ebd 547c 8ebd 4e8e 853d
000001d0: 6e54 573d a5f0 613c f478 26ba c5d2 d03c
000001e0: 65e6 d73b 016b 7dbb f2fc 1c3c 25b8 5c3d
000001f0: 1db2 16bd deca 2ebd 83ab 12be 20f3 2d3d
00000200: d21f 083e aa1a a63c c50e c3bc b8b3 efbd
00000210: 95c8 d0bd af78 90bc 7f62 bf3d 84cd 41bc
00000220: 36a4 6b3c 7c6c eb3d bcb2 68bd 3585 b8bd
00000230: d063 0cbd 7111 febd 83e9 753d ceb6 4abb
00000240: 8917 9f3d 1b95 89bd 4680 89bc 8896 84bd
00000250: 9aa4 4c3d f3c1 e5bd 427f 4abd 1e8a c53d
00000260: e9c3 92bd 67bf 583e 91fd 863d f677 eaba
00000270: 8506 383d 6218 89bd 3704 5fbd f170 c23c
00000280: a8e2 503d 4b91 2c3e 860a bc3d da2a a8bd
00000290: 3adb 7abd 5bd6 b03d 4593 f339 0875 d93d
000002a0: 4ffd 003d 82ba 483c aa52 01be 599b 353d
000002b0: e84c 12be e6d0 a5bd cb27 0abd 837d 9fbd
000002c0: 2777 acbc 07ad 983d cc80 d33d 2af2 a8bc
000002d0: 3347 c43d 464c 71bd c97e 853e b3cb e43c
000002e0: 1f9d a63d 9211 8ebd b4e6 04bc 1fd8 363c
000002f0: 84cc be3d c2d1 96bd af43 b23d a386 21bd
00000300: 6d81 0dbe 96fe b2bd 7cba 3c3c c178 0ebd
00000310: a885 d03c 73b4 333e 3ea7 623d da53 283e
00000320: af3a 083e 29a9 0e3c e1ea 5fbd 09ed 283d
00000330: 6a27 033e 2362 86bd 1050 babd 49bb e03c
00000340: 66dc 843d 2681 53be 3db7 41be a585 01bd
00000350: c838 093d d789 15bd 3c2a ce3c 9d75 8fbd
00000360: 8518 6bbc 14a1 a6bc bf0d 7abd 781c 9f3d
00000370: 289a 183d 22a4 013d 4f81 0abe 2533 33be
00000380: 3436 603a 7a19 43bd 8e4b 61bc 62df 45bb
00000390: 45ba 933d 65dd 91bc a195 573d 202a 2bbd
000003a0: ce8b 65bd 39e0 dbb9 673b 35be 1827 413d
000003b0: 497d 0abe 8fbb ae3a 6651 acbd 4d07 8fbc
000003c0: 087d efbd 6068 743d f4b9 3bbd 1be2 fc3d
000003d0: 78e3 10bd 5b1c 73bc af83 a53b 2680 ce3d
000003e0: 78d6 e5bb 63b5 0bbb 5146 873c 2526 f73c
000003f0: e16f bd3c a8e0 e9bd 6f48 133b bd4f ce3c

network_body._body_endoder.seq_layers.2.bias f4 [128]
0.0 0.0 0.0 0.0 0.0 0.0 0.0 0.0
0.0 0.0 0.0 0.0 0.0 0.0 0.0 0.0
0.0 0.0 0.0 0.0 0.0 0.0 0.0 0.0
0.0 0.0 0.0 0.0 0.0 0.0 0.0 0.0
0.0 0.0 0.0 0.0 0.0 0.0 0.0 0.0
0.0 0.0 0.0 0.0 0.0 0.0 0.0 0.0
0.0 0.0 0.0 0.0 0.0 0.0 0.0 0.0
0.0 0.0 0.0 0.0 0.0 0.0 0.0 0.0
0.0 0.0 0.0 0.0 0.0 0.0 0.0 0.0
0.0 0.0 0.0 0.0 0.0 0.0 0.0 0.0
0.0 0.0 0.0 0.0 0.0 0.0 0.0 0.0
0.0 0.0 0.0 0.0 0.0 0.0 0.0 0.0
0.0 0.0 0.0 0.0 0.0 0.0 0.0 0.0
0.0 0.0 0.0 0.0 0.0 0.0 0.0 0.0
0.0 0.0 0.0 0.0 0.0 0.0 0.0 0.0
0.0 0.0 0.0 0.0 0.0 0.0 0.0 0.0
00000000: 0000 0000 0000 0000 0000 0000 0000 0000
00000010: 0000 0000 0000 0000 0000 0000 0000 0000
00000020: 0000 0000 0000 0000 0000 0000 0000 0000
00000030: 0000 0000 0000 0000 0000 0000 0000 0000
00000040: 0000 0000 0000 0000 0000 0000 0000 0000
00000050: 0000 0000 0000 0000 0000 0000 0000 0000
00000060: 0000 0000 0000 0000 0000 0000 0000 0000
00000070: 0000 0000 0000 0000 0000 0000 0000 0000
00000080: 0000 0000 0000 0000 0000 0000 0000 0000
00000090: 0000 0000 0000 0000 0000 0000 0000 0000
000000a0: 0000 0000 0000 0000 0000 0000 0000 0000
000000b0: 0000 0000 0000 0000 0000 0000 0000 0000
000000c0: 0000 0000 0000 0000 0000 0000 0000 0000
000000d0: 0000 0000 0000 0000 0000 0000 0000 0000
000000e0: 0000 0000 0000 0000 0000 0000 0000 0000
000000f0: 0000 0000 0000 0000 0000 0000 0000 0000
00000100: 0000 0000 0000 0000 0000 0000 0000 0000
00000110: 0000 0000 0000 0000 0000 0000 0000 0000
00000120: 0000 0000 0000 0000 0000 0000 0000 0000
00000130: 0000 0000 0000 0000 0000 0000 0000 0000
00000140: 0000 0000 0000 0000 0000 0000 0000 0000
00000150: 0000 0000 0000 0000 0000 0000 0000 0000
00000160: 0000 0000 0000 0000 0000 0000 0000 0000
00000170: 0000 0000 0000 0000 0000 0000 0000 0000
00000180: 0000 0000 0000 0000 0000 0000 0000 0000
00000190: 0000 0000 0000 0000 0000 0000 0000 0000
000001a0: 0000 0000 0000 0000 0000 0000 0000 0000
000001b0: 0000 0000 0000 0000 0000 0000 0000 0000
000001c0: 0000 0000 0000 0000 0000 0000 0000 0000
000001d0: 0000 0000 0000 0000 0000 0000 0000 0000
000001e0: 0000 0000 0000 0000 0000 0000 0000 0000
000001f0: 0000 0000 0000 0000 0000 0000 0000 0000

action_model._continuous_distribution.log_sigma f4 [1, 2]
0.0 0.0
00000000: 0000 0000 0000 0000

action_model._continuous_distribution.mu.weight f4 [2, 128]
-0.001026093 0.013564773 -0.010080682 0.0184983 -0.038252663 -0.025633773 0.00023761322 0.0075191357
-0.03703368 0.004964435 0.008600248 -0.0010967631 -0.0051351204 0.002691562 0.030937115 -0.009769268
-0.017441263 0.0014790925 0.004373586 0.01431401 -0.008380876 -0.045986537 0.03210216 -0.013115629
0.014944344 0.020654691 0.031019378 -0.0024172384 -0.013721652 -0.0090930015 0.007895543 0.006695085
0.0036913853 0.017261937 0.0027258114 0.005899502 0.00025611775 -0.019968284 -0.045127407 0.007493492
-0.030355914 0.018520204 -0.0021701455 -0.024908911 0.026279962 -0.0016445849 -0.008128392 0.021466777
0.035554465 -2.0151885e-05 0.011859103 -0.029238213 -0.0053178454 -0.017483486 -0.0034625658 0.019028349
0.045976844 -0.0010397712 -0.011687006 0.015618818 -0.001759599 0.003310306 -0.040419396 -0.020183204
0.010353398 -0.012867783 -0.0038022776 0.015978578 0.04472917 -0.00040097613 0.013394457 -0.027898205
-0.015913261 -0.018248668 -0.008271704 0.021503374 -0.027660275 0.028706303 -0.029097278 -0.019604387
-0.01204387 0.008176844 -0.01682858 -0.0045108697 -0.022506872 -0.008011435 0.021423398 0.00068158685
0.015599834 0.020939583 0.011063454 -0.0061741 0.031211352 0.026864892 -0.023243638 -0.012929318
0.005173029 -0.010939757 -0.0035380297 -0.008989592 -0.020934552 -0.02540592 0.028064786 -0.01900054
-0.0014240685 0.024526535 -0.0009242832 -0.020610617 0.01452963 -0.023443682 0.014471459 -0.031945243
0.001501491 0.025256434 0.0097273085 0.022461973 0.0018555208 0.008558231 -0.014708491 0.020410124
0.0052608517 -0.029070506 0.018970143 0.013101633 -0.016561238 0.02571925 -0.02905257 0.022108855
-0.0003720843 0.008006328 -0.023546692 0.003213852 -0.014240301 -0.024444561 -0.008207248 0.013971487
-0.003319037 -0.0036795957 0.015905125 0.00025041896 -0.017675221 -0.0075363615 -0.018710142 -0.0028811146
0.020541271 -0.02920863 0.019060716 0.004103166 0.040616635 0.007859876 0.033448264 0.013867398
-0.03478772 -0.024254814 -0.028169317 -0.030927805 0.002827696 0.011713463 0.028289199 0.01287433
-0.027352769 0.010057115 -0.007090383 0.0030957037 -0.010500006 0.0031749445 0.0032085117 0.008534312
0.011812159 -0.004929761 -0.007657463 0.03818787 -0.017129181 -0.029302726 -0.0026411682 0.034189284
-0.013039716 -0.01351821 -0.0079664625 0.0009272205 -0.016276633 0.030693574 -0.003963056 -0.014134357
0.00050694734 0.0135926 0.011049955 0.0033607066 -0.022225676 -0.00050005753 0.011757258 -0.0161089
-0.024752026 0.021272356 -0.029635837 -0.008745608 8.581793e-05 0.00021531813 -0.016024208 0.00015905102
-0.004160006 0.011483324 0.006164394 -0.0050697974 0.020584933 -0.004491746 -0.017327867 0.012389013
-0.034943473 0.0353476 -0.0281548 0.03941553 0.013601745 -0.017129576 -0.035454936 -0.029864583
0.014020492 -0.0294869 0.0051573934 -0.0015508928 0.008902716 0.03559519 -5.5582386e-05 0.0013471184
-0.011228062 -0.0014297436 0.0052834786 0.0075814473 0.0035891011 -0.000102683145 0.010691765 0.0449904
-0.021592073 0.0057881786 0.012809932 0.021561692 -0.007957573 -0.037019517 -0.011379215 -0.003514028
0.001999649 0.011379847 -0.005133348 0.012792516 -0.023821965 -0.0005027821 0.011383185 0.004922626
-0.003064576 -0.045141973 -0.027897334 -0.02253244 -0.014441262 0.015605588 0.021237824 0.004297555
00000000: f87d 86ba c83e 5e3c 7229 25bc bf89 973c
00000010: d3ae 1cbd ebfd d1bc d027 7939 1563 f63b
00000020: a1b0 17bd b3ac a23b 0ee8 0c3c 43c1 8fba
00000030: 8344 a8bb eb64 303b d56f fd3c 480f 20bc
00000040: fbe0 8ebc 1cde c13a 4c50 8f3b 4f85 6a3c
00000050: f14f 09bc 615c 3cbd 8e7d 033d efe2 56bc
00000060: 1fd9 743c 0734 a93c 5a1c fe3c 886a 1ebb
00000070: c8d0 60bc d0fa 14bc 4f5c 013c 7262 db3b
00000080: 2beb 713b e868 8d3c 87a3 323b 9c50 c13b
00000090: 8b47 8639 8794 a3bc 84d7 38bd f88b f53b
000000a0: f7ac f8bc afb7 973c 0039 0ebb c60d ccbc
000000b0: 1349 d73c 1d8f d7ba f22c 05bc 18db af3c
000000c0: 8fa1 113d d80b a9b7 af4c 423c fa84 efbc
000000d0: 5241 aebb 8739 8fbc 37ec 62bb 57e1 9b3c
000000e0: 3752 3c3d ef48 88ba db7a 3fbc 12e6 7f3c
000000f0: 58a2 e6ba b8f1 583b cf8e 25bd 3f57 a5bc
00000100: 4ca1 293c 65d3 52bc a22f 79bb 82e5 823c
00000110: ef35 373d 1b3a d2b9 6d74 5b3c c78a e4bc
00000120: 875c 82bc 3b7e 95bc 0b86 07bc d827 b03c
00000130: cd97 e2bc 7b29 eb3c 6a5d eebc 6199 a0bc
00000140: a753 45bc 2bf8 053c 17dc 89bc ebcf 93bb
00000150: 5560 b8bc 6542 03bc 1f80 af3c 85ac 323a
00000160: 7296 7f3c 7d89 ab3c 7d43 353c 1b50 cabb
00000170: f3ae ff3c c313 dc3c 7169 bebc 7dd5 53bc
00000180: 8382 a93b ab3c 33bc 4ade 67bb 1549 13bc
00000190: f07e abbc 1320 d0bc 1fe8 e53c 05a7 9bbc
000001a0: cfa7 baba dfeb c83c 984b 72ba 99d7 a8bc
000001b0: af0d 6e3c f70c c0bc b319 6d3c 04d9 02bd
000001c0: adcd c43a 95e6 ce3c 4a5f 1f3c 2c02 b83c
000001d0: f234 f33a d337 0c3c e2fb 70bc 2233 a73c
000001e0: 3963 ac3b 4525 eebc 4667 9b3c 3ba8 563c
000001f0: 6fab 87bc 2db1 d23c a8ff edbc a11d b53c
00000200: 4f14 c3b9 f92c 033c fee4 c0bc 7d9f 523b
00000210: 2750 69bc f63f c8bc b177 06bc aae8 643c
00000220: 3384 59bb 5f25 71bb 774b 823c aa4a 8339
00000230: a0cb 90bc 95f3 f6bb 0346 99bc 15d1 3cbb
00000240: 2b46 a83c f046 efbc 3825 9c3c da73 863b
00000250: a15d 263d b6c6 003c 0c01 093d 1534 633c
00000260: 917d 0ebd 08b2 c6bc 57c3 e6bc 4f5c fdbc
00000270: de50 393b d3e9 3f3c c0be e73c dbee 523c
00000280: ea12 e0bc 99c6 243c 7256 e8bb 4ae1 4a3b
00000290: 3808 2cbc bb12 503b e545 523b 80d3 0b3c
000002a0: c987 413c d589 a1bb 75eb fabb e26a 1c3d
000002b0: 7f52 8cbc 450c f0bc 7317 2dbb 100a 0c3d
000002c0: 88a4 55bc 7b7b 5dbc c485 02bc b710 733a
000002d0: 9356 85bc 1771 fb3c 86dc 81bb ca93 67bc
000002e0: a9e4 043a 7fb3 5e3c df0a 353c 4d3f 5c3b
000002f0: 9f12 b6bc 4b16 03ba 84a1 403c d0f6 83bc
00000300: c3c4 cabc 5d43 ae3c dbc6 f2bc bd49 0fbc
00000310: 26f9 b338 05c7 6139 3345 83bc efc6 2639
00000320: a950 88bb 8d24 3c3c affe c93b 8b20 a6bb
00000330: bca1 a83c 7f2f 93bb 2cf3 8dbc 49fb 4a3c
00000340: e320 0fbd a5c8 103d e5a4 e6bc 2e72 213d
00000350: dad9 5e3c 5353 8cbc 3239 11bd 92a6 f4bc
00000360: 35b6 653c 838e f1bc 5aff a83b 5447 cbba
00000370: b3dc 113c 43cc 113d 2221 69b8 cb91 b03a
00000380: e8f5 37bc 3c66 bbba 0821 ad3b ca6d f83b
00000390: 2037 6b3b 9857 d7b8 832c 2f3c db47 383d
000003a0: dce1 b0bc c3aa bd3b c0e0 513c 25a2 b03c
000003b0: 7b60 02bc c7a1 17bd e36f 3abc 9b4b 66bb
000003c0: 8b0c 033b 8a72 3a3c a535 a8bb b397 513c
000003d0: 4826 c3bc 23cd 03ba 8a80 3a3c fb4d a13b
000003e0: 0ed7 48bb cae6 38bd f388 e4bc f495 b8bc
000003f0: 0b9b 6cbc 95ae 7f3c f2fa ad3c 81d2 8c3b

action_model._continuous_distribution.mu.bias f4 [2]
0.0 0.0
00000000: 0000 0000 0000 0000
