results/ia1/PlayerScript/checkpoint.pt (torch, 156727 bytes, 12 tensors)

network_body._body_endoder.seq_layers.0.weight f4 [128, 13]
000000 8a 0b 9e bd 28 6b c9 ba 7a 79 c1 be e1 5e e1 3d
       -0.07717045 -0.0015367018 -0.37787992 0.11004425
000010 2d 64 43 be 30 18 95 bc 35 0d 0c bf e5 0c 84 3e
       -0.19081183 -0.01820001 -0.5470765 0.25791088
000020 4e f2 36 3e 33 48 04 3e 11 67 78 3e 0d 85 32 3e
       0.1786587 0.12918167 0.24258067 0.17433567
000030 8c 7a 11 be 4e 24 eb bd f5 90 02 3d a2 f2 f4 bd
       -0.14206904 -0.11481534 0.031876523 -0.11960341
000040 8d f7 f6 be d0 b2 de 3d 7f 96 a6 be 7e ef 51 3e
       -0.4823574 0.108739495 -0.32536694 0.20501515
000050 b6 0c 8c 3e 22 e7 b5 bc 2f 28 29 3d 85 a7 bc 3d
       0.27353448 -0.02220494 0.041298088 0.09211639
000060 d7 b7 2a be 9e 6e ca 3c 39 30 37 3c e1 88 23 3f
       -0.16671692 0.02471095 0.011180931 0.63880736
000070 de 16 51 3e 95 c0 a3 be 27 50 a8 bd 31 65 72 be
       0.2041888 -0.31982866 -0.08218413 -0.23671414
000080 8c 85 1d be 6b c7 8e 3e 58 c7 e1 be 26 d6 74 3d
       -0.15382975 0.2788652 -0.440974 0.05977454
000090 cf 9d a4 3e f8 c8 5b be 5a 23 33 bf 3b a7 b0 be
       0.32151648 -0.21463382 -0.6997582 -0.34502587
0000a0 ce cc 17 bc 8e 0a 13 3f c3 d1 a4 bd 05 3e 53 3e
       -0.009265138 0.5743798 -0.080478214 0.20629127
0000b0 f2 c4 bd 3e 25 4c f8 be 9b cb 4a bd e2 33 da bd
       0.3706432 -0.48495594 -0.04951058 -0.10654427
0000c0 fc a0 77 be 65 ca 49 be e3 1e 6d 3d f8 45 88 3e
       -0.24182504 -0.19706114 0.057890784 0.26615882
0000d0 b2 06 21 3d b4 8a ea be ca 90 0e 3d 0d 01 50 3e
       0.039313026 -0.45808947 0.03480605 0.20312901
0000e0 8a f7 3f 3d cb ba bf 3d 9c 30 7c 3d b5 c6 99 be
       0.04686693 0.093618 0.061569795 -0.30034414
0000f0 95 c3 a0 bd 85 14 50 be 52 63 2b 3e f0 20 dc 3e
       -0.07849804 -0.20320328 0.16737106 0.4299388
000100 bf c6 00 be 4f 3f 80 3e d4 05 8c 3e 29 41 81 3e
       -0.12575816 0.250483 0.27348197 0.25245026
000110 be 00 47 be dc 0f 7a 3e 2f df 9a be 85 17 22 be
       -0.19433877 0.24420112 -0.302484 -0.15829284
000120 3a 0e 20 3e 6c 95 df 3d 2b 16 c1 bd 9c 67 55 3e
       0.15630427 0.10917172 -0.09428056 0.20840305
000130 d8 84 fa bd 2c ad fb bc ea 61 21 bf ca 9f cd 3d
       -0.12232369 -0.030722223 -0.6304003 0.10040243
000140 d2 13 1e 3e 0a 23 05 bf 82 cc 22 be 95 ee ba 3d
       0.15437248 -0.5200659 -0.15898326 0.09127537
000150 26 bb ea 3e b1 7c 34 3d c4 5c c4 bd cc 31 17 3e
       0.45845908 0.044064227 -0.09588006 0.1476509
000160 50 48 04 be 1c ea 7b bb 48 75 10 3e 67 28 83 be
       -0.1291821 -0.00384391 0.14107239 -0.25616762
000170 a0 bb 9d 3e b8 e9 cd 3e 59 76 0b bf a4 25 97 be
       0.3080721 0.40217376 -0.5447746 -0.29520905
000180 31 bd c3 3c 03 4b 13 be ae 71 2d bd e6 5f e4 bc
       0.023893924 -0.14384083 -0.04234474 -0.02787776
000190 02 5b 34 3d 96 52 87 3e 7b e5 07 be e3 d2 79 3e
       0.044032104 0.26430196 -0.13271134 0.24396853
0001a0 5a 3a 1e 3e d8 3f fb 3d 00 68 db 3e a5 92 05 bf
       0.15451947 0.122680366 0.42852783 -0.52176887
0001b0 0b 7e 0b bf 5c 4b db 3e 2a 29 50 be 9b 22 ea 3e
       -0.544892 0.42830932 -0.20328203 0.45729527
0001c0 c2 f8 9a 3e c2 b7 00 bf 98 e0 0f 3e 67 94 8b 3d
       0.30267912 -0.5028039 0.1405052 0.06815415
0001d0 fe fe 16 be 1f 10 97 be f5 d9 0b be a7 2f 75 3e
       -0.1474571 -0.29504487 -0.13657363 0.23943959
0001e0 19 ed 98 3d 7f 81 82 3e 82 57 2e bf 48 17 1e bf
       0.07467098 0.25489423 -0.68102276 -0.61754274
0001f0 6b b7 6b bd f0 ef 30 be 92 6b 37 3e 99 cc 3e bf
       -0.057547968 -0.17279029 0.17912129 -0.7453094
000200 2b c0 9a bc 63 c9 ae be c6 b7 35 bf 1d 03 9c 3d
       -0.018890461 -0.3413802 -0.7098354 0.07617781
000210 29 00 cd 3e ec fa ff be e1 ea 0f bf 41 27 87 3d
       0.40039185 -0.49996126 -0.5621777 0.06599284
000220 62 99 0f be b4 af 9f 3d 65 66 1a bf b7 17 d4 3e
       -0.14023355 0.077971846 -0.6031249 0.41424343
000230 9f 02 66 be ce 62 25 be 03 8a f9 3d 71 39 c7 3e
       -0.22461937 -0.16150972 0.12184527 0.38911012
000240 a9 05 c3 3d 1c 1d f4 bd 0b 31 15 3e a6 ba 70 be
       0.09522564 -0.11919615 0.1456949 -0.235087
000250 59 07 8a 3c 99 9d 23 3e 3e f8 79 3d 11 22 9c 3e
       0.016849207 0.15978087 0.061027758 0.3049474
000260 fd 91 a4 3e a9 df 22 3f 71 fa 4d be 26 50 e7 3d
       0.3214263 0.6362253 -0.20115067 0.11294584
000270 48 11 4e 3e da ea a2 3e b2 98 f6 bd b2 b0 e5 3e
       0.2012378 0.31819803 -0.12040843 0.4486137
000280 f5 96 9f be f0 ab 80 be bd 39 86 3e a8 51 b0 3e
       -0.3116986 -0.25131178 0.26215926 0.344373
000290 b4 35 82 3d ad a8 1b bd 00 56 11 3d 1b f5 d3 3d
       0.06357899 -0.03800266 0.035482407 0.103494845
0002a0 a4 4c 1e bf 7c 11 26 3e a3 38 36 3f ad 17 a5 bc
       -0.61835694 0.16217607 0.7118017 -0.020152891
0002b0 d7 cf c9 3d 7e b8 90 3c 8c e5 9a be 84 81 79 3e
       0.098540954 0.017666098 -0.30253255 0.24365813
0002c0 fc ac a8 3e 46 a8 e7 be 4a 09 e8 be c0 42 86 be
       0.32944477 -0.4524557 -0.45319587 -0.262228
0002d0 38 23 02 be 70 bd 83 3d 65 a9 57 be 68 a9 cb 3e
       -0.12708747 0.06432617 -0.21060713 0.39777684
0002e0 83 96 df bd 09 4c b5 3d 19 10 96 3e 30 9c b2 be
       -0.1091738 0.08852393 0.29309157 -0.34884787
0002f0 a9 64 aa be 0c 26 26 be de 71 08 bf 93 2e b9 3e
       -0.33279923 -0.16225451 -0.5329875 0.36168346
000300 91 bc c2 be 2c c2 ef 3d 71 9a 97 3d d1 0f e6 3e
       -0.3803449 0.11706957 0.07402504 0.44933942
000310 e9 11 6b 3e 2d eb 38 3e 00 94 c2 be 6a 8c 35 3e
       0.22956051 0.18058462 -0.3800354 0.17729345
000320 17 55 d2 be ff d9 0f 3d 71 24 e0 be 16 83 9b bd
       -0.41080543 0.035120007 -0.43777803 -0.07593362
000330 61 30 33 bd c0 ba e4 3d 46 6c 5f be 22 01 e0 3e
       -0.04374731 0.11168432 -0.21818647 0.43750864
000340 94 71 8c bd 32 b8 72 3e f1 24 63 bb 45 dc e4 bd
       -0.06857601 0.23703077 -0.003465947 -0.111748256
000350 8a 9d af 3e 9a 37 35 be f8 83 12 bc c3 11 3c bd
       0.3429988 -0.17696992 -0.008942597 -0.045915376
000360 08 cb c3 bb 8f 7f d3 bd ef a4 0c be 8b 36 b8 bd
       -0.005975131 -0.10327064 -0.13734792 -0.08994778
000370 81 f2 a8 3e 57 28 00 3f df b4 b0 3d 4a 31 5c be
       0.32997516 0.50061554 0.086282484 -0.21503177
000380 d8 2f fc bd a0 56 dc 3d 7c 2a 0a bf 15 d9 7f 3e
       -0.12313813 0.1075871 -0.53971076 0.24985154
000390 09 f7 b4 3e fd 41 a5 3e 26 9e b3 be 3a 69 23 3e
       0.35344723 0.32276908 -0.35081595 0.1595811
0003a0 77 c5 98 bd 58 9b 30 3c 30 15 c9 bd 5e 45 2b 3e
       -0.074595384 0.010779224 -0.09818494 0.1672568
0003b0 f3 cb 7b be 76 42 33 3e 7c 86 fd be bb be 40 be
       -0.24589519 0.17505822 -0.49516666 -0.18822758
0003c0 51 d4 65 3e 6a 17 65 be 7a de 31 bd 1b f8 66 3e
       0.22444274 -0.22372213 -0.04342506 0.22555582
0003d0 d4 44 b2 be 37 27 c5 bc d6 ac 4d 3e b7 11 0c be
       -0.34818137 -0.02406655 0.20085463 -0.13678633
0003e0 69 c6 55 3c c8 47 b7 bd 34 9f 93 be 25 1f aa be
       0.013047793 -0.08949238 -0.288324 -0.33226886
0003f0 4d 3c 55 bd 9d 03 c4 bd e0 47 31 3d 10 38 bd 3b
       -0.05205946 -0.09571002 0.043281436 0.0057745054

network_body._body_endoder.seq_layers.0.bias f4 [128]
000000 00 00 00 00 00 00 00 00 00 00 00 00 00 00 00 00
       0.0 0.0 0.0 0.0
000010 00 00 00 00 00 00 00 00 00 00 00 00 00 00 00 00
       0.0 0.0 0.0 0.0
000020 00 00 00 00 00 00 00 00 00 00 00 00 00 00 00 00
       0.0 0.0 0.0 0.0
000030 00 00 00 00 00 00 00 00 00 00 00 00 00 00 00 00
       0.0 0.0 0.0 0.0
000040 00 00 00 00 00 00 00 00 00 00 00 00 00 00 00 00
       0.0 0.0 0.0 0.0
000050 00 00 00 00 00 00 00 00 00 00 00 00 00 00 00 00
       0.0 0.0 0.0 0.0
000060 00 00 00 00 00 00 00 00 00 00 00 00 00 00 00 00
       0.0 0.0 0.0 0.0
000070 00 00 00 00 00 00 00 00 00 00 00 00 00 00 00 00
       0.0 0.0 0.0 0.0
000080 00 00 00 00 00 00 00 00 00 00 00 00 00 00 00 00
       0.0 0.0 0.0 0.0
000090 00 00 00 00 00 00 00 00 00 00 00 00 00 00 00 00
       0.0 0.0 0.0 0.0
0000a0 00 00 00 00 00 00 00 00 00 00 00 00 00 00 00 00
       0.0 0.0 0.0 0.0
0000b0 00 00 00 00 00 00 00 00 00 00 00 00 00 00 00 00
       0.0 0.0 0.0 0.0
0000c0 00 00 00 00 00 00 00 00 00 00 00 00 00 00 00 00
       0.0 0.0 0.0 0.0
0000d0 00 00 00 00 00 00 00 00 00 00 00 00 00 00 00 00
       0.0 0.0 0.0 0.0
0000e0 00 00 00 00 00 00 00 00 00 00 00 00 00 00 00 00
       0.0 0.0 0.0 0.0
0000f0 00 00 00 00 00 00 00 00 00 00 00 00 00 00 00 00
       0.0 0.0 0.0 0.0
000100 00 00 00 00 00 00 00 00 00 00 00 00 00 00 00 00
       0.0 0.0 0.0 0.0
000110 00 00 00 00 00 00 00 00 00 00 00 00 00 00 00 00
       0.0 0.0 0.0 0.0
000120 00 00 00 00 00 00 00 00 00 00 00 00 00 00 00 00
       0.0 0.0 0.0 0.0
000130 00 00 00 00 00 00 00 00 00 00 00 00 00 00 00 00
       0.0 0.0 0.0 0.0
000140 00 00 00 00 00 00 00 00 00 00 00 00 00 00 00 00
       0.0 0.0 0.0 0.0
000150 00 00 00 00 00 00 00 00 00 00 00 00 00 00 00 00
       0.0 0.0 0.0 0.0
000160 00 00 00 00 00 00 00 00 00 00 00 00 00 00 00 00
       0.0 0.0 0.0 0.0
000170 00 00 00 00 00 00 00 00 00 00 00 00 00 00 00 00
       0.0 0.0 0.0 0.0
000180 00 00 00 00 00 00 00 00 00 00 00 00 00 00 00 00
       0.0 0.0 0.0 0.0
000190 00 00 00 00 00 00 00 00 00 00 00 00 00 00 00 00
       0.0 0.0 0.0 0.0
0001a0 00 00 00 00 00 00 00 00 00 00 00 00 00 00 00 00
       0.0 0.0 0.0 0.0
0001b0 00 00 00 00 00 00 00 00 00 00 00 00 00 00 00 00
       0.0 0.0 0.0 0.0
0001c0 00 00 00 00 00 00 00 00 00 00 00 00 00 00 00 00
       0.0 0.0 0.0 0.0
0001d0 00 00 00 00 00 00 00 00 00 00 00 00 00 00 00 00
       0.0 0.0 0.0 0.0
0001e0 00 00 00 00 00 00 00 00 00 00 00 00 00 00 00 00
       0.0 0.0 0.0 0.0
0001f0 00 00 00 00 00 00 00 00 00 00 00 00 00 00 00 00
       0.0 0.0 0.0 0.0

network_body._body_endoder.seq_layers.2.weight f4 [128, 128]
000000 f9 d8 8b bd a1 d6 b9 3d a3 9d 80 bc 88 d3 08 be
       -0.068284936 0.0907414 -0.015700167 -0.13361943
000010 39 05 67 3d cb 62 22 bd 69 8b 14 bd 75 82 37 3c
       0.056401465 -0.039644998 -0.036265764 0.011200537
000020 21 6d 86 bb a7 0c 86 bd 9f 93 1d be f2 f6 93 3e
       -0.0041023646 -0.06545382 -0.15388344 0.28899342
000030 64 c7 13 bd 49 5e 97 3c d5 71 99 3c 1d 88 dd bc
       -0.036078826 0.018477576 0.018731037 -0.027042443
000040 43 89 f5 bd 50 43 96 bd d6 80 d5 3d 5f 58 10 be
       -0.11989071 -0.073370576 0.10424964 -0.14096211
000050 d8 fc 98 bd bc b6 d6 3b a0 99 97 bc 73 1c 98 bd
       -0.07470101 0.0065525454 -0.018505871 -0.07427301
000060 63 cc e0 3d c5 eb 9c bc 3f 4a 03 3d 64 8f 47 3d
       0.10976484 -0.019155392 0.03205323 0.048720732
000070 7b 85 3f bd 2f 9b 8e bd 1a a3 86 bd b2 27 21 bd
       -0.046758156 -0.06963193 -0.06574078 -0.039344497
000080 4a e8 91 bd 5a 44 b3 3d 04 bd 3c be 14 bf 43 3e
       -0.07124384 0.087532714 -0.18431479 0.1911586
000090 61 2a bb bd c4 4e b3 3c 8d 4c 2e 3d 8a dc 4f bc
       -0.091389425 0.021888144 0.042553473 -0.012686858
0000a0 8d b0 a8 3d 10 ac 6a 3d 8a 6d a7 3d e8 af 31 bd
       0.082367994 0.057292998 0.0817519 -0.043380648
0000b0 24 a2 d8 bc 7a 9d 3a 3d 65 0b 1f 3d 7e a9 19 bb
       -0.026444502 0.045560338 0.038829226 -0.0023446972
0000c0 a7 57 42 bd 13 25 8b bd 2f b3 49 3e 0d 17 2f 3d
       -0.047446873 -0.06794181 0.1969726 0.042746592
0000d0 e6 f5 ec bd 0a 4f 3e bc 34 d6 4c bd 22 d3 f6 bc
       -0.11570339 -0.011615524 -0.050008968 -0.030129973
0000e0 9a ac 8b bd e1 1a 0f 3e 59 9e 15 3d 67 53 c7 bc
       -0.068200305 0.13975097 0.036527965 -0.024331762
0000f0 80 cc 94 bd 2a 25 79 3c fb b1 b1 bc b8 46 96 bd
       -0.07265568 0.0152066145 -0.021691313 -0.07337707
000100 54 6a 87 bd 7e 7a f9 bd 37 77 a1 bd 31 24 02 3e
       -0.06612077 -0.12181567 -0.078840666 0.12709118
000110 50 59 94 3d be 91 2b 3d 62 88 14 bc 7b aa 2d 3b
       0.072435975 0.041887037 -0.009065719 0.002649932
000120 07 6c 6e b9 90 b1 16 be f7 e9 78 bc b1 e4 a3 3d
       -0.00022737692 -0.14716172 -0.0151925 0.08002604
000130 5e 23 f9 3d db 19 0e 3e 7c 6d 24 3d d2 85 cb 3c
       0.12164949 0.1387705 0.040143475 0.024844084
000140 6d 8b d5 3d 88 32 60 bd ec 75 25 3d 0f 8c 78 3d
       0.10426984 -0.05473569 0.040395662 0.060680445
000150 64 ae 8e 3d c7 e9 20 3e 16 82 d1 bc fc 98 07 be
       0.06966856 0.15714179 -0.025574725 -0.13241953
000160 62 80 ca bd d8 4a 38 3d 6c 75 47 3c 7e bf dc bb
       -0.09887768 0.04499325 0.012173992 -0.006736695
000170 87 17 b6 3c 5d a8 a2 3c 98 67 c1 bd dc 16 12 3d
       0.022228016 0.019855672 -0.09443587 0.03566633
000180 21 c7 32 3e 03 ef e1 3d b7 4e 6b bb 65 24 4d 3d
       0.17458774 0.11031916 -0.0035905072 0.050083537
000190 ba dc 2d bd 2f 49 45 bc 65 2d 93 3c 59 cf 9e 3d
       -0.04244683 -0.012041374 0.017965982 0.07754392
0001a0 16 d0 ab bc df b9 0e 3e 4d 5a c0 bd 6e 5c 44 3d
       -0.020973247 0.13938092 -0.093922235 0.04793971
0001b0 53 e5 3e bd 6e 7a b5 ba 49 12 1d 3e 16 ff b3 3d
       -0.04660542 -0.0013845691 0.15339006 0.08788888
0001c0 29 4a 26 bc 9c e2 d6 3d bb 89 95 bd aa 6d 7d 3d
       -0.010149517 0.10492441 -0.073016606 0.061872162
0001d0 43 63 0f be 9d 18 91 bd 13 b8 01 3d 27 29 ce 3d
       -0.14002709 -0.07084773 0.031669687 0.10066443
0001e0 92 de 80 3c 5f 4e 6f 3d 61 4d 01 3e 75 6e e2 bd
       0.01573113 0.05842435 0.12627174 -0.11056224
0001f0 87 77 83 3d 7d 05 06 3e a1 f7 c0 3e cd 79 10 3d
       0.064192824 0.13088031 0.37688926 0.03527241
000200 6c 60 f7 bd 5f 0e d6 3d 5c 5c 5b 3d c5 04 b1 3d
       -0.12078938 0.1045196 0.053554878 0.08643488
000210 6c 16 f1 bc 7e 10 13 bc ea 88 c8 3c 30 95 11 3b
       -0.029429637 -0.0089761 0.024479348 0.0022214167
000220 34 70 32 3d 2b 2c 5f 3b 47 87 33 3d b2 da ce 3c
       0.043564036 0.0034053426 0.043830182 0.025250766
000230 ca 62 0f bd 14 07 15 bd 5a 1e 17 bc f3 9f db 3d
       -0.035006322 -0.036383703 -0.009223545 0.10723867
000240 6e 37 cc 3d c3 ed ba 3c 7f 47 cf 3d 67 24 e7 bd
       0.0997151 0.022818452 0.10121059 -0.1128624
000250 d3 af 04 3e 7e b4 81 bd bb d9 94 3c 32 2e 51 3e
       0.12957697 -0.06333254 0.018170228 0.20427778
000260 4a 34 9a 3c 92 5d 51 bb 1f 1e ac 3d 3b 08 cc 3c
       0.018823761 -0.0031946641 0.08404183 0.024906268
000270 40 02 50 bd 42 55 9f bd 07 2e 6a bd e3 f9 0b 3e
       -0.050783396 -0.077799335 -0.0571728 0.13669543
000280 01 0e d8 bc d1 63 d3 3c 77 1b 0c be 94 52 42 bd
       -0.026373865 0.025804432 -0.13682352 -0.047442034
000290 fd 0b 47 bc 30 c4 f3 bd c3 ab b4 bd ec f0 db bd
       -0.012148854 -0.11902654 -0.088218234 -0.107393116
0002a0 5a 76 e1 bd 4b 48 25 3e bc 9c bb bd 0f 03 7c bd
       -0.11008902 0.16140859 -0.09160754 -0.061526354
0002b0 4b 94 8a 3d d7 86 c9 3d 52 5c 45 bd 08 92 d7 3c
       0.06766566 0.09840172 -0.048183747 0.02631475
0002c0 8a 9c 72 bd d9 df c1 3a 85 0a ab bc a3 89 df bc
       -0.05923132 0.0014791443 -0.02087904 -0.02728731
0002d0 10 3f 27 3d 46 82 12 bd 3c e5 a8 3d 7b f6 25 3e
       0.040831625 -0.03576877 0.08246848 0.16207306
0002e0 f2 c6 b4 bd a6 bf 25 3e 93 cd cf bc 87 1d 0a 3e
       -0.08827008 0.1618639 -0.02536658 0.13487826
0002f0 6e b3 1e 3e dd 3f 92 bd 0c 82 71 3c 55 72 14 be
       0.15498134 -0.07141087 0.014740478 -0.14496739
000300 f9 f8 23 3e 23 1b 84 3a 0f a9 24 3e a7 cf 12 bd
       0.16012944 0.0010078888 0.16080116 -0.035842564
000310 bc fa 27 3c 77 d5 1a be 74 76 ad bd be fc 13 bd
       0.010252651 -0.15120493 -0.08469859 -0.036129706
000320 e2 ab f0 ba eb 4a 9d 3d 0f 8b 56 bd d4 52 b1 bd
       -0.0018361772 0.07680305 -0.05237871 -0.08658376
000330 00 e0 62 3d a6 ed e6 bd 99 08 91 3d fb d5 ae bd
       0.055389404 -0.112757966 0.07081718 -0.08536907
000340 67 51 91 bd e0 7c 18 bd e9 2e 54 3c 0c 00 d4 bd
       -0.070956044 -0.037228465 0.012950637 -0.103515714
000350 f2 96 02 be 23 36 26 be c5 a6 c4 bd 43 68 fc bd
       -0.12752894 -0.16231589 -0.09602121 -0.12324574
000360 e8 e7 06 3e ac 87 e7 bc 09 ed e5 3b 78 e6 d7 3d
       0.13174403 -0.028262936 0.007016782 0.10542005
000370 b8 df fe bd c8 88 72 bd 79 ce a7 bd 16 42 1a 3d
       -0.12445015 -0.059212476 -0.081936784 0.03766068
000380 e4 77 9e 3c 6a 35 1d bd e7 1f 13 bd c1 ea da bd
       0.019344278 -0.038381018 -0.035919096 -0.10689307
000390 40 94 f6 b8 92 4e 9f 3d c8 39 19 be 15 27 d4 3c
       -0.00011757808 0.07778658 -0.14963448 0.025897542
0003a0 3e ca 73 bc aa 29 33 3d e3 c9 95 3d f1 58 f7 ba
       -0.014879761 0.043740906 0.073138975 -0.0018871111
0003b0 6c 37 78 bd 96 c3 e0 bb f5 f7 d9 3a f7 62 71 3e
       -0.06059973 -0.006859253 0.0016629683 0.23572908
0003c0 2d ab 0b 3d ec 28 0f 3e 09 c7 de ba 82 8c d8 bd
       0.034098793 0.13980454 -0.0016996573 -0.10573675
0003d0 4b da 96 3c 6c e8 b3 bd f6 0f 64 bd a2 08 f4 3d
       0.018414637 -0.08784565 -0.055679284 0.11915709
0003e0 4e b7 bf 3c 72 49 86 3d 55 83 ed 3d 82 0e 0b be
       0.023402836 0.06556977 0.11597315 -0.13579753
0003f0 04 97 8f 3d 68 e0 62 bd c5 5e 3f be 0e 80 0e be
       0.07011226 -0.05538979 -0.18688495 -0.13916036

network_body._body_endoder.seq_layers.2.bias f4 [128]
000000 00 00 00 00 00 00 00 00 00 00 00 00 00 00 00 00
       0.0 0.0 0.0 0.0
000010 00 00 00 00 00 00 00 00 00 00 00 00 00 00 00 00
       0.0 0.0 0.0 0.0
000020 00 00 00 00 00 00 00 00 00 00 00 00 00 00 00 00
       0.0 0.0 0.0 0.0
000030 00 00 00 00 00 00 00 00 00 00 00 00 00 00 00 00
       0.0 0.0 0.0 0.0
000040 00 00 00 00 00 00 00 00 00 00 00 00 00 00 00 00
       0.0 0.0 0.0 0.0
000050 00 00 00 00 00 00 00 00 00 00 00 00 00 00 00 00
       0.0 0.0 0.0 0.0
000060 00 00 00 00 00 00 00 00 00 00 00 00 00 00 00 00
       0.0 0.0 0.0 0.0
000070 00 00 00 00 00 00 00 00 00 00 00 00 00 00 00 00
       0.0 0.0 0.0 0.0
000080 00 00 00 00 00 00 00 00 00 00 00 00 00 00 00 00
       0.0 0.0 0.0 0.0
000090 00 00 00 00 00 00 00 00 00 00 00 00 00 00 00 00
       0.0 0.0 0.0 0.0
0000a0 00 00 00 00 00 00 00 00 00 00 00 00 00 00 00 00
       0.0 0.0 0.0 0.0
0000b0 00 00 00 00 00 00 00 00 00 00 00 00 00 00 00 00
       0.0 0.0 0.0 0.0
0000c0 00 00 00 00 00 00 00 00 00 00 00 00 00 00 00 00
       0.0 0.0 0.0 0.0
0000d0 00 00 00 00 00 00 00 00 00 00 00 00 00 00 00 00
       0.0 0.0 0.0 0.0
0000e0 00 00 00 00 00 00 00 00 00 00 00 00 00 00 00 00
       0.0 0.0 0.0 0.0
0000f0 00 00 00 00 00 00 00 00 00 00 00 00 00 00 00 00
       0.0 0.0 0.0 0.0
000100 00 00 00 00 00 00 00 00 00 00 00 00 00 00 00 00
       0.0 0.0 0.0 0.0
000110 00 00 00 00 00 00 00 00 00 00 00 00 00 00 00 00
       0.0 0.0 0.0 0.0
000120 00 00 00 00 00 00 00 00 00 00 00 00 00 00 00 00
       0.0 0.0 0.0 0.0
000130 00 00 00 00 00 00 00 00 00 00 00 00 00 00 00 00
       0.0 0.0 0.0 0.0
000140 00 00 00 00 00 00 00 00 00 00 00 00 00 00 00 00
       0.0 0.0 0.0 0.0
000150 00 00 00 00 00 00 00 00 00 00 00 00 00 00 00 00
       0.0 0.0 0.0 0.0
000160 00 00 00 00 00 00 00 00 00 00 00 00 00 00 00 00
       0.0 0.0 0.0 0.0
000170 00 00 00 00 00 00 00 00 00 00 00 00 00 00 00 00
       0.0 0.0 0.0 0.0
000180 00 00 00 00 00 00 00 00 00 00 00 00 00 00 00 00
       0.0 0.0 0.0 0.0
000190 00 00 00 00 00 00 00 00 00 00 00 00 00 00 00 00
       0.0 0.0 0.0 0.0
0001a0 00 00 00 00 00 00 00 00 00 00 00 00 00 00 00 00
       0.0 0.0 0.0 0.0
0001b0 00 00 00 00 00 00 00 00 00 00 00 00 00 00 00 00
       0.0 0.0 0.0 0.0
0001c0 00 00 00 00 00 00 00 00 00 00 00 00 00 00 00 00
       0.0 0.0 0.0 0.0
0001d0 00 00 00 00 00 00 00 00 00 00 00 00 00 00 00 00
       0.0 0.0 0.0 0.0
0001e0 00 00 00 00 00 00 00 00 00 00 00 00 00 00 00 00
       0.0 0.0 0.0 0.0
0001f0 00 00 00 00 00 00 00 00 00 00 00 00 00 00 00 00
       0.0 0.0 0.0 0.0

action_model._continuous_distribution.log_sigma f4 [1, 2]
000000 00 00 00 00 00 00 00 00
       0.0 0.0

action_model._continuous_distribution.mu.weight f4 [2, 128]
000000 42 eb b4 3b 1a 0d 8d 3c 9b ec e1 bb 6b 41 b6 bc
       0.005521209 0.017218161 -0.0068946606 -0.02224799
000010 02 d4 4f bc 51 21 39 bc 2a ab 35 3a 47 02 3c bc
       -0.012684824 -0.011299447 0.00069301075 -0.011475152
000020 93 56 03 bd ab 11 0f bc e9 73 07 bd a4 2c c6 bb
       -0.032064985 -0.00873224 -0.033069525 -0.006047802
000030 9b 4b 9b 3c e3 3b 65 bb 94 47 2c 3c 13 91 01 3d
       0.01895695 -0.0034978322 0.010515112 0.031632494
000040 ad c0 e0 bb 24 f0 47 3c 95 c8 75 3c 83 5b 85 3c
       -0.0068589062 0.01220325 0.015001436 0.016278988
000050 6f 4b 6d 3c 67 e9 e5 3b ef f1 53 3c bd c1 35 bc
       0.014483317 0.007016349 0.012936099 -0.011093554
000060 72 6d a4 bc e2 ff 8d 3a d2 59 16 3d d1 33 ae bc
       -0.020071719 0.0010833705 0.036706753 -0.021264942
000070 1f 1a a4 3a e7 a8 9b bb 37 0c 68 3c ef 2b 12 bb
       0.0012519992 -0.0047503593 0.0141630685 -0.0022304018
000080 0e 6f 07 bc fe da 8e 3c 1d d2 a5 3c 13 9d 60 3b
       -0.008266224 0.017438408 0.020241791 0.003427331
000090 c5 17 54 3c b7 dd 40 3c 79 db 06 3d 9f 2d 29 3c
       0.01294512 0.011771611 0.03292415 0.010325818
0000a0 6f b7 ee 3b 41 8a 29 bc 03 7d 19 bb ff 20 3d bd
       0.0072850506 -0.010347904 -0.002342046 -0.046174046
0000b0 81 9d 91 ba 1b 76 bc 39 8f 7e 7a bc 8a f0 f5 3b
       -0.0011109562 0.0003594615 -0.015288963 0.007505481
0000c0 c6 ca aa bc 7f 4c ff 3c c2 b1 54 bb 83 cf 09 bb
       -0.020848643 0.031164406 -0.0032454585 -0.0021028228
0000d0 98 91 75 bc 75 69 e9 3b 6c 59 44 3c 5e bf c5 bc
       -0.014988326 0.007123167 0.01198421 -0.024139103
0000e0 85 9a 82 bc b2 00 79 b9 5d 05 5e bb f3 bf d9 3a
       -0.015942821 -0.0002374675 -0.0033877708 0.0016612991
0000f0 00 9f a0 bc af 56 d7 bb c6 5b a6 bc 9a 7c d0 bb
       -0.019607067 -0.006571613 -0.020307433 -0.00636251
000100 4f 5d 7a bc e1 05 1d bc 57 d3 d9 bc 1b d1 82 bc
       -0.015281036 -0.009583921 -0.026590033 -0.01596885
000110 6f e5 9a bb b3 ea 21 bc b8 47 63 3b 24 0a 17 bb
       -0.0047270576 -0.009882617 0.00346802 -0.0023046816
000120 0a 12 8a bb df 46 b2 bb 3a 5d 2d 3d 17 11 f5 b9
       -0.004213576 -0.0054405774 0.042325236 -0.00046742774
000130 08 ca 82 bc dd 16 cf 3c 15 1b d2 bb 30 95 53 bc
       -0.015965477 0.025279457 -0.00641192 -0.012913987
000140 2f 39 fd b8 4a 7a 4f 3c 12 3a 97 bc f3 03 4c bb
       -0.000120746314 0.012663433 -0.018460307 -0.0031130284
000150 bb 95 9c bc 23 07 0f 3d aa ad 83 3c e5 68 5a 3c
       -0.019114366 0.034918915 0.01607402 0.013330673
000160 a5 8d 5f bb ab 46 33 bc ab 12 3e bc 96 00 83 bb
       -0.0034111526 -0.0109421415 -0.0116011305 -0.0039978726
000170 70 bf 72 3c e0 89 1e bd d0 26 a8 3b bd a9 7b 3c
       0.01481615 -0.038705707 0.00513158 0.015360293
000180 ae 28 08 3c af 0a 9d 3b b2 09 de 3c c3 4b 95 3c
       0.00831048 0.0047925333 0.027104232 0.018224603
000190 c3 00 7a 3b b4 bc 30 3b 5b 67 b8 3c cd b3 90 3b
       0.0038147427 0.0026967945 0.022510221 0.004415965
0001a0 df f7 59 3b 73 54 84 bb 12 b6 7e 3b 96 2c 9f 3b
       0.0033259315 -0.0040383874 0.0038865847 0.00485761
0001b0 ee 62 9f bc 05 10 9d bc 8e 54 42 3c 6c e9 af bb
       -0.019456353 -0.019172678 0.01186098 -0.005368402
0001c0 dc 31 15 bd 2d f7 6a 3c be 7e 25 ba 6a e4 19 3c
       -0.036424503 0.014341158 -0.00063131365 0.009392837
0001d0 6d 06 87 bc 5a 1a da ba d5 c8 d4 bc 4b aa 22 3c
       -0.016482556 -0.0016639933 -0.02597467 0.009928296
0001e0 3a 34 a8 3b 01 18 2a bc 93 ac 13 bc 17 28 37 bc
       0.005133179 -0.0103817 -0.009013313 -0.011178992
0001f0 c8 52 e1 3c 75 72 3c bc 43 6b 76 3c 02 4b f5 3b
       0.027505293 -0.011501898 0.015040222 0.0074857483
000200 5d 51 82 bc f0 79 49 bc a7 5e 1d 3d 73 6d 1b 3b
       -0.015907938 -0.012297139 0.038420346 0.002371636
000210 0a 2b 50 3c 7c d2 9e bc 33 37 ef 3c c7 36 ae 3c
       0.012705574 -0.019387476 0.029201126 0.021266354
000220 56 22 04 bd e4 27 15 3c 78 14 c6 bc 90 88 a7 bc
       -0.032259308 0.009103749 -0.024179682 -0.02045086
000230 fb bb c9 bc 2c 4c c7 3b 68 23 05 3b 23 77 81 3c
       -0.024625769 0.0060820784 0.0020315293 0.01580388
000240 5f 11 9d 3c 27 9b d9 bc 47 bb be 38 da ca f1 bb
       0.019173322 -0.02656324 9.094789e-05 -0.007378918
000250 28 14 52 bb 6d a8 db b9 2c 45 27 bc 87 e5 1a 3c
       -0.003205547 -0.00041896422 -0.010209363 0.009454138
000260 aa a4 30 bb c2 ef 25 3c 1f 06 8b 38 95 cf c8 3b
       -0.0026953616 0.0101279635 6.629177e-05 0.0061282613
000270 2a b9 0c bd fb e9 2a 3c e5 8b d0 bc 80 ed b9 3c
       -0.034356274 0.010431762 -0.025457332 0.022696257
000280 4b b6 18 bc 5d 72 69 3c ed 8c 5c 3c 2e 00 31 bc
       -0.009320806 0.014248458 0.013461334 -0.0108032655
000290 9d ff 6e 3b dc a4 8c bc 87 94 e4 3c 6a 53 8d bc
       0.0036468275 -0.017168455 0.027902855 -0.017251689
0002a0 ad db f4 bb 5a ba c8 bc c9 df a8 bb 98 66 18 3d
       -0.0074724765 -0.024502922 -0.0051536304 0.037207216
0002b0 df fc 84 3c 68 0a 6b 3c 82 37 65 bc fb b3 54 3c
       0.01623386 0.014345743 -0.013990285 0.012982364
0002c0 bf a9 81 3c dd 9c 67 bc 47 2f 54 bc f1 aa cb bb
       0.015828012 -0.01413652 -0.012950725 -0.006215446
0002d0 3b 99 1c 3c 6b e2 f7 3b fa a4 4b bc c3 b0 da bb
       0.009558017 0.007564833 -0.01242947 -0.0066739037
0002e0 bb 5d 65 bb 7d 5a cd bb a3 ef 05 3c 08 50 dc 3b
       -0.0034998495 -0.0062668906 0.00817481 0.0067234077
0002f0 d3 7c 46 3c a5 b6 3d bc 93 96 a3 3c ef 7d 00 3c
       0.012114721 -0.01157919 0.01996926 0.007842525
000300 f8 fe 10 bd 0b b8 6d 3c 27 8a 3d 3b 5b 17 81 bc
       -0.035399407 0.014509211 0.0028921457 -0.015758207
000310 aa ae e0 3c ef 35 89 3c dc 61 1f bd f3 39 cc bb
       0.027427036 0.01674935 -0.038911685 -0.006232494
000320 45 de 89 bc 0f 8f a1 3c b5 c2 93 3c df cd 32 bb
       -0.01682962 0.019721536 0.01803718 -0.0027283353
000330 b0 6c 18 3c 9a 5c 89 bb 07 b6 65 bc b0 9c cc 3a
       0.009303257 -0.004191947 -0.0140204495 0.0015610661
000340 3b 93 36 3b db 13 88 bb d2 d5 e0 bc 73 b5 a1 bb
       0.0027858752 -0.0041527576 -0.027445707 -0.0049349605
000350 2e e7 96 39 e7 17 b6 3c 12 fe 52 bc 27 d4 2a bd
       0.00028782472 0.022228194 -0.012877958 -0.04170623
000360 17 ad dc bc 7f 6e f8 3b a5 e8 4f 3c e0 04 35 3c
       -0.026938004 0.0075815315 0.012689744 0.011048526
000370 87 e5 86 3b 9f a8 e8 ba 43 3f d3 3b e8 47 be 3c
       0.0041167173 -0.0017750448 0.0064467504 0.023227647
000380 66 c0 41 bc 41 5d 32 3c fa ae 5f bc 15 54 ae 3a
       -0.0118256565 0.010886491 -0.0136525575 0.0013300205
000390 66 7f 85 3c ab 68 8d 3c 9f 32 2b 3c 9a a8 bf 3a
       0.0162961 0.017261824 0.010449081 0.0014622391
0003a0 ed 12 80 bc 4d d2 a8 bc b2 39 db bc 92 79 70 3a
       -0.015634025 -0.020608092 -0.02676091 0.0009173389
0003b0 5f 8a d6 bc 47 05 6b bc d6 28 9a 3c 0f cf b9 39
       -0.026189027 -0.01434452 0.0188183 0.0003544022
0003c0 77 79 cb 3b 7b f8 23 bd 08 df 8f 3b 19 73 31 bc
       0.006209548 -0.04003189 0.004390601 -0.010830664
0003d0 0f f6 ec 3c 37 a7 1b bd 5b ef 9a 3b 4e b3 c5 3b
       0.028925924 -0.038001265 0.0047282404 0.0060333377
0003e0 d5 b0 84 bc 5c a2 04 3c d3 0f 87 bc 06 63 ae 3b
       -0.016197601 0.00809535 -0.016487038 0.005321863
0003f0 e0 b8 59 bb ef 8b b6 3b 81 bf ae 3c e0 d7 7b bc
       -0.0033221766 0.0055708806 0.02133155 -0.015371293

action_model._continuous_distribution.mu.bias f4 [2]
000000 00 00 00 00 00 00 00 00
       0.0 0.0

network_body._body_endoder.seq_layers.0.weight f4 [128, 13]
000000 91 cc f3 bc 32 6d e7 bd d7 6a de be 36 1a 8c be
       -0.02976063 -0.11300124 -0.43440887 -0.27363747
000010 39 50 17 3e 7b 50 11 3e 15 6c c7 be 05 50 a7 bd
       0.14776696 0.14190857 -0.38949648 -0.081695594
000020 92 fc be be d4 41 5c be 51 e0 11 be 5d 92 51 3e
       -0.3730207 -0.21509486 -0.14245726 0.2046599
000030 e9 5b 71 3e 13 41 77 3e 53 46 8d be d2 2d 40 3e
       0.23570217 0.24145918 -0.27592716 0.18767479
000040 00 de c3 be 43 66 1d be c4 10 c2 bd 1d d6 ac be
       -0.3825531 -0.15371041 -0.09475854 -0.33757105
000050 ee 2c 6e bd 93 7c 0a bf b0 4c 9d 3c e0 cb 99 3e
       -0.058148317 -0.54096335 0.019201607 0.30038357
000060 a9 a4 7a be 30 68 59 3d 58 9d 3c 3e 1c 98 aa be
       -0.24476875 0.053077877 0.18419397 -0.33319175
000070 fb 66 91 bd 54 66 50 3e 86 06 19 3e 6a 2c 01 be
       -0.0709972 0.20351535 0.14943895 -0.12614599
000080 f0 2e ca be f7 e0 9d bd a6 cc af be 33 c3 97 bc
       -0.39488935 -0.07708924 -0.34335822 -0.018525695
000090 7e be 0b 3e 1b ba 53 3e 70 48 9b be e6 d3 47 be
       0.13646886 0.20676462 -0.30328703 -0.19514427
0000a0 6f f0 2a 3e 40 da d5 bc 30 61 3e bd da 0d 88 be
       0.1669328 -0.026105046 -0.046479404 -0.26573068
0000b0 94 48 83 bd 9b 85 d4 3e d1 58 97 3d 27 d0 57 be
       -0.064103276 0.41508183 0.07389987 -0.21075498
0000c0 51 8a 01 be ca 6c 84 3e 2b dd 92 bd 0c bf 0a bf
       -0.1265042 0.2586425 -0.07171091 -0.54197764
0000d0 e7 0e 94 3e 7f 83 c8 bd fb b1 84 3e 80 89 ae bd
       0.2891762 -0.09790706 0.25917038 -0.0852232
0000e0 ec dc 0b 3e f6 fd 2b 3d e3 c3 3e be 0a 2d e3 be
       0.13658494 0.041990243 -0.18629412 -0.443703
0000f0 5c 47 91 be fa 45 15 be d8 e8 99 be b3 bf 0d bf
       -0.28374755 -0.14577475 -0.30060458 -0.55370635
000100 94 af 32 bc fc b2 d0 be 37 89 d4 bd fb 4d eb bc
       -0.010906119 -0.40761554 -0.10377734 -0.028723707
000110 f6 9c 95 3e 6e cb 12 3e 5a c0 2f bd f7 a7 95 3e
       0.29221314 0.14335415 -0.04290805 0.2922971
000120 64 ae 83 3c 4e c0 23 3f 8c 6e 4e 3d bd 4b 5b be
       0.016074367 0.6396531 0.050398394 -0.2141561
000130 4c 98 ba bd a4 79 ac bc 69 13 89 be d9 1e cf 3e
       -0.091110796 -0.021054097 -0.2677262 0.40453222
000140 ba 28 8b 3e e2 a0 bb bd 2d 2a 26 3e 8a 17 56 be
       0.2717951 -0.09161545 0.16227026 -0.20907417
000150 dd 52 79 bd 63 9b 2d be 8d 99 df be 5c 52 33 3e
       -0.06087004 -0.16953807 -0.43671837 0.17511886
000160 ba f1 ef bd 27 b2 a6 3e 67 37 be bd 25 5a 43 3e
       -0.117160276 0.32557794 -0.09287911 0.19077356
000170 6c 42 32 3e 93 a4 12 bf ad 0b 0f 3e ac df 0b 3e
       0.1740815 -0.5728237 0.13969298 0.13659543
000180 84 67 c5 3d 89 5e 5e bd b0 98 ba bd 69 e3 ce 3e
       0.09638885 -0.054289375 -0.09111154 0.40407875
000190 68 1f 3a bc 5f 59 93 3d 90 77 ca bc 29 a1 db be
       -0.011360027 0.071947806 -0.024715215 -0.42896393
0001a0 e8 27 ba 3e 8d 46 8b 3e ba f1 93 bc ca 60 5e be
       0.3635857 0.27202263 -0.0180596 -0.2171661
0001b0 51 08 a0 3e 6d c7 0a be a8 e0 fb bb fa 44 9a 3e
       0.31256345 -0.13552637 -0.007686693 0.3013075
0001c0 30 35 35 be 0e 7f 92 3e 92 81 93 3e 1c 62 8e 3e
       -0.1769607 0.2861256 0.28809792 0.27809227
0001d0 2d 5d f1 be 96 50 a1 be 45 83 95 3e 73 8b 5c be
       -0.471414 -0.31506795 0.29201713 -0.2153757
0001e0 09 8e 61 be 7f 32 41 3f 08 9f 82 be 44 7b a9 be
       -0.22026838 0.75467676 -0.25511956 -0.33101857
0001f0 41 64 99 3e 7c f3 d7 be 4d f9 80 be a8 6a d0 be
       0.299593 -0.4217795 -0.251902 -0.40706372
000200 cd 50 6b bf 86 9f 06 3e cf 80 84 3e 3a f5 26 3e
       -0.9192017 0.13146791 0.25879523 0.16304484
000210 81 b5 06 3f 79 82 b6 3e 83 6e 10 be 8f 3a 67 bb
       0.52620703 0.35646418 -0.14104657 -0.0035282706
000220 7d 27 de be 2f 72 3e 3e a6 75 9e be 05 39 d9 bd
       -0.43389502 0.18598245 -0.30949134 -0.10606579
000230 55 f7 3f 3e 8c 02 04 bd 64 e7 40 bd a9 3d 03 bf
       0.18746693 -0.03222899 -0.04709567 -0.5126596
000240 4e 8b f8 be cf 1b e3 3e 30 64 82 3e 7d 23 19 3e
       -0.4854378 0.44357154 0.25467062 0.14954944
000250 df e6 50 be f5 fa 6f be 11 80 e8 be 3e 92 b3 bd
       -0.2040057 -0.23435576 -0.45410207 -0.08768128
000260 47 71 95 bd a1 dc f4 bc ae e1 7e bd 8d 2f 00 3e
       -0.072969966 -0.02989036 -0.062226944 0.12518139
000270 56 fd 0e 3d 0a f8 ad 3d 06 06 a3 3e 6d 87 6a 3d
       0.03490957 0.08494575 0.31840533 0.05725806
000280 f6 ed 2e 3f 04 65 77 be 10 ce dd bd 7d 8b ce 3d
       0.6833185 -0.24159628 -0.10830319 0.10085199
000290 97 a6 a8 be 16 22 ba be de 5f 7f 3d 65 d6 b7 3e
       -0.32939598 -0.3635413 0.062347285 0.35905758
0002a0 c7 2a 27 bf 6a a3 0e 3f 84 b9 e5 bd 10 6c c3 3c
       -0.6529965 0.557181 -0.11217025 0.02385524
0002b0 69 d5 de 3b 19 e1 e8 be f0 eb ba 3d b6 98 08 be
       0.006800343 -0.45484236 0.09127033 -0.13339505
0002c0 af e8 66 be dd c0 17 be a1 ca a5 be af 70 ea bd
       -0.22549699 -0.14819665 -0.32381156 -0.11447274
0002d0 b6 5f b8 bd 99 41 50 be b5 c5 74 be b5 ab a5 be
       -0.090026304 -0.20337524 -0.23903544 -0.32357565
0002e0 fe 1a c1 3e 1f de ac bd 05 25 21 3e e2 bb 6e be
       0.37715906 -0.08440804 0.15736778 -0.23313859
0002f0 1a 20 10 3e cb 76 7e bb 50 9b 3c 3e 72 6c 2d be
       0.14074746 -0.003882813 0.18418622 -0.169359
000300 15 68 ec 3d ba 2a 8d bd 01 c1 64 be b3 36 90 3c
       0.115432896 -0.06892915 -0.2233925 0.017604208
000310 7f ed 98 be 32 a1 42 3d 23 e2 c8 be f6 5f b4 be
       -0.29868695 0.04751701 -0.3923503 -0.35229462
000320 de ac af 3c 8e 1d 87 3e 0b 28 dc be d9 4b 93 3b
       0.021444734 0.26389736 -0.429993 0.0044951257
000330 13 9f 72 3e a6 9f 9b 3d 72 e3 ef 3d eb 93 a8 3e
       0.23693494 0.0759881 0.117133036 0.32925352
000340 ad bb 59 be f1 b4 fd be 65 2a b0 3d 5c 9a d5 3e
       -0.21262999 -0.4955211 0.08601836 0.4171933
000350 fa bc 89 3e d7 7d b8 bd fb 54 56 bc be 8d ab be
       0.2690199 -0.09008377 -0.013081784 -0.33506578
000360 0e 2a 62 3e 9e be a9 be 36 ce 0c 3f f5 2c 05 3e
       0.22086355 -0.33153242 0.5500215 0.13005431
000370 96 c5 c3 bd a0 32 07 3c db e0 17 bf c4 29 23 be
       -0.09559171 0.008251816 -0.5932748 -0.15933901
000380 4b 3c 37 be c4 c4 d6 3e cf 37 3a be bc 57 b4 bd
       -0.17894094 0.41946995 -0.18185352 -0.088057965
000390 22 33 d9 bb d2 7a 01 3e b3 1b ce 3d 93 1f 00 bf
       -0.00662841 0.12644508 0.10063877 -0.5004818
0003a0 ce 18 6c 3d 95 4d cb be 42 bd 28 bd a3 01 39 bd
       0.057640843 -0.39707628 -0.041196115 -0.045167577
0003b0 df a1 e7 3e fe 7e 87 3c 0a 66 44 be 44 dc 27 3d
       0.45240685 0.016540047 -0.1917955 0.040981546
0003c0 a6 c8 bc bd cd 75 7c 3e 13 1a f9 be ed 46 46 bd
       -0.09217958 0.24654312 -0.48652706 -0.048407484
0003d0 ef cf 95 bd c3 93 1e bc 7a cc 51 3e 69 d5 f1 bd
       -0.07315051 -0.009678784 0.20488158 -0.11808283
0003e0 18 fd 03 3e b0 18 89 3d 5f fb 9a be ef d0 87 be
       0.12889516 0.06694162 -0.30269906 -0.2652659
0003f0 1f d2 86 bd e7 bb 6c 3e 58 e0 b9 3d 2c 0e e0 be
       -0.06583046 0.23118554 0.09075993 -0.43760812

network_body._body_endoder.seq_layers.0.bias f4 [128]
000000 00 00 00 00 00 00 00 00 00 00 00 00 00 00 00 00
       0.0 0.0 0.0 0.0
000010 00 00 00 00 00 00 00 00 00 00 00 00 00 00 00 00
       0.0 0.0 0.0 0.0
000020 00 00 00 00 00 00 00 00 00 00 00 00 00 00 00 00
       0.0 0.0 0.0 0.0
000030 00 00 00 00 00 00 00 00 00 00 00 00 00 00 00 00
       0.0 0.0 0.0 0.0
000040 00 00 00 00 00 00 00 00 00 00 00 00 00 00 00 00
       0.0 0.0 0.0 0.0
000050 00 00 00 00 00 00 00 00 00 00 00 00 00 00 00 00
       0.0 0.0 0.0 0.0
000060 00 00 00 00 00 00 00 00 00 00 00 00 00 00 00 00
       0.0 0.0 0.0 0.0
000070 00 00 00 00 00 00 00 00 00 00 00 00 00 00 00 00
       0.0 0.0 0.0 0.0
000080 00 00 00 00 00 00 00 00 00 00 00 00 00 00 00 00
       0.0 0.0 0.0 0.0
000090 00 00 00 00 00 00 00 00 00 00 00 00 00 00 00 00
       0.0 0.0 0.0 0.0
0000a0 00 00 00 00 00 00 00 00 00 00 00 00 00 00 00 00
       0.0 0.0 0.0 0.0
0000b0 00 00 00 00 00 00 00 00 00 00 00 00 00 00 00 00
       0.0 0.0 0.0 0.0
0000c0 00 00 00 00 00 00 00 00 00 00 00 00 00 00 00 00
       0.0 0.0 0.0 0.0
0000d0 00 00 00 00 00 00 00 00 00 00 00 00 00 00 00 00
       0.0 0.0 0.0 0.0
0000e0 00 00 00 00 00 00 00 00 00 00 00 00 00 00 00 00
       0.0 0.0 0.0 0.0
0000f0 00 00 00 00 00 00 00 00 00 00 00 00 00 00 00 00
       0.0 0.0 0.0 0.0
000100 00 00 00 00 00 00 00 00 00 00 00 00 00 00 00 00
       0.0 0.0 0.0 0.0
000110 00 00 00 00 00 00 00 00 00 00 00 00 00 00 00 00
       0.0 0.0 0.0 0.0
000120 00 00 00 00 00 00 00 00 00 00 00 00 00 00 00 00
       0.0 0.0 0.0 0.0
000130 00 00 00 00 00 00 00 00 00 00 00 00 00 00 00 00
       0.0 0.0 0.0 0.0
000140 00 00 00 00 00 00 00 00 00 00 00 00 00 00 00 00
       0.0 0.0 0.0 0.0
000150 00 00 00 00 00 00 00 00 00 00 00 00 00 00 00 00
       0.0 0.0 0.0 0.0
000160 00 00 00 00 00 00 00 00 00 00 00 00 00 00 00 00
       0.0 0.0 0.0 0.0
000170 00 00 00 00 00 00 00 00 00 00 00 00 00 00 00 00
       0.0 0.0 0.0 0.0
000180 00 00 00 00 00 00 00 00 00 00 00 00 00 00 00 00
       0.0 0.0 0.0 0.0
000190 00 00 00 00 00 00 00 00 00 00 00 00 00 00 00 00
       0.0 0.0 0.0 0.0
0001a0 00 00 00 00 00 00 00 00 00 00 00 00 00 00 00 00
       0.0 0.0 0.0 0.0
0001b0 00 00 00 00 00 00 00 00 00 00 00 00 00 00 00 00
       0.0 0.0 0.0 0.0
0001c0 00 00 00 00 00 00 00 00 00 00 00 00 00 00 00 00
       0.0 0.0 0.0 0.0
0001d0 00 00 00 00 00 00 00 00 00 00 00 00 00 00 00 00
       0.0 0.0 0.0 0.0
0001e0 00 00 00 00 00 00 00 00 00 00 00 00 00 00 00 00
       0.0 0.0 0.0 0.0
0001f0 00 00 00 00 00 00 00 00 00 00 00 00 00 00 00 00
       0.0 0.0 0.0 0.0

network_body._body_endoder.seq_layers.2.weight f4 [128, 128]
000000 13 1d 7b 3d 0b 58 7f bd 81 a4 01 be 9f ec 51 bd
       0.061307024 -0.062339824 -0.1266041 -0.05125105
000010 fd 4a 1a 3d c0 74 52 bc 30 f9 ae bd b6 5b ba bd
       0.03766917 -0.012845218 -0.085436225 -0.09099524
000020 73 7e 9a bc 18 10 0f 3c 30 d7 23 bd 84 32 03 3e
       -0.018859124 0.008731864 -0.04000014 0.12812239
000030 08 df f8 bd 3b 51 7c bd dd aa c7 3d ff 52 26 3c
       -0.12151915 -0.061600905 0.097493865 0.010151624
000040 26 29 d9 bb f2 b1 0c be 32 ed 81 bc b0 67 33 be
       -0.0066272197 -0.13739756 -0.015860174 -0.17520022
000050 85 93 92 bd 50 9f e6 3c ff 45 15 bd 6b 26 9f bb
       -0.07157043 0.028152138 -0.036443707 -0.0048568747
000060 4a ce f7 bb ae 3f 63 3d 19 9e 6e 3d f6 ef b1 bd
       -0.0075624334 0.05548065 0.058256242 -0.08688347
000070 3a 50 0b 3c 30 3e 9b bc a0 7b 29 3d 80 70 a3 3d
       0.008503014 -0.018950552 0.041377664 0.07980442
000080 2f 46 82 3c 91 88 8d 3d e6 2f af 3d ae d8 0f bd
       0.015902607 0.069108136 0.08554058 -0.03511875
000090 d4 3f ac bd 54 5e 95 3d f3 cf 47 3c 06 e4 68 3d
       -0.08410612 0.07293382 0.012195575 0.056858085
0000a0 c9 b0 b1 bd 14 42 ce bd cc 55 f4 bd ad 6d 9b bd
       -0.08676297 -0.10071197 -0.11930427 -0.07589278
0000b0 c9 9c 77 3d 44 03 22 bc 3f 69 c9 3d 2b 12 b7 3c
       0.060452256 -0.009888474 0.09834527 0.02234753
0000c0 84 de dd 3c 7c 75 5e 3d ed 72 86 bd b2 4e a8 3d
       0.027083643 0.05431126 -0.06564889 0.08218135
0000d0 a4 5c 46 3c 5c 05 8f 3d 2f 0a 56 bd 7e 90 f5 bd
       0.012107048 0.06983444 -0.052255806 -0.1199045
0000e0 95 6f 1a bd 40 65 5f 3d d0 5d de 3d e6 ae 26 bd
       -0.03770407 0.05453992 0.10857737 -0.04069414
0000f0 fe 59 55 bc 83 6e 07 bd 73 73 7e 3d 1c e1 a5 3d
       -0.013021944 -0.033064377 0.06212182 0.08099577
000100 f4 a3 ab bd b4 64 49 bd 6a f1 51 3e 20 19 e8 3c
       -0.08380881 -0.049168304 0.20502248 0.028332293
000110 1f 91 5c 3d 59 75 0b bd 8e 86 23 3e 4b f3 56 3c
       0.053849336 -0.03404746 0.15969297 0.013119529
000120 42 e7 a3 3d 4d 2d bd bc 57 8e 31 be f3 36 26 3e
       0.08003093 -0.02309289 -0.17339455 0.16231899
000130 06 bb cb 3d 0d 54 49 bd cc f3 f5 bd 8a 8b 67 bd
       0.09947781 -0.049152423 -0.12009391 -0.05652956
000140 fe fc 41 3d c2 11 5b bc 48 d6 f5 bc 7b 10 b3 bd
       0.047360413 -0.013370933 -0.030009404 -0.08743378
000150 82 05 0a 3e db 13 f7 3b 08 10 87 bd 4d 8d ba bd
       0.13478664 0.0075402088 -0.065948546 -0.09108982
000160 f6 9d 85 3e 6b 19 4e 3e 0a 03 af bd fb e2 38 3d
       0.26097077 0.20126884 -0.085455015 0.04513834
000170 fc 7d c5 3d 81 09 b9 bd 9e 63 0a 3e 78 96 96 3b
       0.0964317 -0.09035016 0.13514563 0.004595574
000180 f5 24 89 bc ea 92 bf 3d ed 2f 8a 3c d5 86 a5 bd
       -0.016741255 0.093541935 0.016868556 -0.08082358
000190 f7 d7 b6 3b 06 bd 47 3d 73 97 ab 3d 37 26 92 bd
       0.0055799442 0.04876425 0.08378496 -0.07136195
0001a0 e4 2e bb 3c 82 2d c0 bc 0b d6 96 bd 88 3e d7 3d
       0.022849508 -0.0234592 -0.07365044 0.10509974
0001b0 fe 2f 8a bc b4 cf eb 3d 2e dd 28 bd bf 64 96 bd
       -0.016868588 0.115142256 -0.04122656 -0.073434345
0001c0 a2 2c 80 3d 93 99 ce 3d df 91 05 be f8 d1 25 bc
       0.06258513 0.10087886 -0.13043927 -0.010120861
0001d0 d7 68 6f 3d 52 29 17 3e 59 8e 48 bd 9a 11 5e 3d
       0.058449592 0.14761856 -0.04896388 0.054216005
0001e0 b7 8c 82 bd 3c 9b c4 3d 71 47 8c bd 51 cb 0f 3e
       -0.063744955 0.09599921 -0.06849564 0.14042403
0001f0 f7 55 89 bc f4 eb fb bd a5 dd 75 3d e4 60 8a bd
       -0.016764624 -0.12300864 0.06002583 -0.06756762
000200 2b b0 2b 3c 13 18 d9 bd 33 89 dc bb 48 fc 72 bd
       0.010479013 -0.10600295 -0.0067302226 -0.059322625
000210 6d 6b 5e 3b 52 6f 94 3c 54 4f 31 3c ab 9c c9 bc
       0.0033938542 0.018119488 0.010822136 -0.024610838
000220 6b ad c9 bc b6 e2 72 bc 39 0f b5 3d 27 ee b9 3d
       -0.024618825 -0.01482456 0.08840794 0.09078627
000230 1e 96 a8 ba 79 49 e2 bd 96 b0 c2 bd c1 3c 51 3d
       -0.0012862121 -0.1104917 -0.09506337 0.05108333
000240 49 1a 85 bd 82 7a 75 3d e9 5c 90 3c dc e5 91 3d
       -0.06499154 0.059931286 0.017622428 0.0712392
000250 76 2f c0 3d ea a4 6d 3d 8f 82 dd 3b d2 e6 39 3c
       0.093840525 0.058018602 0.0067599486 0.011346536
000260 38 7e 73 3d 7b fa 2c bc 3e 41 ae bc 1b f6 db 3d
       0.059446543 -0.010557766 -0.021271344 0.107403
000270 9b 56 c1 bc 1d 5d bf 3d 05 df f3 bd f2 a7 fa 3d
       -0.023600867 0.09343932 -0.11907772 0.12239064
000280 5b a2 3c 3d 30 a2 a0 3d bf e9 50 3d e5 4b 1a 3d
       0.04605327 0.07843435 0.051004168 0.037670035
000290 ef 6a b9 3d 5e de 04 bd 22 03 32 bd ec d2 02 3e
       0.09053599 -0.03243863 -0.04346002 0.12775773
0002a0 10 4f cb bd c9 79 ac bd 08 89 ff 3d bb 2e e5 3d
       -0.09927189 -0.08421666 0.124773085 0.11190554
0002b0 1b 66 ca bd 6f 9b b1 3d 51 5b 31 be 6e 5a bd bd
       -0.09882756 0.08672225 -0.1731999 -0.09245764
0002c0 8f 2d 3b bd c3 09 49 3d 3b 98 9a 3d b0 90 39 bd
       -0.045697745 0.049081575 0.07548567 -0.045304
0002d0 8c 01 b6 bd ff d4 88 bd 26 fd aa 3d db 66 db bc
       -0.08887014 -0.06681251 0.083490655 -0.026782444
0002e0 a6 11 8e 3d 5d ac f7 bc 0d 6f b1 bd e6 f0 56 bd
       0.0693696 -0.030233556 -0.086637594 -0.052475832
0002f0 62 93 4e 3c b2 fa a3 3d c2 14 0a 3d 16 e2 dc 3d
       0.012608381 0.08006801 0.033711202 0.1078531
000300 ab 5e 41 be 20 40 a3 bd 55 39 c2 bc 3f c3 d7 bc
       -0.18883769 -0.07971215 -0.023708979 -0.026338218
000310 92 82 a4 3d f5 a2 10 bd 33 4a d5 bd 3a 8c 8e bd
       0.08032717 -0.035311658 -0.10414543 -0.0696034
000320 48 52 bf bc 26 3e a1 3d a8 19 29 be 1b 57 05 be
       -0.023354664 0.07873182 -0.16513693 -0.1302151
000330 73 30 b6 bd b9 13 dd bd 5b 27 0c 3e ab ed 45 bc
       -0.0889596 -0.107947774 0.13686888 -0.01208059
000340 1c e2 a3 3d 21 0b db bd 1e a4 e4 3c 57 7f da bd
       0.08002111 -0.10695482 0.027910288 -0.106688194
000350 be fa 7a 3d 85 bc 1c be 2e e1 2b 3c 18 08 ce 3d
       0.061274283 -0.1530629 0.010490699 0.100601375
000360 08 31 16 be 3b 12 47 be 15 f8 6c bd f1 6a da 3d
       -0.14667141 -0.19440548 -0.057853777 0.10664929
000370 98 ba 87 bd 8c 2d 06 3d 53 dd 48 bd 9d 66 35 3b
       -0.06627387 0.03275828 -0.049039196 0.002767957
000380 3c 84 01 bd bd 51 8b 3d c9 fc 4c 3e 03 cf 4e bd
       -0.03162025 0.068027 0.20018305 -0.05049039
000390 0e 9a df 3c 21 96 06 be 90 7b 21 bd 4c 6f 27 3d
       0.027295139 -0.13143207 -0.03942448 0.040877625
0003a0 a5 5d 55 3e 4c e1 f2 3d ce 14 f1 3d 0a 56 05 3d
       0.20836504 0.11859378 0.11771546 0.032552756
0003b0 8d 8b 8a bd 38 1c 09 be 1c a1 5f 3e 21 18 a5 bc
       -0.067648984 -0.13389671 0.21838802 -0.020153107
0003c0 bf 37 3a bb 8a 25 ac 3d de fc b8 3c b7 5f b5 3c
       -0.0028414575 0.084055975 0.022581514 0.022140367
0003d0 9d 68 00 bc 36 f4 d8 bd 3f 0c 1c 3e ce 44 e1 3d
       -0.007837442 -0.105934545 0.15239047 0.109994516
0003e0 c2 30 14 3e 04 27 c7 3d 7c 0c 6c bc 90 cc ee bd
       0.14471725 0.097242385 -0.014407273 -0.11660111
0003f0 d5 0c 35 bd 4b a6 9a bc e1 24 ff bc 57 53 34 3d
       -0.04420169 -0.018878123 -0.031145515 0.04402479

network_body._body_endoder.seq_layers.2.bias f4 [128]
000000 00 00 00 00 00 00 00 00 00 00 00 00 00 00 00 00
       0.0 0.0 0.0 0.0
000010 00 00 00 00 00 00 00 00 00 00 00 00 00 00 00 00
       0.0 0.0 0.0 0.0
000020 00 00 00 00 00 00 00 00 00 00 00 00 00 00 00 00
       0.0 0.0 0.0 0.0
000030 00 00 00 00 00 00 00 00 00 00 00 00 00 00 00 00
       0.0 0.0 0.0 0.0
000040 00 00 00 00 00 00 00 00 00 00 00 00 00 00 00 00
       0.0 0.0 0.0 0.0
000050 00 00 00 00 00 00 00 00 00 00 00 00 00 00 00 00
       0.0 0.0 0.0 0.0
000060 00 00 00 00 00 00 00 00 00 00 00 00 00 00 00 00
       0.0 0.0 0.0 0.0
000070 00 00 00 00 00 00 00 00 00 00 00 00 00 00 00 00
       0.0 0.0 0.0 0.0
000080 00 00 00 00 00 00 00 00 00 00 00 00 00 00 00 00
       0.0 0.0 0.0 0.0
000090 00 00 00 00 00 00 00 00 00 00 00 00 00 00 00 00
       0.0 0.0 0.0 0.0
0000a0 00 00 00 00 00 00 00 00 00 00 00 00 00 00 00 00
       0.0 0.0 0.0 0.0
0000b0 00 00 00 00 00 00 00 00 00 00 00 00 00 00 00 00
       0.0 0.0 0.0 0.0
0000c0 00 00 00 00 00 00 00 00 00 00 00 00 00 00 00 00
       0.0 0.0 0.0 0.0
0000d0 00 00 00 00 00 00 00 00 00 00 00 00 00 00 00 00
       0.0 0.0 0.0 0.0
0000e0 00 00 00 00 00 00 00 00 00 00 00 00 00 00 00 00
       0.0 0.0 0.0 0.0
0000f0 00 00 00 00 00 00 00 00 00 00 00 00 00 00 00 00
       0.0 0.0 0.0 0.0
000100 00 00 00 00 00 00 00 00 00 00 00 00 00 00 00 00
       0.0 0.0 0.0 0.0
000110 00 00 00 00 00 00 00 00 00 00 00 00 00 00 00 00
       0.0 0.0 0.0 0.0
000120 00 00 00 00 00 00 00 00 00 00 00 00 00 00 00 00
       0.0 0.0 0.0 0.0
000130 00 00 00 00 00 00 00 00 00 00 00 00 00 00 00 00
       0.0 0.0 0.0 0.0
000140 00 00 00 00 00 00 00 00 00 00 00 00 00 00 00 00
       0.0 0.0 0.0 0.0
000150 00 00 00 00 00 00 00 00 00 00 00 00 00 00 00 00
       0.0 0.0 0.0 0.0
000160 00 00 00 00 00 00 00 00 00 00 00 00 00 00 00 00
       0.0 0.0 0.0 0.0
000170 00 00 00 00 00 00 00 00 00 00 00 00 00 00 00 00
       0.0 0.0 0.0 0.0
000180 00 00 00 00 00 00 00 00 00 00 00 00 00 00 00 00
       0.0 0.0 0.0 0.0
000190 00 00 00 00 00 00 00 00 00 00 00 00 00 00 00 00
       0.0 0.0 0.0 0.0
0001a0 00 00 00 00 00 00 00 00 00 00 00 00 00 00 00 00
       0.0 0.0 0.0 0.0
0001b0 00 00 00 00 00 00 00 00 00 00 00 00 00 00 00 00
       0.0 0.0 0.0 0.0
0001c0 00 00 00 00 00 00 00 00 00 00 00 00 00 00 00 00
       0.0 0.0 0.0 0.0
0001d0 00 00 00 00 00 00 00 00 00 00 00 00 00 00 00 00
       0.0 0.0 0.0 0.0
0001e0 00 00 00 00 00 00 00 00 00 00 00 00 00 00 00 00
       0.0 0.0 0.0 0.0
0001f0 00 00 00 00 00 00 00 00 00 00 00 00 00 00 00 00
       0.0 0.0 0.0 0.0

value_heads.value_heads.extrinsic.weight f4 [1, 128]
000000 20 fd f8 3d 58 09 49 3e 0a 08 34 be ff 38 2a be
       0.12157655 0.1963247 -0.17581192 -0.16623305
000010 9e 1d 45 3e 0d af 11 be 2c f7 e4 3d fc 66 1c be
       0.1924958 -0.14226933 0.11179957 -0.1527366
000020 5c 15 cb 3d fa 49 50 3e 64 ac 35 3e c7 ca 30 be
       0.09916183 0.2034072 0.17741543 -0.17264853
000030 fa 7c 27 3e 6e 8e 1d 3e e1 1c 2d be 5c a1 00 3d
       0.16356269 0.15386364 -0.16905548 0.031403884
000040 84 12 34 3e 3c e2 89 bd 34 06 12 3e 30 d6 7c bd
       0.17585188 -0.06732604 0.14260179 -0.061727703
000050 78 30 b9 3c 89 53 43 be 58 eb 92 bd 64 62 e0 3d
       0.02260612 -0.19074835 -0.071737945 0.109562665
000060 c8 7a b2 bc 9e 56 2a be 08 60 e4 bc b0 de 25 3e
       -0.021787062 -0.16634604 -0.027877823 0.1619823
000070 08 88 f6 3d 70 94 43 3d e0 25 66 3c a8 5d d7 3c
       0.12037665 0.047748983 0.014047116 0.026289776
000080 62 db aa bd d8 eb 2f 3e 74 e3 9a 3d 76 a1 20 be
       -0.08342625 0.17179811 0.075629145 -0.15686592
000090 a6 7e 1a 3e 88 38 cf 3d b8 c8 44 3e 40 b3 4b bd
       0.15087375 0.10118204 0.19217193 -0.049731493
0000a0 30 24 c9 bc 78 66 2b 3d d0 f7 46 bc 40 3e 01 3c
       -0.024553388 0.04184577 -0.012144044 0.007888377
0000b0 a0 44 ad bb c4 80 81 3d b0 8f 47 bc 50 7d 0f 3e
       -0.0052877218 0.06323388 -0.012180254 0.14012647
0000c0 2c 15 60 bd f0 23 fc bc 54 55 3c 3e e6 73 14 3e
       -0.05470769 -0.030778855 0.18391925 0.14497337
0000d0 2a fa 30 be 30 3e 4d bc 4f 31 00 be 55 98 56 be
       -0.1728293 -0.012527034 -0.1251881 -0.20956548
0000e0 f0 57 3b 3c 44 f2 53 be 70 84 e2 bd 24 b3 cc 3d
       0.01143454 -0.20697886 -0.11060417 0.09995106
0000f0 58 b8 0a be 7b 90 3c be 50 33 17 3c a6 b1 05 3e
       -0.13546884 -0.1841449 0.009228542 0.13056049
000100 f8 68 0b 3e d8 43 b3 3c d8 5a fc 3d 98 00 ee 3c
       0.13614261 0.021882936 0.123220146 0.029053017
000110 58 10 3a 3e 34 87 55 3e f8 f0 ca bd 24 29 48 bd
       0.18170297 0.20852357 -0.099092424 -0.04886736
000120 40 61 de bc b8 5f f8 3c 2e 25 ae bd c4 02 5f bd
       -0.027145982 0.03031908 -0.08503185 -0.054445997
000130 dc b6 29 3e c0 1b 92 3b cd f9 54 be 7c 8c 45 3e
       0.16573662 0.0044588745 -0.20798416 0.19291872
000140 64 7d 83 3d a4 e1 77 bd dc 31 9b 3d cc f7 9f 3d
       0.06420401 -0.060517922 0.07577869 0.078109354
000150 0c 45 9a 3d bc b8 14 bd a0 79 55 bd 80 6e 6d bd
       0.07532701 -0.03630899 -0.052117944 -0.05796671
000160 cc 11 39 3e 60 6d 07 3d 5e df e7 bd b0 94 49 be
       0.18073195 0.033063293 -0.11321901 -0.19685626
000170 20 7c a3 3c f4 aa 02 be 48 bf c7 3c 04 0f 45 3e
       0.019956648 -0.12760526 0.024383202 0.1924401
000180 30 bd ff bd 21 5f 35 be df f4 20 be 60 e0 5e bc
       -0.124872565 -0.1771207 -0.15718411 -0.0136033
000190 0c 00 09 3e 10 90 1a be f4 54 b0 3d 08 0a 0e be
       0.13378924 -0.15094018 0.086099535 -0.13871014
0001a0 92 1c b9 bd 04 34 af bd 88 a0 d5 bc 70 9b 42 3e
       -0.090386525 -0.08554843 -0.026077524 0.19004607
0001b0 e0 9e e0 bb b0 3e 3b 3e 84 1e e2 3d fe 3a 23 be
       -0.006854877 0.18285632 0.11040977 -0.15940472
0001c0 e0 eb 43 be 24 04 b0 3d 84 1d 45 3e ac 66 d8 bd
       -0.19132948 0.0859454 0.1924954 -0.10566458
0001d0 f2 cc 29 3e 1c a3 31 be 2e 6c 0e be e2 43 30 be
       0.16582087 -0.17347378 -0.13908455 -0.17213395
0001e0 38 6c 4a 3e e8 d2 57 3d 28 b0 05 3e 28 2f 36 3e
       0.19767845 0.05269137 0.1305548 0.17791426
0001f0 20 14 2b 3e 38 e4 49 bd c4 dd 27 bd 0d f6 59 be
       0.16706896 -0.049289912 -0.040982977 -0.21285267
