results/ia2/PlayerScript.onnx (onnx, 78825 bytes, 7 tensors)

network_body._body_endoder.seq_layers.0.weight f4 [128, 18]
00000000: 1264 5a3e cff2 343e 39df 5f3e 1859 d13c
00000010: 204d df3e dd1e 043d 01b5 34be bb51 0a3e
00000020: 98b0 8e3e dc63 ae3e 5980 36bd 8740 9e3e
00000030: 1f91 3ebc 5358 52be 5949 b93c 46d4 863e
00000040: f7ea fd3d a552 8b3e e43a cabe 2ff8 91be
00000050: 7b71 6cbe 2c36 37bd d762 16bf 6581 603e
00000060: caf4 123e 2443 22be 12dd 8b3e 1acd 5cbe
00000070: b6d5 7cbe b2dd 6cbf 0c11 bb3d a8c8 233e
00000080: 8942 193f 9df5 f8bd c8d3 61be cc60 8ebe
00000090: 7e31 c4be c03b c13e 7263 f7bd e384 65be
000000a0: 6ac5 43bc f55d 353e 2570 503e c898 a33d
000000b0: 3fa4 8dbe 7881 f5bd ebe8 35be 3890 ddbe
000000c0: 661d 103e 2d70 5b3e 2ad4 1e3e 7ef5 bd3d
000000d0: f160 333e 9546 93be 5ad4 223d d1d1 463d
000000e0: 471a b1be 3c68 b9bd 01cc b4ba 3b05 523e
000000f0: e321 a9be d53d c2bd ed07 993c 0765 4bbd
00000100: 4a89 9f3e 8624 f6be 018d b8be 9f72 7f3e
00000110: ed80 34be 42bd 9a3d 9cb3 c7be ce25 87be
00000120: 13f5 0b3e 9d40 d83d 5b37 503f 1ce3 9abe
00000130: 9b5e a0be 75bf 943e d6d6 52be f448 663e
00000140: 827f 73bd 260f df3d 9678 e6bd 7b6f a63e
00000150: 8d89 503e 5969 243e 6b13 80be bae4 c3be
00000160: aa58 2e3e bec3 febe 3d42 86bd 2a82 a1bd
00000170: 8327 c5be 6910 213e a4bb 57be 9010 3ebe
00000180: d239 c23d cef4 803d 0dbb 1b3d 9811 bfbe
00000190: 2724 90be 5e2b eabe 52cd 84be 3c1a 243e
000001a0: 94eb e13d c393 833e 7f8c 44bd 02e6 7e3e
000001b0: fc3c 3cbe 6e32 cfbe 7a91 25be 273a a6be
000001c0: 2c9a 993e 8138 8abe 9852 4a3e 1a47 303e
000001d0: 2b9c 113f 7457 fd3d 0343 553e c02d bbbe
000001e0: f7d0 003e 1ce4 7bbe ff64 073f 25fa adbe
000001f0: 052b 5b3d c9b3 92bd 8f23 0fbe 3761 8bbd
00000200: 963d d3be 4ec7 d6ba 0945 04be 94c5 23be
00000210: 07f6 41be d0d2 a33e 4cd5 7a3d dfc6 8b3e
00000220: e410 d0be 93c5 a33d 326f 4bbe 9ed1 903e
00000230: 6d68 0f3e 884b 51bd 97e6 c7be 32c0 923d
00000240: 5a9b 25be c709 8a3e 6c84 86be 8c3d 1cbe
00000250: 8046 45be 9392 7fbd d2f4 a83d c143 a73e
00000260: 3457 9e3c 101c 543e 506b 213f 7241 ddbd
00000270: b105 37be c929 65be 2601 10be 530b 03bf
00000280: 36e2 8abe 3fd3 98bd a743 e33d 5909 493e
00000290: d633 54bd 755b 8b3d b42a c93e 2051 bc3d
000002a0: 843c b7bd 339e e53d 2947 a7bb 361b 48bd
000002b0: 735a 3ebd 0181 1fbd fb93 c53b 94c9 0b3e
000002c0: a6ba ffbd c8d2 3abd 7e96 4e3e 406c cebd
000002d0: 3506 b33c 30d0 46be e85b b93e 665f 8f3e
000002e0: 8342 b1be 9e50 b13e 2d5a 313d c434 02bc
000002f0: 7d0e ad3e 4c37 1e3e 39ba c63d 402e 0fbf
00000300: ce7e f93d 1d8d 15bb 7ea6 79be 8b75 963e
00000310: e611 0fbf 6a93 2d3e 960a 903d e262 eabe
00000320: 4a91 17be b235 cc3d fb4d 3b3e b9e8 543e
00000330: e087 f43c 2c7e 693e e3b9 b53e e4e7 2dbd
00000340: 49ab 923e 96da 0dbe a5a6 ccbc 392e b5bd
00000350: feb6 98be 655b ec3d 224c bfbe de1d 533e
00000360: ebb2 883c e944 463e 2f98 303e 42d3 b33d
00000370: df4d 783d f807 d9be 919b ef3c 5e05 0a3d
00000380: 4d6b 973b 0cd2 a23d 16ec debd f541 bebd
00000390: 0c51 073f 53ea febd 8c73 f13c 9439 3abe
000003a0: d1a9 d93e 405f e1be 1263 d43c 3d02 dd3c
000003b0: 5a99 1fbd d1b7 d8bd d029 31be 5b1a 4e3e
000003c0: db3b 923e 3450 7c3e 107b 053e 5819 cf3e
000003d0: 7377 91bd a44f b7bd 63d0 48be 2bfe 763c
000003e0: 4ebc 4dbb 3575 423e 9e0b f8be c732 19bc
000003f0: 8b96 2dbe f523 48be a5f9 5cbe aa8a a9bd
0.21327236 0.17670749 0.21862496 0.025555179 0.4361353 0.032255996 -0.17647173 0.1350774
0.27869105 0.34060562 -0.044555996 0.30908605 -0.011631279 -0.20541506 0.022617983 0.26333827
0.123983316 0.2721149 -0.39498055 -0.28509662 -0.23090164 -0.044729397 -0.5874457 0.2192436
0.14351192 -0.15845925 0.273171 -0.21562615 -0.24690899 -0.9252578 0.09134111 0.15994513
0.5986715 -0.12156222 -0.22053444 -0.27808225 -0.3831901 0.37740898 -0.120795146 -0.22413974
-0.011948923 0.17711623 0.2035528 0.07988125 -0.27664372 -0.11987585 -0.17764632 -0.43274093
0.14073715 0.2142951 0.15510622 0.092753395 0.17517449 -0.28764787 0.039753295 0.04853994
-0.3459036 -0.09053084 -0.0013793708 0.20509808 -0.33033666 -0.0948445 0.018680537 -0.049656894
0.3115943 -0.4807474 -0.36045077 0.24946068 -0.17627306 0.07555629 -0.3900422 -0.2639603
0.13667707 0.10559199 0.81334466 -0.30251396 -0.31322178 0.2905232 -0.20589766 0.22488767
-0.059447773 0.10891561 -0.11253469 0.32506928 0.20364971 0.16055812 -0.25014815 -0.38260442
0.1702601 -0.49758714 -0.06555603 -0.07886155 -0.38506708 0.15728916 -0.21067673 -0.18561006
0.094836846 0.06296693 0.038020182 -0.3731811 -0.28152582 -0.45736212 -0.25937897 0.16025633
0.11031261 0.2569867 -0.04798555 0.24892429 -0.18382639 -0.40468162 -0.16168776 -0.32466242
0.30000436 -0.26996234 0.1975807 0.17214623 0.5687892 0.12370196 0.20826344 -0.36558342
0.12579714 -0.24598736 0.5288848 -0.33979908 0.053507823 -0.071631975 -0.13978408 -0.06805652
-0.41257924 -0.0016386302 -0.1291696 -0.15993339 -0.18941508 0.31996775 0.061238572 0.27300164
-0.40637887 0.07996669 -0.19866636 0.28284925 0.14004679 -0.051097423 -0.39043114 0.071655646
-0.16172543 0.26960585 -0.26272905 -0.15257853 -0.19265175 -0.062395643 0.08249821 0.3266888
0.019328691 0.2071383 0.6305437 -0.10803498 -0.17873265 -0.22379221 -0.14062938 -0.51189154
-0.2712571 -0.07462167 0.11096888 0.19632472 -0.051807247 0.068045534 0.39290392 0.09195161
-0.08947089 0.11211815 -0.0051049185 -0.048854075 -0.046472978 -0.038941387 0.0060296035 0.13651115
-0.12486772 -0.045611173 0.20174596 -0.10079241 0.021853546 -0.19415355 0.3620293 0.2800247
-0.34621057 0.3463182 0.04329889 -0.007947151 0.33800116 0.15450782 0.09703488 -0.55929947
0.12182389 -0.0022819706 -0.24379918 0.29386553 -0.55886686 0.16950765 0.07033269 -0.45778567
-0.14801517 0.09971179 0.18291466 0.20791902 0.029849946 0.22802037 0.35493383 -0.042457476
0.28646305 -0.13852915 -0.024981806 -0.08846707 -0.29827112 0.115408696 -0.37362772 0.20616862
0.016686877 0.19362225 0.17245553 0.087805286 0.06062114 -0.42388892 0.029248985 0.033696525
0.0046209455 0.079502195 -0.108848736 -0.09289924 0.5285804 -0.124470375 0.029474042 -0.18186027
0.42512372 -0.44017982 0.025926147 0.026978606 -0.038964607 -0.10581935 -0.17301106 0.20127241
0.2856129 0.2463997 0.13035226 0.40449023 -0.07102861 -0.08950737 -0.19610743 0.015075247
-0.0031392756 0.18990023 -0.48446363 -0.009350485 -0.16951959 -0.19544967 -0.21579607 -0.08278401

network_body._body_endoder.seq_layers.0.bias f4 [128]
00000000: 0000 0000 0000 0000 0000 0000 0000 0000
00000010: 0000 0000 0000 0000 0000 0000 0000 0000
00000020: 0000 0000 0000 0000 0000 0000 0000 0000
00000030: 0000 0000 0000 0000 0000 0000 0000 0000
00000040: 0000 0000 0000 0000 0000 0000 0000 0000
00000050: 0000 0000 0000 0000 0000 0000 0000 0000
00000060: 0000 0000 0000 0000 0000 0000 0000 0000
00000070: 0000 0000 0000 0000 0000 0000 0000 0000
00000080: 0000 0000 0000 0000 0000 0000 0000 0000
00000090: 0000 0000 0000 0000 0000 0000 0000 0000
000000a0: 0000 0000 0000 0000 0000 0000 0000 0000
000000b0: 0000 0000 0000 0000 0000 0000 0000 0000
000000c0: 0000 0000 0000 0000 0000 0000 0000 0000
000000d0: 0000 0000 0000 0000 0000 0000 0000 0000
000000e0: 0000 0000 0000 0000 0000 0000 0000 0000
000000f0: 0000 0000 0000 0000 0000 0000 0000 0000
00000100: 0000 0000 0000 0000 0000 0000 0000 0000
00000110: 0000 0000 0000 0000 0000 0000 0000 0000
00000120: 0000 0000 0000 0000 0000 0000 0000 0000
00000130: 0000 0000 0000 0000 0000 0000 0000 0000
00000140: 0000 0000 0000 0000 0000 0000 0000 0000
00000150: 0000 0000 0000 0000 0000 0000 0000 0000
00000160: 0000 0000 0000 0000 0000 0000 0000 0000
00000170: 0000 0000 0000 0000 0000 0000 0000 0000
00000180: 0000 0000 0000 0000 0000 0000 0000 0000
00000190: 0000 0000 0000 0000 0000 0000 0000 0000
000001a0: 0000 0000 0000 0000 0000 0000 0000 0000
000001b0: 0000 0000 0000 0000 0000 0000 0000 0000
000001c0: 0000 0000 0000 0000 0000 0000 0000 0000
000001d0: 0000 0000 0000 0000 0000 0000 0000 0000
000001e0: 0000 0000 0000 0000 0000 0000 0000 0000
000001f0: 0000 0000 0000 0000 0000 0000 0000 0000
0.0 0.0 0.0 0.0 0.0 0.0 0.0 0.0
0.0 0.0 0.0 0.0 0.0 0.0 0.0 0.0
0.0 0.0 0.0 0.0 0.0 0.0 0.0 0.0
0.0 0.0 0.0 0.0 0.0 0.0 0.0 0.0
0.0 0.0 0.0 0.0 0.0 0.0 0.0 0.0
0.0 0.0 0.0 0.0 0.0 0.0 0.0 0.0
0.0 0.0 0.0 0.0 0.0 0.0 0.0 0.0
0.0 0.0 0.0 0.0 0.0 0.0 0.0 0.0
0.0 0.0 0.0 0.0 0.0 0.0 0.0 0.0
0.0 0.0 0.0 0.0 0.0 0.0 0.0 0.0
0.0 0.0 0.0 0.0 0.0 0.0 0.0 0.0
0.0 0.0 0.0 0.0 0.0 0.0 0.0 0.0
0.0 0.0 0.0 0.0 0.0 0.0 0.0 0.0
0.0 0.0 0.0 0.0 0.0 0.0 0.0 0.0
0.0 0.0 0.0 0.0 0.0 0.0 0.0 0.0
0.0 0.0 0.0 0.0 0.0 0.0 0.0 0.0

network_body._body_endoder.seq_layers.2.weight f4 [128, 128]
00000000: 6275 a8bd cf1b 0a3b a749 c6bd e22a 58be
00000010: 3d1f 2a3d b29a d63c 6fd5 883c ad36 b13d
00000020: aa1f d6bd eeec cc3d 2364 c6bd 8e2b ccbd
00000030: 6f37 8b3d 0433 da3d c058 eb3d de0d b1bd
00000040: 4bfb 913d 25f2 ca3d dd80 ef3c 702f 16be
00000050: cf4c 123d 11a7 113d 6b80 7b3c 25ee 41bd
00000060: 7e67 a6bd f84e b0bd 309b 253e b9aa 833d
00000070: fa52 113e e717 72bd 0493 5d3e d2d2 8b3b
00000080: 6d6d 4fbc 48af babc 4216 e2bc ea58 0bbd
00000090: 40a9 413d 5a43 3cbd 78a6 b9bd 4526 c3bd
000000a0: b265 9fbc e5ed c6bb fe74 90bd 86eb c03d
000000b0: 7b8e 603d 1f58 223e 5aa6 9a3c d887 1bbd
000000c0: 89c3 9abd f52c 89bb 819b 523d a4b1 d4bd
000000d0: 5bac 8fbb 2332 9f3d 5f24 453e ca54 993c
000000e0: cea2 b3bd c9b8 5dbd e2fc 3e3d 3e14 51bd
000000f0: a724 c63d 00a5 05be 90ba 54ba 9b90 893d
00000100: 577e 2abe d6a9 993c 7c88 873d 5625 9ebd
00000110: 84a6 9fbd ebbc 8bbd 70ab f73d 7673 c23d
00000120: 0a2a 42bd f956 2dbe f5aa 64bd f1d0 d0bd
00000130: cad0 af3d 6390 2e3d e939 303c c708 b03c
00000140: e46f aebd 6a58 cbbc f695 4ebc 093c 9f3d
00000150: a026 923d 73c6 273e 7c69 efbc 0d02 ba3b
00000160: 0b43 dd3c 8f0d 8d3d bc82 4ebd 341e 913d
00000170: 9072 33bd eb5d b4bd efcd 62bd 6cc1 b2bd
00000180: 66dd c5bc 3045 a2bd a230 edbd 4c16 a1bc
00000190: cc30 813d abf2 6fbe 4503 ddbc 571c 893d
000001a0: ac4f 833d 57ed c0bd e56c bd3b 649a 22bd
000001b0: acd4 54bc 4b7f ff3d 9239 b3bd e983 543e
000001c0: 60e5 c03c 1334 57bc 3154 533d b796 d2bc
000001d0: 3ebd 02bb 9797 97bc aa19 90bb b412 66bd
000001e0: 6ea3 e3bd 079a 0c3d 0bc7 533d 3363 f9bd
000001f0: 54d0 3abb 8323 343d 1c4f 873d 9512 cbbd
00000200: 330d 2fbe 2580 9cbd 96f3 2fbe 4f78 b83c
00000210: 5774 42bd a408 0a3e 3fdc 2c3d d31d 1c3d
00000220: 0d9c 783d 5fd6 563d 3a57 2d3c 3cab a63b
00000230: 8fa6 bfbd 8de5 f23c cae0 b93d 50e4 edbd
00000240: 7b7c 073e e3fd 113d 97c5 c7bd b5f3 15bd
00000250: 4c5a 43bd 0848 dbbd d786 903d 9ba2 f33d
00000260: b02a 17bd 3ae1 d6bd 9278 333c f936 023d
00000270: 1c6b 9b3d d1d1 b9bd 59b3 57be 08a2 c73c
00000280: ee2c 1f3d b1bc d63d 4507 8e3d a052 843d
00000290: bc6b 813d 2b1f 0dbd e9d8 083e 2853 af3d
000002a0: da9d 79bd 83ce 893d 95ee 483d 2d88 c4bd
000002b0: 0fa0 6a3e 2c3a e0bd 8b8a c5bd 76f4 2cbc
000002c0: c5b1 9ebc da31 0fbc c108 2abe 8d7e 0fbc
000002d0: d337 cc3d 6897 9c3b 8021 a1bc fb56 15be
000002e0: 142f 12bd 6d9d 94bb 0e51 a8bd fa80 8b3a
000002f0: e812 3c3c df44 45bd fc43 173d 8a5c 103d
00000300: 63e2 123b f7ad 4d3c bbe3 51bc 245f 0fbe
00000310: 87f3 2f3d f649 ebbc ca83 f83d 01e7 813c
00000320: 8db7 24bd b6f6 ce3c dba4 aa3d 073d 8b3d
00000330: 98e9 8a3d 38ff c53c 847a 47bc b3ff c6bc
00000340: 1838 4c3c c121 c8bb 2e86 183c 125d 67bd
00000350: 95a3 633d a7d9 913d 9dfc bb3c 418a 5d3d
00000360: 6144 ca3d 10d7 1d3d 7dc5 19bd 8189 aa3c
00000370: 04a6 4bbd 6fc3 4a3d c8a5 7b3d 5df9 3d3d
00000380: 6a76 1cbc 14cb 1e3d 6400 823d f425 293d
00000390: d928 aebb 6b3b 1a3d 6da7 e1bc be5d adbc
000003a0: 2ba0 fc3c fdee f0bb 586b 64be b48b 3c3b
000003b0: 76db fc3b 6d07 a0bd de38 173d 3ee3 65bc
000003c0: 2e81 ca3d 6dbd 1dbd 9f8d 70bc f32c 98bd
000003d0: b0f7 8f3a 85bf 013e 3a38 c7bd 701c 053e
000003e0: 4b7b 98bb c466 b03c c724 08bd f774 bb3c
000003f0: 8d05 1a3a d601 103d 2894 23bc 3f39 a2bc
-0.08225514 0.0021073704 -0.09682017 -0.21110108 0.041533697 0.026196811 0.016703336 0.08653007
-0.10455258 0.10006128 -0.09687068 -0.09969245 0.067976825 0.10654262 0.11491537 -0.08645223
0.071280085 0.09909467 0.029236251 -0.14666533 0.03571778 0.035559718 0.015350441 -0.047346253
-0.08125208 -0.08608812 0.1617248 0.06429047 0.1419181 -0.059104826 0.21638113 0.004267075
-0.0126603665 -0.022788659 -0.027598504 -0.034020342 0.04728055 -0.04596267 -0.090649545 -0.09528784
-0.019457672 -0.0060708397 -0.070535645 0.094199225 0.05482338 0.15853928 0.01887815 -0.037971348
-0.075568266 -0.0041862675 0.05141783 -0.10385445 -0.00438456 0.07773235 0.19252156 0.018717188
-0.08771287 -0.054131303 0.046627887 -0.051044695 0.0967496 -0.13051224 -0.0008114958 0.067170344
-0.16649757 0.018757742 0.06617829 -0.07721965 -0.07795432 -0.068231426 0.12093246 0.09494679
-0.047403373 -0.16927709 -0.0558271 -0.101961024 0.08584745 0.042618167 0.010755994 0.02148856
-0.08517435 -0.024822433 -0.012608996 0.07775123 0.071362734 0.16384296 -0.029225104 0.005676514
0.027009508 0.06887352 -0.050417647 0.07085839 -0.043810427 -0.08806976 -0.055372175 -0.087282985
-0.024153423 -0.07923353 -0.115815416 -0.019663952 0.063081354 -0.23432414 -0.026979098 0.066948585
0.064116806 -0.09420269 0.0057808035 -0.03969802 -0.012990158 0.12475451 -0.08751215 0.20753445
0.023546875 -0.013134974 0.051593963 -0.025706632 -0.0019949223 -0.0185049 -0.0043975906 -0.05617018
-0.11115156 0.03432658 0.051703494 -0.12177124 -0.002850552 0.04397918 0.06606886 -0.099156536
-0.17094879 -0.07641629 -0.17182764 0.022518305 -0.04747423 0.13479859 0.04220223 0.03811438
0.060695697 0.052450534 0.010579878 0.0050863307 -0.093579404 0.029650474 0.09076078 -0.11615813
0.1323108 0.035642516 -0.09754484 -0.03660937 -0.047693536 -0.10707098 0.07056969 0.11896249
-0.036905944 -0.10492177 0.010954039 0.031790707 0.07588789 -0.090732224 -0.2106451 0.024369255
0.038861208 0.10485209 0.0693498 0.06461072 0.06319377 -0.034453552 0.13363995 0.08560783
-0.060941555 0.06728842 0.049055655 -0.09596286 0.2291262 -0.109485954 -0.096455656 -0.010556331
-0.019371876 -0.008739913 -0.16604902 -0.008758199 0.09971585 0.004778791 -0.019669294 -0.14583962
-0.03568943 -0.004535368 -0.08218585 0.0010643296 0.011479117 -0.048161384 0.03693007 0.035244502
0.002241277 0.0125536835 -0.012810643 -0.14001137 0.042956855 -0.02872179 0.12134512 0.015857222
-0.04021411 0.025264125 0.08332225 0.067987494 0.06782836 0.02416955 -0.012175206 -0.024291849
0.012464546 -0.0061075394 0.009309335 -0.056485243 0.055575926 0.07121592 0.022947604 0.054086927
0.098763235 0.038535178 -0.037541855 0.02081752 -0.04971887 0.049502786 0.0614374 0.04638039
-0.0095497165 0.03876789 0.06347731 0.04129596 -0.005314928 0.03765432 -0.027545655 -0.021162864
0.030838093 -0.0073527084 -0.22306573 0.0028769793 0.0077165915 -0.07813916 0.036919467 -0.01403123
0.0988792 -0.03851073 -0.014682203 -0.074304484 0.0010983851 0.12670715 -0.09727521 0.1299913
-0.0046533695 0.021533377 -0.0332382 0.022882922 0.0005875461 0.035158 -0.009984054 -0.019802688

network_body._body_endoder.seq_layers.2.bias f4 [128]
00000000: 0000 0000 0000 0000 0000 0000 0000 0000
00000010: 0000 0000 0000 0000 0000 0000 0000 0000
00000020: 0000 0000 0000 0000 0000 0000 0000 0000
00000030: 0000 0000 0000 0000 0000 0000 0000 0000
00000040: 0000 0000 0000 0000 0000 0000 0000 0000
00000050: 0000 0000 0000 0000 0000 0000 0000 0000
00000060: 0000 0000 0000 0000 0000 0000 0000 0000
00000070: 0000 0000 0000 0000 0000 0000 0000 0000
00000080: 0000 0000 0000 0000 0000 0000 0000 0000
00000090: 0000 0000 0000 0000 0000 0000 0000 0000
000000a0: 0000 0000 0000 0000 0000 0000 0000 0000
000000b0: 0000 0000 0000 0000 0000 0000 0000 0000
000000c0: 0000 0000 0000 0000 0000 0000 0000 0000
000000d0: 0000 0000 0000 0000 0000 0000 0000 0000
000000e0: 0000 0000 0000 0000 0000 0000 0000 0000
000000f0: 0000 0000 0000 0000 0000 0000 0000 0000
00000100: 0000 0000 0000 0000 0000 0000 0000 0000
00000110: 0000 0000 0000 0000 0000 0000 0000 0000
00000120: 0000 0000 0000 0000 0000 0000 0000 0000
00000130: 0000 0000 0000 0000 0000 0000 0000 0000
00000140: 0000 0000 0000 0000 0000 0000 0000 0000
00000150: 0000 0000 0000 0000 0000 0000 0000 0000
00000160: 0000 0000 0000 0000 0000 0000 0000 0000
00000170: 0000 0000 0000 0000 0000 0000 0000 0000
00000180: 0000 0000 0000 0000 0000 0000 0000 0000
00000190: 0000 0000 0000 0000 0000 0000 0000 0000
000001a0: 0000 0000 0000 0000 0000 0000 0000 0000
000001b0: 0000 0000 0000 0000 0000 0000 0000 0000
000001c0: 0000 0000 0000 0000 0000 0000 0000 0000
000001d0: 0000 0000 0000 0000 0000 0000 0000 0000
000001e0: 0000 0000 0000 0000 0000 0000 0000 0000
000001f0: 0000 0000 0000 0000 0000 0000 0000 0000
0.0 0.0 0.0 0.0 0.0 0.0 0.0 0.0
0.0 0.0 0.0 0.0 0.0 0.0 0.0 0.0
0.0 0.0 0.0 0.0 0.0 0.0 0.0 0.0
0.0 0.0 0.0 0.0 0.0 0.0 0.0 0.0
0.0 0.0 0.0 0.0 0.0 0.0 0.0 0.0
0.0 0.0 0.0 0.0 0.0 0.0 0.0 0.0
0.0 0.0 0.0 0.0 0.0 0.0 0.0 0.0
0.0 0.0 0.0 0.0 0.0 0.0 0.0 0.0
0.0 0.0 0.0 0.0 0.0 0.0 0.0 0.0
0.0 0.0 0.0 0.0 0.0 0.0 0.0 0.0
0.0 0.0 0.0 0.0 0.0 0.0 0.0 0.0
0.0 0.0 0.0 0.0 0.0 0.0 0.0 0.0
0.0 0.0 0.0 0.0 0.0 0.0 0.0 0.0
0.0 0.0 0.0 0.0 0.0 0.0 0.0 0.0
0.0 0.0 0.0 0.0 0.0 0.0 0.0 0.0
0.0 0.0 0.0 0.0 0.0 0.0 0.0 0.0

action_model._continuous_distribution.log_sigma f4 [1, 2]
00000000: 0000 0000 0000 0000
0.0 0.0

action_model._continuous_distribution.mu.weight f4 [2, 128]
00000000: 68db 353b 57d6 babc b7ba 2ebc 0b8e 943b
00000010: 855c 653b a9b6 3e3c e2a3 cd38 dd2e 523c
00000020: d532 acbb 1f7b 37bc a041 50bc cf6b 13bd
00000030: c61b 9abc ccf5 9c3b 0d1c f73b 857b b4bc
00000040: 60c9 ee3c 7678 c43c f838 f7bc 6a3b 7ebc
00000050: cb1f 443c d68c babb c432 3f3c 8d7d 3fbc
00000060: 8fef 773c af43 c13c f3ae e03c 6bcc b83a
00000070: 8b30 073c fa8d 29bc 2f93 e93b c4ad 2dbd
00000080: cdb5 15bb 3b15 593c f2f0 dabb 8fc7 cbbb
00000090: e4ad 8b3c e867 b3ba 9945 94bc a3b9 07bc
000000a0: 0b15 7a3b f45f 093c 827c 8ebb 5493 843c
000000b0: d701 043c 5ab6 4abc a49d 393c 43ea 073d
000000c0: 3da4 653b 8054 023d 1be4 2439 5f84 22bc
000000d0: efa2 04bc 950a 4eba 879c 03bc c70b 55bb
000000e0: 0705 3639 379d 26bc 9c8c 84bc d747 1bbc
000000f0: 4a62 a93b 4d66 7abb 55a7 ea3a bbf9 233c
00000100: 253e a13c f4a9 183c 202a 093d 7323 37bc
00000110: 8d72 2dbd ad14 d3bc 6f96 90bc 0a2c 513c
00000120: 3832 983b afea c23c 0758 57bc dde1 8fbc
00000130: 63e2 bdbc 9a03 d33c 3d43 1e3c 11dc aabc
00000140: 2723 763c 6751 b3bc 2beb 09bc dbad 003d
00000150: c663 943c cc48 a6bc 4a74 cabc e38d 023d
00000160: 0f67 7bbc aab9 f4bb 51d7 13bc 7b1b cf3b
00000170: 951d d3bb 0bbe 24bc 1f3c 03bd 8b90 1f3d
00000180: 2b28 afbc dea8 af3b 455f f03c a932 36bc
00000190: 5a0e fcb9 1d7a fdbc 2502 2fbc 83fc e83b
000001a0: 0e36 2a3c 4a13 63bc 528e 53bb f3fb 073c
000001b0: 5741 553b a270 7abc 4b24 9dbb 2567 aabc
000001c0: bbd4 0ebc 337c cbbc 7b19 613c 5f5b 743b
000001d0: ddb5 de3a 4008 fd3c 80c7 ac3c bc50 003d
000001e0: 213d 9d3b 37fc aebb fbb3 fb3c 6f13 df3c
000001f0: bc26 10bc 8acc 303c dd56 6039 3e0a 903c
00000200: 7cae 0a3c bfaa 153c f3ec 833c 5503 87bc
00000210: 624c a3bc 03ae cebb f490 903c 1369 46bc
00000220: db40 87bc 3919 2dbb 9dc5 c1bc a7de d93c
00000230: 2c98 a3bc b69f 93bb f88f 983c c161 863c
00000240: 10ab b53c 0f64 c0bc 9395 84bc 97bf 6cbc
00000250: 0da1 a23a 1fa7 b2bb d798 883b e22b 93bc
00000260: fafc 703c 43c4 803c 2be5 7dbc c0ae bd3c
00000270: e569 70bb 9dd9 c33c 725e 5e3c 982a 203c
00000280: 5b72 f3ba 9f91 8dbc 9617 053d 6828 f6b9
00000290: 37e3 92bc 93ac e03b abb4 f9bc a645 043d
000002a0: 13bd 8fbc 62dc cfbc 8669 1cbc ea96 703d
000002b0: 5ffa 06bc 22e8 b2b8 0808 dfbc 4e9a 463b
000002c0: f965 453c f207 f93a 70e4 a3bb 0716 1f3b
000002d0: 4575 823c 8ccb 9cbb 7419 3dba d335 ebbc
000002e0: ef0f 8abc 74de 443c 1cd7 20bc 15a9 f63c
000002f0: c31f 37bb 938f 603b c5f0 e9bc b72c 46bc
00000300: 78d9 593c 973e f73b 4343 aabc c717 90bb
00000310: 105f bfbc 65c9 9ebc eb6b 753c 298f 173d
00000320: 2f81 5fba efbf 0c3d c811 91bb 05c9 5bbc
00000330: 5e88 243d 2721 05bc d667 bd3b 4da7 653c
00000340: 27d6 cbbb cd15 413b 0a13 37bc d770 1fbb
00000350: ac82 053c 0726 483c d7be 12bb 1f36 8abc
00000360: 2a3d 753b 5ea0 a53b ba00 8b3b 7d2b f23c
00000370: c6c9 34bc b7cf 313a ed19 833c 6601 453c
00000380: 1ba4 873c bb8a aa3a abc0 093c 832d 013c
00000390: d816 bfbc 45c7 e0bc 4b85 393c 5f39 283c
000003a0: cc2d 18bc e296 d03b 6a7c 2fbd ec78 90bc
000003b0: f309 4e3c cb79 a33c 534b b83a 3f9d 873c
000003c0: 9fc9 a73c 4975 acba 1228 593a b5e2 4bbb
000003d0: 6ce8 063d fb71 6dbc c0b7 2bbb 83ad eabc
000003e0: 194d 95bc 0824 113c cd3e 943c 524c 573c
000003f0: 6fe5 fabb d3ba bbbb e048 42bc 2062 343c
0.0027749185 -0.022807283 -0.0106646335 0.0045335344 0.0034997773 0.011640229 9.805687e-05 0.012828556
-0.005255083 -0.011198788 -0.012710959 -0.035991486 -0.018812072 0.0047900435 0.0075411857 -0.022031555
0.029148757 0.023983222 -0.030178532 -0.015517095 0.011970471 -0.0056930585 0.011669818 -0.0116876485
0.015132799 0.023591844 0.027427172 0.0014099007 0.00825132 -0.010348791 0.0071281414 -0.042402044
-0.0022843957 0.013249691 -0.006681555 -0.0062188576 0.017050691 -0.0013687583 -0.018099593 -0.008284005
0.0038159515 0.008384693 -0.0043483386 0.016183533 0.008057079 -0.012372578 0.011329088 0.033182394
0.003504052 0.031818867 0.00015725235 -0.009919255 -0.008095487 -0.0007859853 -0.0080329245 -0.003250824
0.00017358745 -0.010169319 -0.016180329 -0.009477577 0.0051691877 -0.0038207949 0.0017902652 0.010008271
0.019682953 0.009317864 0.03348744 -0.011177885 -0.042345572 -0.025766695 -0.017649857 0.012766847
0.0046446584 0.023793546 -0.013143546 -0.017563755 -0.023179239 0.025758553 0.009659586 -0.020856889
0.015023029 -0.021889402 -0.008417885 0.0314158 0.018113982 -0.020298384 -0.024713654 0.031873595
-0.015344395 -0.007468422 -0.009023503 0.0063204146 -0.0064427354 -0.010055075 -0.032039758 0.038956206
-0.021381458 0.0053607067 0.029342303 -0.011120477 -0.00048075878 -0.030942017 -0.010681664 0.00711018
0.010388864 -0.013859579 -0.0032280874 0.0082998155 0.0032540166 -0.015285643 -0.004795586 -0.020801136
-0.008717711 -0.024839496 0.013738985 0.0037285907 0.0016991455 0.030887723 0.021091223 0.031326994
0.004798547 -0.005340125 0.03072547 0.027230946 -0.0087982975 0.010790953 0.00021394664 0.017583009
0.008464452 0.009134947 0.016104197 -0.016481081 -0.019933883 -0.006307365 0.017647244 -0.012110013
-0.016510418 -0.002641274 -0.0236538 0.026595427 -0.019970022 -0.004505123 0.018623337 0.016404035
0.022176296 -0.023485212 -0.016184604 -0.014449975 0.0012407616 -0.0054520513 0.0041686106 -0.01796526
0.014708752 0.015718585 -0.015496532 0.023154616 -0.0036684212 0.023907477 0.013572322 0.00977578
-0.0018573509 -0.017281352 0.032493196 -0.0004695088 -0.01793061 0.00685651 -0.030481657 0.032292984
-0.017546212 -0.025373641 -0.009546643 0.058737673 -0.008238404 -8.5309395e-05 -0.02722551 0.0030304375
0.012048238 0.001899956 -0.005001597 0.0024274604 0.01592506 -0.004785007 -0.00072135706 -0.028712189
-0.0168533 0.012015928 -0.009816911 0.030109921 -0.0027942515 0.0034265264 -0.02855719 -0.012095622
0.0132964775 0.007545303 -0.020784026 -0.0043973657 -0.023360759 -0.019383142 0.014979343 0.037001763
-0.0008526025 0.03436273 -0.0044271685 -0.013414626 0.040169112 -0.00812558 0.0057802005 0.014016938
-0.0062205973 0.0029462457 -0.011173973 -0.0024328732 0.00814883 0.012216098 -0.0022391581 -0.01687151
0.003742049 0.0050545176 0.00424203 0.029561752 -0.011034435 0.0006782966 0.016003573 0.012024259
0.016557744 0.0013011316 0.008407752 0.007884386 -0.023326322 -0.02743877 0.011323283 0.010267585
-0.009288263 0.006365643 -0.04284326 -0.017635785 0.012575614 0.019955536 0.0014060534 0.016554473
0.020481883 -0.0013157512 0.0008283864 -0.003111047 0.0329365 -0.014492507 -0.0026202053 -0.02864719
-0.01822524 0.008858688 0.018096352 0.013140755 -0.007656745 -0.0057290583 -0.011858195 0.011009723

action_model._continuous_distribution.mu.bias f4 [2]
00000000: 0000 0000 0000 0000
0.0 0.0
