results/ia1/PlayerScript.onnx (onnx, 76265 bytes, 7 tensors)

network_body._body_endoder.seq_layers.0.weight f4 [128, 13]
000000 8a 0b 9e bd 28 6b c9 ba 7a 79 c1 be e1 5e e1 3d
       -0.07717045 -0.0015367018 -0.37787992 0.11004425
000010 2d 64 43 be 30 18 95 bc 35 0d 0c bf e5 0c 84 3e
       -0.19081183 -0.01820001 -0.5470765 0.25791088
000020 4e f2 36 3e 33 48 04 3e 11 67 78 3e 0d 85 32 3e
       0.1786587 0.12918167 0.24258067 0.17433567
000030 8c 7a 11 be 4e 24 eb bd f5 90 02 3d a2 f2 f4 bd
       -0.14206904 -0.11481534 0.031876523 -0.11960341
000040 8d f7 f6 be d0 b2 de 3d 7f 96 a6 be 7e ef 51 3e
       -0.4823574 0.108739495 -0.32536694 0.20501515
000050 b6 0c 8c 3e 22 e7 b5 bc 2f 28 29 3d 85 a7 bc 3d
       0.27353448 -0.02220494 0.041298088 0.09211639
000060 d7 b7 2a be 9e 6e ca 3c 39 30 37 3c e1 88 23 3f
       -0.16671692 0.02471095 0.011180931 0.63880736
000070 de 16 51 3e 95 c0 a3 be 27 50 a8 bd 31 65 72 be
       0.2041888 -0.31982866 -0.08218413 -0.23671414
000080 8c 85 1d be 6b c7 8e 3e 58 c7 e1 be 26 d6 74 3d
       -0.15382975 0.2788652 -0.440974 0.05977454
000090 cf 9d a4 3e f8 c8 5b be 5a 23 33 bf 3b a7 b0 be
       0.32151648 -0.21463382 -0.6997582 -0.34502587
0000a0 ce cc 17 bc 8e 0a 13 3f c3 d1 a4 bd 05 3e 53 3e
       -0.009265138 0.5743798 -0.080478214 0.20629127
0000b0 f2 c4 bd 3e 25 4c f8 be 9b cb 4a bd e2 33 da bd
       0.3706432 -0.48495594 -0.04951058 -0.10654427
0000c0 fc a0 77 be 65 ca 49 be e3 1e 6d 3d f8 45 88 3e
       -0.24182504 -0.19706114 0.057890784 0.26615882
0000d0 b2 06 21 3d b4 8a ea be ca 90 0e 3d 0d 01 50 3e
       0.039313026 -0.45808947 0.03480605 0.20312901
0000e0 8a f7 3f 3d cb ba bf 3d 9c 30 7c 3d b5 c6 99 be
       0.04686693 0.093618 0.061569795 -0.30034414
0000f0 95 c3 a0 bd 85 14 50 be 52 63 2b 3e f0 20 dc 3e
       -0.07849804 -0.20320328 0.16737106 0.4299388
000100 bf c6 00 be 4f 3f 80 3e d4 05 8c 3e 29 41 81 3e
       -0.12575816 0.250483 0.27348197 0.25245026
000110 be 00 47 be dc 0f 7a 3e 2f df 9a be 85 17 22 be
       -0.19433877 0.24420112 -0.302484 -0.15829284
000120 3a 0e 20 3e 6c 95 df 3d 2b 16 c1 bd 9c 67 55 3e
       0.15630427 0.10917172 -0.09428056 0.20840305
000130 d8 84 fa bd 2c ad fb bc ea 61 21 bf ca 9f cd 3d
       -0.12232369 -0.030722223 -0.6304003 0.10040243
000140 d2 13 1e 3e 0a 23 05 bf 82 cc 22 be 95 ee ba 3d
       0.15437248 -0.5200659 -0.15898326 0.09127537
000150 26 bb ea 3e b1 7c 34 3d c4 5c c4 bd cc 31 17 3e
       0.45845908 0.044064227 -0.09588006 0.1476509
000160 50 48 04 be 1c ea 7b bb 48 75 10 3e 67 28 83 be
       -0.1291821 -0.00384391 0.14107239 -0.25616762
000170 a0 bb 9d 3e b8 e9 cd 3e 59 76 0b bf a4 25 97 be
       0.3080721 0.40217376 -0.5447746 -0.29520905
000180 31 bd c3 3c 03 4b 13 be ae 71 2d bd e6 5f e4 bc
       0.023893924 -0.14384083 -0.04234474 -0.02787776
000190 02 5b 34 3d 96 52 87 3e 7b e5 07 be e3 d2 79 3e
       0.044032104 0.26430196 -0.13271134 0.24396853
0001a0 5a 3a 1e 3e d8 3f fb 3d 00 68 db 3e a5 92 05 bf
       0.15451947 0.122680366 0.42852783 -0.52176887
0001b0 0b 7e 0b bf 5c 4b db 3e 2a 29 50 be 9b 22 ea 3e
       -0.544892 0.42830932 -0.20328203 0.45729527
0001c0 c2 f8 9a 3e c2 b7 00 bf 98 e0 0f 3e 67 94 8b 3d
       0.30267912 -0.5028039 0.1405052 0.06815415
0001d0 fe fe 16 be 1f 10 97 be f5 d9 0b be a7 2f 75 3e
       -0.1474571 -0.29504487 -0.13657363 0.23943959
0001e0 19 ed 98 3d 7f 81 82 3e 82 57 2e bf 48 17 1e bf
       0.07467098 0.25489423 -0.68102276 -0.61754274
0001f0 6b b7 6b bd f0 ef 30 be 92 6b 37 3e 99 cc 3e bf
       -0.057547968 -0.17279029 0.17912129 -0.7453094
000200 2b c0 9a bc 63 c9 ae be c6 b7 35 bf 1d 03 9c 3d
       -0.018890461 -0.3413802 -0.7098354 0.07617781
000210 29 00 cd 3e ec fa ff be e1 ea 0f bf 41 27 87 3d
       0.40039185 -0.49996126 -0.5621777 0.06599284
000220 62 99 0f be b4 af 9f 3d 65 66 1a bf b7 17 d4 3e
       -0.14023355 0.077971846 -0.6031249 0.41424343
000230 9f 02 66 be ce 62 25 be 03 8a f9 3d 71 39 c7 3e
       -0.22461937 -0.16150972 0.12184527 0.38911012
000240 a9 05 c3 3d 1c 1d f4 bd 0b 31 15 3e a6 ba 70 be
       0.09522564 -0.11919615 0.1456949 -0.235087
000250 59 07 8a 3c 99 9d 23 3e 3e f8 79 3d 11 22 9c 3e
       0.016849207 0.15978087 0.061027758 0.3049474
000260 fd 91 a4 3e a9 df 22 3f 71 fa 4d be 26 50 e7 3d
       0.3214263 0.6362253 -0.20115067 0.11294584
000270 48 11 4e 3e da ea a2 3e b2 98 f6 bd b2 b0 e5 3e
       0.2012378 0.31819803 -0.12040843 0.4486137
000280 f5 96 9f be f0 ab 80 be bd 39 86 3e a8 51 b0 3e
       -0.3116986 -0.25131178 0.26215926 0.344373
000290 b4 35 82 3d ad a8 1b bd 00 56 11 3d 1b f5 d3 3d
       0.06357899 -0.03800266 0.035482407 0.103494845
0002a0 a4 4c 1e bf 7c 11 26 3e a3 38 36 3f ad 17 a5 bc
       -0.61835694 0.16217607 0.7118017 -0.020152891
0002b0 d7 cf c9 3d 7e b8 90 3c 8c e5 9a be 84 81 79 3e
       0.098540954 0.017666098 -0.30253255 0.24365813
0002c0 fc ac a8 3e 46 a8 e7 be 4a 09 e8 be c0 42 86 be
       0.32944477 -0.4524557 -0.45319587 -0.262228
0002d0 38 23 02 be 70 bd 83 3d 65 a9 57 be 68 a9 cb 3e
       -0.12708747 0.06432617 -0.21060713 0.39777684
0002e0 83 96 df bd 09 4c b5 3d 19 10 96 3e 30 9c b2 be
       -0.1091738 0.08852393 0.29309157 -0.34884787
0002f0 a9 64 aa be 0c 26 26 be de 71 08 bf 93 2e b9 3e
       -0.33279923 -0.16225451 -0.5329875 0.36168346
000300 91 bc c2 be 2c c2 ef 3d 71 9a 97 3d d1 0f e6 3e
       -0.3803449 0.11706957 0.07402504 0.44933942
000310 e9 11 6b 3e 2d eb 38 3e 00 94 c2 be 6a 8c 35 3e
       0.22956051 0.18058462 -0.3800354 0.17729345
000320 17 55 d2 be ff d9 0f 3d 71 24 e0 be 16 83 9b bd
       -0.41080543 0.035120007 -0.43777803 -0.07593362
000330 61 30 33 bd c0 ba e4 3d 46 6c 5f be 22 01 e0 3e
       -0.04374731 0.11168432 -0.21818647 0.43750864
000340 94 71 8c bd 32 b8 72 3e f1 24 63 bb 45 dc e4 bd
       -0.06857601 0.23703077 -0.003465947 -0.111748256
000350 8a 9d af 3e 9a 37 35 be f8 83 12 bc c3 11 3c bd
       0.3429988 -0.17696992 -0.008942597 -0.045915376
000360 08 cb c3 bb 8f 7f d3 bd ef a4 0c be 8b 36 b8 bd
       -0.005975131 -0.10327064 -0.13734792 -0.08994778
000370 81 f2 a8 3e 57 28 00 3f df b4 b0 3d 4a 31 5c be
       0.32997516 0.50061554 0.086282484 -0.21503177
000380 d8 2f fc bd a0 56 dc 3d 7c 2a 0a bf 15 d9 7f 3e
       -0.12313813 0.1075871 -0.53971076 0.24985154
000390 09 f7 b4 3e fd 41 a5 3e 26 9e b3 be 3a 69 23 3e
       0.35344723 0.32276908 -0.35081595 0.1595811
0003a0 77 c5 98 bd 58 9b 30 3c 30 15 c9 bd 5e 45 2b 3e
       -0.074595384 0.010779224 -0.09818494 0.1672568
0003b0 f3 cb 7b be 76 42 33 3e 7c 86 fd be bb be 40 be
       -0.24589519 0.17505822 -0.49516666 -0.18822758
0003c0 51 d4 65 3e 6a 17 65 be 7a de 31 bd 1b f8 66 3e
       0.22444274 -0.22372213 -0.04342506 0.22555582
0003d0 d4 44 b2 be 37 27 c5 bc d6 ac 4d 3e b7 11 0c be
       -0.34818137 -0.02406655 0.20085463 -0.13678633
0003e0 69 c6 55 3c c8 47 b7 bd 34 9f 93 be 25 1f aa be
       0.013047793 -0.08949238 -0.288324 -0.33226886
0003f0 4d 3c 55 bd 9d 03 c4 bd e0 47 31 3d 10 38 bd 3b
       -0.05205946 -0.09571002 0.043281436 0.0057745054

network_body._body_endoder.seq_layers.0.bias f4 [128]
000000 00 00 00 00 00 00 00 00 00 00 00 00 00 00 00 00
       0.0 0.0 0.0 0.0
000010 00 00 00 00 00 00 00 00 00 00 00 00 00 00 00 00
       0.0 0.0 0.0 0.0
000020 00 00 00 00 00 00 00 00 00 00 00 00 00 00 00 00
       0.0 0.0 0.0 0.0
000030 00 00 00 00 00 00 00 00 00 00 00 00 00 00 00 00
       0.0 0.0 0.0 0.0
000040 00 00 00 00 00 00 00 00 00 00 00 00 00 00 00 00
       0.0 0.0 0.0 0.0
000050 00 00 00 00 00 00 00 00 00 00 00 00 00 00 00 00
       0.0 0.0 0.0 0.0
000060 00 00 00 00 00 00 00 00 00 00 00 00 00 00 00 00
       0.0 0.0 0.0 0.0
000070 00 00 00 00 00 00 00 00 00 00 00 00 00 00 00 00
       0.0 0.0 0.0 0.0
000080 00 00 00 00 00 00 00 00 00 00 00 00 00 00 00 00
       0.0 0.0 0.0 0.0
000090 00 00 00 00 00 00 00 00 00 00 00 00 00 00 00 00
       0.0 0.0 0.0 0.0
0000a0 00 00 00 00 00 00 00 00 00 00 00 00 00 00 00 00
       0.0 0.0 0.0 0.0
0000b0 00 00 00 00 00 00 00 00 00 00 00 00 00 00 00 00
       0.0 0.0 0.0 0.0
0000c0 00 00 00 00 00 00 00 00 00 00 00 00 00 00 00 00
       0.0 0.0 0.0 0.0
0000d0 00 00 00 00 00 00 00 00 00 00 00 00 00 00 00 00
       0.0 0.0 0.0 0.0
0000e0 00 00 00 00 00 00 00 00 00 00 00 00 00 00 00 00
       0.0 0.0 0.0 0.0
0000f0 00 00 00 00 00 00 00 00 00 00 00 00 00 00 00 00
       0.0 0.0 0.0 0.0
000100 00 00 00 00 00 00 00 00 00 00 00 00 00 00 00 00
       0.0 0.0 0.0 0.0
000110 00 00 00 00 00 00 00 00 00 00 00 00 00 00 00 00
       0.0 0.0 0.0 0.0
000120 00 00 00 00 00 00 00 00 00 00 00 00 00 00 00 00
       0.0 0.0 0.0 0.0
000130 00 00 00 00 00 00 00 00 00 00 00 00 00 00 00 00
       0.0 0.0 0.0 0.0
000140 00 00 00 00 00 00 00 00 00 00 00 00 00 00 00 00
       0.0 0.0 0.0 0.0
000150 00 00 00 00 00 00 00 00 00 00 00 00 00 00 00 00
       0.0 0.0 0.0 0.0
000160 00 00 00 00 00 00 00 00 00 00 00 00 00 00 00 00
       0.0 0.0 0.0 0.0
000170 00 00 00 00 00 00 00 00 00 00 00 00 00 00 00 00
       0.0 0.0 0.0 0.0
000180 00 00 00 00 00 00 00 00 00 00 00 00 00 00 00 00
       0.0 0.0 0.0 0.0
000190 00 00 00 00 00 00 00 00 00 00 00 00 00 00 00 00
       0.0 0.0 0.0 0.0
0001a0 00 00 00 00 00 00 00 00 00 00 00 00 00 00 00 00
       0.0 0.0 0.0 0.0
0001b0 00 00 00 00 00 00 00 00 00 00 00 00 00 00 00 00
       0.0 0.0 0.0 0.0
0001c0 00 00 00 00 00 00 00 00 00 00 00 00 00 00 00 00
       0.0 0.0 0.0 0.0
0001d0 00 00 00 00 00 00 00 00 00 00 00 00 00 00 00 00
       0.0 0.0 0.0 0.0
0001e0 00 00 00 00 00 00 00 00 00 00 00 00 00 00 00 00
       0.0 0.0 0.0 0.0
0001f0 00 00 00 00 00 00 00 00 00 00 00 00 00 00 00 00
       0.0 0.0 0.0 0.0

network_body._body_endoder.seq_layers.2.weight f4 [128, 128]
000000 f9 d8 8b bd a1 d6 b9 3d a3 9d 80 bc 88 d3 08 be
       -0.068284936 0.0907414 -0.015700167 -0.13361943
000010 39 05 67 3d cb 62 22 bd 69 8b 14 bd 75 82 37 3c
       0.056401465 -0.039644998 -0.036265764 0.011200537
000020 21 6d 86 bb a7 0c 86 bd 9f 93 1d be f2 f6 93 3e
       -0.0041023646 -0.06545382 -0.15388344 0.28899342
000030 64 c7 13 bd 49 5e 97 3c d5 71 99 3c 1d 88 dd bc
       -0.036078826 0.018477576 0.018731037 -0.027042443
000040 43 89 f5 bd 50 43 96 bd d6 80 d5 3d 5f 58 10 be
       -0.11989071 -0.073370576 0.10424964 -0.14096211
000050 d8 fc 98 bd bc b6 d6 3b a0 99 97 bc 73 1c 98 bd
       -0.07470101 0.0065525454 -0.018505871 -0.07427301
000060 63 cc e0 3d c5 eb 9c bc 3f 4a 03 3d 64 8f 47 3d
       0.10976484 -0.019155392 0.03205323 0.048720732
000070 7b 85 3f bd 2f 9b 8e bd 1a a3 86 bd b2 27 21 bd
       -0.046758156 -0.06963193 -0.06574078 -0.039344497
000080 4a e8 91 bd 5a 44 b3 3d 04 bd 3c be 14 bf 43 3e
       -0.07124384 0.087532714 -0.18431479 0.1911586
000090 61 2a bb bd c4 4e b3 3c 8d 4c 2e 3d 8a dc 4f bc
       -0.091389425 0.021888144 0.042553473 -0.012686858
0000a0 8d b0 a8 3d 10 ac 6a 3d 8a 6d a7 3d e8 af 31 bd
       0.082367994 0.057292998 0.0817519 -0.043380648
0000b0 24 a2 d8 bc 7a 9d 3a 3d 65 0b 1f 3d 7e a9 19 bb
       -0.026444502 0.045560338 0.038829226 -0.0023446972
0000c0 a7 57 42 bd 13 25 8b bd 2f b3 49 3e 0d 17 2f 3d
       -0.047446873 -0.06794181 0.1969726 0.042746592
0000d0 e6 f5 ec bd 0a 4f 3e bc 34 d6 4c bd 22 d3 f6 bc
       -0.11570339 -0.011615524 -0.050008968 -0.030129973
0000e0 9a ac 8b bd e1 1a 0f 3e 59 9e 15 3d 67 53 c7 bc
       -0.068200305 0.13975097 0.036527965 -0.024331762
0000f0 80 cc 94 bd 2a 25 79 3c fb b1 b1 bc b8 46 96 bd
       -0.07265568 0.0152066145 -0.021691313 -0.07337707
000100 54 6a 87 bd 7e 7a f9 bd 37 77 a1 bd 31 24 02 3e
       -0.06612077 -0.12181567 -0.078840666 0.12709118
000110 50 59 94 3d be 91 2b 3d 62 88 14 bc 7b aa 2d 3b
       0.072435975 0.041887037 -0.009065719 0.002649932
000120 07 6c 6e b9 90 b1 16 be f7 e9 78 bc b1 e4 a3 3d
       -0.00022737692 -0.14716172 -0.0151925 0.08002604
000130 5e 23 f9 3d db 19 0e 3e 7c 6d 24 3d d2 85 cb 3c
       0.12164949 0.1387705 0.040143475 0.024844084
000140 6d 8b d5 3d 88 32 60 bd ec 75 25 3d 0f 8c 78 3d
       0.10426984 -0.05473569 0.040395662 0.060680445
000150 64 ae 8e 3d c7 e9 20 3e 16 82 d1 bc fc 98 07 be
       0.06966856 0.15714179 -0.025574725 -0.13241953
000160 62 80 ca bd d8 4a 38 3d 6c 75 47 3c 7e bf dc bb
       -0.09887768 0.04499325 0.012173992 -0.006736695
000170 87 17 b6 3c 5d a8 a2 3c 98 67 c1 bd dc 16 12 3d
       0.022228016 0.019855672 -0.09443587 0.03566633
000180 21 c7 32 3e 03 ef e1 3d b7 4e 6b bb 65 24 4d 3d
       0.17458774 0.11031916 -0.0035905072 0.050083537
000190 ba dc 2d bd 2f 49 45 bc 65 2d 93 3c 59 cf 9e 3d
       -0.04244683 -0.012041374 0.017965982 0.07754392
0001a0 16 d0 ab bc df b9 0e 3e 4d 5a c0 bd 6e 5c 44 3d
       -0.020973247 0.13938092 -0.093922235 0.04793971
0001b0 53 e5 3e bd 6e 7a b5 ba 49 12 1d 3e 16 ff b3 3d
       -0.04660542 -0.0013845691 0.15339006 0.08788888
0001c0 29 4a 26 bc 9c e2 d6 3d bb 89 95 bd aa 6d 7d 3d
       -0.010149517 0.10492441 -0.073016606 0.061872162
0001d0 43 63 0f be 9d 18 91 bd 13 b8 01 3d 27 29 ce 3d
       -0.14002709 -0.07084773 0.031669687 0.10066443
0001e0 92 de 80 3c 5f 4e 6f 3d 61 4d 01 3e 75 6e e2 bd
       0.01573113 0.05842435 0.12627174 -0.11056224
0001f0 87 77 83 3d 7d 05 06 3e a1 f7 c0 3e cd 79 10 3d
       0.064192824 0.13088031 0.37688926 0.03527241
000200 6c 60 f7 bd 5f 0e d6 3d 5c 5c 5b 3d c5 04 b1 3d
       -0.12078938 0.1045196 0.053554878 0.08643488
000210 6c 16 f1 bc 7e 10 13 bc ea 88 c8 3c 30 95 11 3b
       -0.029429637 -0.0089761 0.024479348 0.0022214167
000220 34 70 32 3d 2b 2c 5f 3b 47 87 33 3d b2 da ce 3c
       0.043564036 0.0034053426 0.043830182 0.025250766
000230 ca 62 0f bd 14 07 15 bd 5a 1e 17 bc f3 9f db 3d
       -0.035006322 -0.036383703 -0.009223545 0.10723867
000240 6e 37 cc 3d c3 ed ba 3c 7f 47 cf 3d 67 24 e7 bd
       0.0997151 0.022818452 0.10121059 -0.1128624
000250 d3 af 04 3e 7e b4 81 bd bb d9 94 3c 32 2e 51 3e
       0.12957697 -0.06333254 0.018170228 0.20427778
000260 4a 34 9a 3c 92 5d 51 bb 1f 1e ac 3d 3b 08 cc 3c
       0.018823761 -0.0031946641 0.08404183 0.024906268
000270 40 02 50 bd 42 55 9f bd 07 2e 6a bd e3 f9 0b 3e
       -0.050783396 -0.077799335 -0.0571728 0.13669543
000280 01 0e d8 bc d1 63 d3 3c 77 1b 0c be 94 52 42 bd
       -0.026373865 0.025804432 -0.13682352 -0.047442034
000290 fd 0b 47 bc 30 c4 f3 bd c3 ab b4 bd ec f0 db bd
       -0.012148854 -0.11902654 -0.088218234 -0.107393116
0002a0 5a 76 e1 bd 4b 48 25 3e bc 9c bb bd 0f 03 7c bd
       -0.11008902 0.16140859 -0.09160754 -0.061526354
0002b0 4b 94 8a 3d d7 86 c9 3d 52 5c 45 bd 08 92 d7 3c
       0.06766566 0.09840172 -0.048183747 0.02631475
0002c0 8a 9c 72 bd d9 df c1 3a 85 0a ab bc a3 89 df bc
       -0.05923132 0.0014791443 -0.02087904 -0.02728731
0002d0 10 3f 27 3d 46 82 12 bd 3c e5 a8 3d 7b f6 25 3e
       0.040831625 -0.03576877 0.08246848 0.16207306
0002e0 f2 c6 b4 bd a6 bf 25 3e 93 cd cf bc 87 1d 0a 3e
       -0.08827008 0.1618639 -0.02536658 0.13487826
0002f0 6e b3 1e 3e dd 3f 92 bd 0c 82 71 3c 55 72 14 be
       0.15498134 -0.07141087 0.014740478 -0.14496739
000300 f9 f8 23 3e 23 1b 84 3a 0f a9 24 3e a7 cf 12 bd
       0.16012944 0.0010078888 0.16080116 -0.035842564
000310 bc fa 27 3c 77 d5 1a be 74 76 ad bd be fc 13 bd
       0.010252651 -0.15120493 -0.08469859 -0.036129706
000320 e2 ab f0 ba eb 4a 9d 3d 0f 8b 56 bd d4 52 b1 bd
       -0.0018361772 0.07680305 -0.05237871 -0.08658376
000330 00 e0 62 3d a6 ed e6 bd 99 08 91 3d fb d5 ae bd
       0.055389404 -0.112757966 0.07081718 -0.08536907
000340 67 51 91 bd e0 7c 18 bd e9 2e 54 3c 0c 00 d4 bd
       -0.070956044 -0.037228465 0.012950637 -0.103515714
000350 f2 96 02 be 23 36 26 be c5 a6 c4 bd 43 68 fc bd
       -0.12752894 -0.16231589 -0.09602121 -0.12324574
000360 e8 e7 06 3e ac 87 e7 bc 09 ed e5 3b 78 e6 d7 3d
       0.13174403 -0.028262936 0.007016782 0.10542005
000370 b8 df fe bd c8 88 72 bd 79 ce a7 bd 16 42 1a 3d
       -0.12445015 -0.059212476 -0.081936784 0.03766068
000380 e4 77 9e 3c 6a 35 1d bd e7 1f 13 bd c1 ea da bd
       0.019344278 -0.038381018 -0.035919096 -0.10689307
000390 40 94 f6 b8 92 4e 9f 3d c8 39 19 be 15 27 d4 3c
       -0.00011757808 0.07778658 -0.14963448 0.025897542
0003a0 3e ca 73 bc aa 29 33 3d e3 c9 95 3d f1 58 f7 ba
       -0.014879761 0.043740906 0.073138975 -0.0018871111
0003b0 6c 37 78 bd 96 c3 e0 bb f5 f7 d9 3a f7 62 71 3e
       -0.06059973 -0.006859253 0.0016629683 0.23572908
0003c0 2d ab 0b 3d ec 28 0f 3e 09 c7 de ba 82 8c d8 bd
       0.034098793 0.13980454 -0.0016996573 -0.10573675
0003d0 4b da 96 3c 6c e8 b3 bd f6 0f 64 bd a2 08 f4 3d
       0.018414637 -0.08784565 -0.055679284 0.11915709
0003e0 4e b7 bf 3c 72 49 86 3d 55 83 ed 3d 82 0e 0b be
       0.023402836 0.06556977 0.11597315 -0.13579753
0003f0 04 97 8f 3d 68 e0 62 bd c5 5e 3f be 0e 80 0e be
       0.07011226 -0.05538979 -0.18688495 -0.13916036

network_body._body_endoder.seq_layers.2.bias f4 [128]
000000 00 00 00 00 00 00 00 00 00 00 00 00 00 00 00 00
       0.0 0.0 0.0 0.0
000010 00 00 00 00 00 00 00 00 00 00 00 00 00 00 00 00
       0.0 0.0 0.0 0.0
000020 00 00 00 00 00 00 00 00 00 00 00 00 00 00 00 00
       0.0 0.0 0.0 0.0
000030 00 00 00 00 00 00 00 00 00 00 00 00 00 00 00 00
       0.0 0.0 0.0 0.0
000040 00 00 00 00 00 00 00 00 00 00 00 00 00 00 00 00
       0.0 0.0 0.0 0.0
000050 00 00 00 00 00 00 00 00 00 00 00 00 00 00 00 00
       0.0 0.0 0.0 0.0
000060 00 00 00 00 00 00 00 00 00 00 00 00 00 00 00 00
       0.0 0.0 0.0 0.0
000070 00 00 00 00 00 00 00 00 00 00 00 00 00 00 00 00
       0.0 0.0 0.0 0.0
000080 00 00 00 00 00 00 00 00 00 00 00 00 00 00 00 00
       0.0 0.0 0.0 0.0
000090 00 00 00 00 00 00 00 00 00 00 00 00 00 00 00 00
       0.0 0.0 0.0 0.0
0000a0 00 00 00 00 00 00 00 00 00 00 00 00 00 00 00 00
       0.0 0.0 0.0 0.0
0000b0 00 00 00 00 00 00 00 00 00 00 00 00 00 00 00 00
       0.0 0.0 0.0 0.0
0000c0 00 00 00 00 00 00 00 00 00 00 00 00 00 00 00 00
       0.0 0.0 0.0 0.0
0000d0 00 00 00 00 00 00 00 00 00 00 00 00 00 00 00 00
       0.0 0.0 0.0 0.0
0000e0 00 00 00 00 00 00 00 00 00 00 00 00 00 00 00 00
       0.0 0.0 0.0 0.0
0000f0 00 00 00 00 00 00 00 00 00 00 00 00 00 00 00 00
       0.0 0.0 0.0 0.0
000100 00 00 00 00 00 00 00 00 00 00 00 00 00 00 00 00
       0.0 0.0 0.0 0.0
000110 00 00 00 00 00 00 00 00 00 00 00 00 00 00 00 00
       0.0 0.0 0.0 0.0
000120 00 00 00 00 00 00 00 00 00 00 00 00 00 00 00 00
       0.0 0.0 0.0 0.0
000130 00 00 00 00 00 00 00 00 00 00 00 00 00 00 00 00
       0.0 0.0 0.0 0.0
000140 00 00 00 00 00 00 00 00 00 00 00 00 00 00 00 00
       0.0 0.0 0.0 0.0
000150 00 00 00 00 00 00 00 00 00 00 00 00 00 00 00 00
       0.0 0.0 0.0 0.0
000160 00 00 00 00 00 00 00 00 00 00 00 00 00 00 00 00
       0.0 0.0 0.0 0.0
000170 00 00 00 00 00 00 00 00 00 00 00 00 00 00 00 00
       0.0 0.0 0.0 0.0
000180 00 00 00 00 00 00 00 00 00 00 00 00 00 00 00 00
       0.0 0.0 0.0 0.0
000190 00 00 00 00 00 00 00 00 00 00 00 00 00 00 00 00
       0.0 0.0 0.0 0.0
0001a0 00 00 00 00 00 00 00 00 00 00 00 00 00 00 00 00
       0.0 0.0 0.0 0.0
0001b0 00 00 00 00 00 00 00 00 00 00 00 00 00 00 00 00
       0.0 0.0 0.0 0.0
0001c0 00 00 00 00 00 00 00 00 00 00 00 00 00 00 00 00
       0.0 0.0 0.0 0.0
0001d0 00 00 00 00 00 00 00 00 00 00 00 00 00 00 00 00
       0.0 0.0 0.0 0.0
0001e0 00 00 00 00 00 00 00 00 00 00 00 00 00 00 00 00
       0.0 0.0 0.0 0.0
0001f0 00 00 00 00 00 00 00 00 00 00 00 00 00 00 00 00
       0.0 0.0 0.0 0.0

action_model._continuous_distribution.log_sigma f4 [1, 2]
000000 00 00 00 00 00 00 00 00
       0.0 0.0

action_model._continuous_distribution.mu.weight f4 [2, 128]
000000 42 eb b4 3b 1a 0d 8d 3c 9b ec e1 bb 6b 41 b6 bc
       0.005521209 0.017218161 -0.0068946606 -0.02224799
000010 02 d4 4f bc 51 21 39 bc 2a ab 35 3a 47 02 3c bc
       -0.012684824 -0.011299447 0.00069301075 -0.011475152
000020 93 56 03 bd ab 11 0f bc e9 73 07 bd a4 2c c6 bb
       -0.032064985 -0.00873224 -0.033069525 -0.006047802
000030 9b 4b 9b 3c e3 3b 65 bb 94 47 2c 3c 13 91 01 3d
       0.01895695 -0.0034978322 0.010515112 0.031632494
000040 ad c0 e0 bb 24 f0 47 3c 95 c8 75 3c 83 5b 85 3c
       -0.0068589062 0.01220325 0.015001436 0.016278988
000050 6f 4b 6d 3c 67 e9 e5 3b ef f1 53 3c bd c1 35 bc
       0.014483317 0.007016349 0.012936099 -0.011093554
000060 72 6d a4 bc e2 ff 8d 3a d2 59 16 3d d1 33 ae bc
       -0.020071719 0.0010833705 0.036706753 -0.021264942
000070 1f 1a a4 3a e7 a8 9b bb 37 0c 68 3c ef 2b 12 bb
       0.0012519992 -0.0047503593 0.0141630685 -0.0022304018
000080 0e 6f 07 bc fe da 8e 3c 1d d2 a5 3c 13 9d 60 3b
       -0.008266224 0.017438408 0.020241791 0.003427331
000090 c5 17 54 3c b7 dd 40 3c 79 db 06 3d 9f 2d 29 3c
       0.01294512 0.011771611 0.03292415 0.010325818
0000a0 6f b7 ee 3b 41 8a 29 bc 03 7d 19 bb ff 20 3d bd
       0.0072850506 -0.010347904 -0.002342046 -0.046174046
0000b0 81 9d 91 ba 1b 76 bc 39 8f 7e 7a bc 8a f0 f5 3b
       -0.0011109562 0.0003594615 -0.015288963 0.007505481
0000c0 c6 ca aa bc 7f 4c ff 3c c2 b1 54 bb 83 cf 09 bb
       -0.020848643 0.031164406 -0.0032454585 -0.0021028228
0000d0 98 91 75 bc 75 69 e9 3b 6c 59 44 3c 5e bf c5 bc
       -0.014988326 0.007123167 0.01198421 -0.024139103
0000e0 85 9a 82 bc b2 00 79 b9 5d 05 5e bb f3 bf d9 3a
       -0.015942821 -0.0002374675 -0.0033877708 0.0016612991
0000f0 00 9f a0 bc af 56 d7 bb c6 5b a6 bc 9a 7c d0 bb
       -0.019607067 -0.006571613 -0.020307433 -0.00636251
000100 4f 5d 7a bc e1 05 1d bc 57 d3 d9 bc 1b d1 82 bc
       -0.015281036 -0.009583921 -0.026590033 -0.01596885
000110 6f e5 9a bb b3 ea 21 bc b8 47 63 3b 24 0a 17 bb
       -0.0047270576 -0.009882617 0.00346802 -0.0023046816
000120 0a 12 8a bb df 46 b2 bb 3a 5d 2d 3d 17 11 f5 b9
       -0.004213576 -0.0054405774 0.042325236 -0.00046742774
000130 08 ca 82 bc dd 16 cf 3c 15 1b d2 bb 30 95 53 bc
       -0.015965477 0.025279457 -0.00641192 -0.012913987
000140 2f 39 fd b8 4a 7a 4f 3c 12 3a 97 bc f3 03 4c bb
       -0.000120746314 0.012663433 -0.018460307 -0.0031130284
000150 bb 95 9c bc 23 07 0f 3d aa ad 83 3c e5 68 5a 3c
       -0.019114366 0.034918915 0.01607402 0.013330673
000160 a5 8d 5f bb ab 46 33 bc ab 12 3e bc 96 00 83 bb
       -0.0034111526 -0.0109421415 -0.0116011305 -0.0039978726
000170 70 bf 72 3c e0 89 1e bd d0 26 a8 3b bd a9 7b 3c
       0.01481615 -0.038705707 0.00513158 0.015360293
000180 ae 28 08 3c af 0a 9d 3b b2 09 de 3c c3 4b 95 3c
       0.00831048 0.0047925333 0.027104232 0.018224603
000190 c3 00 7a 3b b4 bc 30 3b 5b 67 b8 3c cd b3 90 3b
       0.0038147427 0.0026967945 0.022510221 0.004415965
0001a0 df f7 59 3b 73 54 84 bb 12 b6 7e 3b 96 2c 9f 3b
       0.0033259315 -0.0040383874 0.0038865847 0.00485761
0001b0 ee 62 9f bc 05 10 9d bc 8e 54 42 3c 6c e9 af bb
       -0.019456353 -0.019172678 0.01186098 -0.005368402
0001c0 dc 31 15 bd 2d f7 6a 3c be 7e 25 ba 6a e4 19 3c
       -0.036424503 0.014341158 -0.00063131365 0.009392837
0001d0 6d 06 87 bc 5a 1a da ba d5 c8 d4 bc 4b aa 22 3c
       -0.016482556 -0.0016639933 -0.02597467 0.009928296
0001e0 3a 34 a8 3b 01 18 2a bc 93 ac 13 bc 17 28 37 bc
       0.005133179 -0.0103817 -0.009013313 -0.011178992
0001f0 c8 52 e1 3c 75 72 3c bc 43 6b 76 3c 02 4b f5 3b
       0.027505293 -0.011501898 0.015040222 0.0074857483
000200 5d 51 82 bc f0 79 49 bc a7 5e 1d 3d 73 6d 1b 3b
       -0.015907938 -0.012297139 0.038420346 0.002371636
000210 0a 2b 50 3c 7c d2 9e bc 33 37 ef 3c c7 36 ae 3c
       0.012705574 -0.019387476 0.029201126 0.021266354
000220 56 22 04 bd e4 27 15 3c 78 14 c6 bc 90 88 a7 bc
       -0.032259308 0.009103749 -0.024179682 -0.02045086
000230 fb bb c9 bc 2c 4c c7 3b 68 23 05 3b 23 77 81 3c
       -0.024625769 0.0060820784 0.0020315293 0.01580388
000240 5f 11 9d 3c 27 9b d9 bc 47 bb be 38 da ca f1 bb
       0.019173322 -0.02656324 9.094789e-05 -0.007378918
000250 28 14 52 bb 6d a8 db b9 2c 45 27 bc 87 e5 1a 3c
       -0.003205547 -0.00041896422 -0.010209363 0.009454138
000260 aa a4 30 bb c2 ef 25 3c 1f 06 8b 38 95 cf c8 3b
       -0.0026953616 0.0101279635 6.629177e-05 0.0061282613
000270 2a b9 0c bd fb e9 2a 3c e5 8b d0 bc 80 ed b9 3c
       -0.034356274 0.010431762 -0.025457332 0.022696257
000280 4b b6 18 bc 5d 72 69 3c ed 8c 5c 3c 2e 00 31 bc
       -0.009320806 0.014248458 0.013461334 -0.0108032655
000290 9d ff 6e 3b dc a4 8c bc 87 94 e4 3c 6a 53 8d bc
       0.0036468275 -0.017168455 0.027902855 -0.017251689
0002a0 ad db f4 bb 5a ba c8 bc c9 df a8 bb 98 66 18 3d
       -0.0074724765 -0.024502922 -0.0051536304 0.037207216
0002b0 df fc 84 3c 68 0a 6b 3c 82 37 65 bc fb b3 54 3c
       0.01623386 0.014345743 -0.013990285 0.012982364
0002c0 bf a9 81 3c dd 9c 67 bc 47 2f 54 bc f1 aa cb bb
       0.015828012 -0.01413652 -0.012950725 -0.006215446
0002d0 3b 99 1c 3c 6b e2 f7 3b fa a4 4b bc c3 b0 da bb
       0.009558017 0.007564833 -0.01242947 -0.0066739037
0002e0 bb 5d 65 bb 7d 5a cd bb a3 ef 05 3c 08 50 dc 3b
       -0.0034998495 -0.0062668906 0.00817481 0.0067234077
0002f0 d3 7c 46 3c a5 b6 3d bc 93 96 a3 3c ef 7d 00 3c
       0.012114721 -0.01157919 0.01996926 0.007842525
000300 f8 fe 10 bd 0b b8 6d 3c 27 8a 3d 3b 5b 17 81 bc
       -0.035399407 0.014509211 0.0028921457 -0.015758207
000310 aa ae e0 3c ef 35 89 3c dc 61 1f bd f3 39 cc bb
       0.027427036 0.01674935 -0.038911685 -0.006232494
000320 45 de 89 bc 0f 8f a1 3c b5 c2 93 3c df cd 32 bb
       -0.01682962 0.019721536 0.01803718 -0.0027283353
000330 b0 6c 18 3c 9a 5c 89 bb 07 b6 65 bc b0 9c cc 3a
       0.009303257 -0.004191947 -0.0140204495 0.0015610661
000340 3b 93 36 3b db 13 88 bb d2 d5 e0 bc 73 b5 a1 bb
       0.0027858752 -0.0041527576 -0.027445707 -0.0049349605
000350 2e e7 96 39 e7 17 b6 3c 12 fe 52 bc 27 d4 2a bd
       0.00028782472 0.022228194 -0.012877958 -0.04170623
000360 17 ad dc bc 7f 6e f8 3b a5 e8 4f 3c e0 04 35 3c
       -0.026938004 0.0075815315 0.012689744 0.011048526
000370 87 e5 86 3b 9f a8 e8 ba 43 3f d3 3b e8 47 be 3c
       0.0041167173 -0.0017750448 0.0064467504 0.023227647
000380 66 c0 41 bc 41 5d 32 3c fa ae 5f bc 15 54 ae 3a
       -0.0118256565 0.010886491 -0.0136525575 0.0013300205
000390 66 7f 85 3c ab 68 8d 3c 9f 32 2b 3c 9a a8 bf 3a
       0.0162961 0.017261824 0.010449081 0.0014622391
0003a0 ed 12 80 bc 4d d2 a8 bc b2 39 db bc 92 79 70 3a
       -0.015634025 -0.020608092 -0.02676091 0.0009173389
0003b0 5f 8a d6 bc 47 05 6b bc d6 28 9a 3c 0f cf b9 39
       -0.026189027 -0.01434452 0.0188183 0.0003544022
0003c0 77 79 cb 3b 7b f8 23 bd 08 df 8f 3b 19 73 31 bc
       0.006209548 -0.04003189 0.004390601 -0.010830664
0003d0 0f f6 ec 3c 37 a7 1b bd 5b ef 9a 3b 4e b3 c5 3b
       0.028925924 -0.038001265 0.0047282404 0.0060333377
0003e0 d5 b0 84 bc 5c a2 04 3c d3 0f 87 bc 06 63 ae 3b
       -0.016197601 0.00809535 -0.016487038 0.005321863
0003f0 e0 b8 59 bb ef 8b b6 3b 81 bf ae 3c e0 d7 7b bc
       -0.0033221766 0.0055708806 0.02133155 -0.015371293

action_model._continuous_distribution.mu.bias f4 [2]
000000 00 00 00 00 00 00 00 00
       0.0 0.0
