results/ia2/PlayerScript/checkpoint.pt (torch, 161847 bytes, 12 tensors)

network_body._body_endoder.seq_layers.0.weight f4 [128, 18]
000000 12 64 5a 3e cf f2 34 3e 39 df 5f 3e 18 59 d1 3c
       0.21327236 0.17670749 0.21862496 0.025555179
000010 20 4d df 3e dd 1e 04 3d 01 b5 34 be bb 51 0a 3e
       0.4361353 0.032255996 -0.17647173 0.1350774
000020 98 b0 8e 3e dc 63 ae 3e 59 80 36 bd 87 40 9e 3e
       0.27869105 0.34060562 -0.044555996 0.30908605
000030 1f 91 3e bc 53 58 52 be 59 49 b9 3c 46 d4 86 3e
       -0.011631279 -0.20541506 0.022617983 0.26333827
000040 f7 ea fd 3d a5 52 8b 3e e4 3a ca be 2f f8 91 be
       0.123983316 0.2721149 -0.39498055 -0.28509662
000050 7b 71 6c be 2c 36 37 bd d7 62 16 bf 65 81 60 3e
       -0.23090164 -0.044729397 -0.5874457 0.2192436
000060 ca f4 12 3e 24 43 22 be 12 dd 8b 3e 1a cd 5c be
       0.14351192 -0.15845925 0.273171 -0.21562615
000070 b6 d5 7c be b2 dd 6c bf 0c 11 bb 3d a8 c8 23 3e
       -0.24690899 -0.9252578 0.09134111 0.15994513
000080 89 42 19 3f 9d f5 f8 bd c8 d3 61 be cc 60 8e be
       0.5986715 -0.12156222 -0.22053444 -0.27808225
000090 7e 31 c4 be c0 3b c1 3e 72 63 f7 bd e3 84 65 be
       -0.3831901 0.37740898 -0.120795146 -0.22413974
0000a0 6a c5 43 bc f5 5d 35 3e 25 70 50 3e c8 98 a3 3d
       -0.011948923 0.17711623 0.2035528 0.07988125
0000b0 3f a4 8d be 78 81 f5 bd eb e8 35 be 38 90 dd be
       -0.27664372 -0.11987585 -0.17764632 -0.43274093
0000c0 66 1d 10 3e 2d 70 5b 3e 2a d4 1e 3e 7e f5 bd 3d
       0.14073715 0.2142951 0.15510622 0.092753395
0000d0 f1 60 33 3e 95 46 93 be 5a d4 22 3d d1 d1 46 3d
       0.17517449 -0.28764787 0.039753295 0.04853994
0000e0 47 1a b1 be 3c 68 b9 bd 01 cc b4 ba 3b 05 52 3e
       -0.3459036 -0.09053084 -0.0013793708 0.20509808
0000f0 e3 21 a9 be d5 3d c2 bd ed 07 99 3c 07 65 4b bd
       -0.33033666 -0.0948445 0.018680537 -0.049656894
000100 4a 89 9f 3e 86 24 f6 be 01 8d b8 be 9f 72 7f 3e
       0.3115943 -0.4807474 -0.36045077 0.24946068
000110 ed 80 34 be 42 bd 9a 3d 9c b3 c7 be ce 25 87 be
       -0.17627306 0.07555629 -0.3900422 -0.2639603
000120 13 f5 0b 3e 9d 40 d8 3d 5b 37 50 3f 1c e3 9a be
       0.13667707 0.10559199 0.81334466 -0.30251396
000130 9b 5e a0 be 75 bf 94 3e d6 d6 52 be f4 48 66 3e
       -0.31322178 0.2905232 -0.20589766 0.22488767
000140 82 7f 73 bd 26 0f df 3d 96 78 e6 bd 7b 6f a6 3e
       -0.059447773 0.10891561 -0.11253469 0.32506928
000150 8d 89 50 3e 59 69 24 3e 6b 13 80 be ba e4 c3 be
       0.20364971 0.16055812 -0.25014815 -0.38260442
000160 aa 58 2e 3e be c3 fe be 3d 42 86 bd 2a 82 a1 bd
       0.1702601 -0.49758714 -0.06555603 -0.07886155
000170 83 27 c5 be 69 10 21 3e a4 bb 57 be 90 10 3e be
       -0.38506708 0.15728916 -0.21067673 -0.18561006
000180 d2 39 c2 3d ce f4 80 3d 0d bb 1b 3d 98 11 bf be
       0.094836846 0.06296693 0.038020182 -0.3731811
000190 27 24 90 be 5e 2b ea be 52 cd 84 be 3c 1a 24 3e
       -0.28152582 -0.45736212 -0.25937897 0.16025633
0001a0 94 eb e1 3d c3 93 83 3e 7f 8c 44 bd 02 e6 7e 3e
       0.11031261 0.2569867 -0.04798555 0.24892429
0001b0 fc 3c 3c be 6e 32 cf be 7a 91 25 be 27 3a a6 be
       -0.18382639 -0.40468162 -0.16168776 -0.32466242
0001c0 2c 9a 99 3e 81 38 8a be 98 52 4a 3e 1a 47 30 3e
       0.30000436 -0.26996234 0.1975807 0.17214623
0001d0 2b 9c 11 3f 74 57 fd 3d 03 43 55 3e c0 2d bb be
       0.5687892 0.12370196 0.20826344 -0.36558342
0001e0 f7 d0 00 3e 1c e4 7b be ff 64 07 3f 25 fa ad be
       0.12579714 -0.24598736 0.5288848 -0.33979908
0001f0 05 2b 5b 3d c9 b3 92 bd 8f 23 0f be 37 61 8b bd
       0.053507823 -0.071631975 -0.13978408 -0.06805652
000200 96 3d d3 be 4e c7 d6 ba 09 45 04 be 94 c5 23 be
       -0.41257924 -0.0016386302 -0.1291696 -0.15993339
000210 07 f6 41 be d0 d2 a3 3e 4c d5 7a 3d df c6 8b 3e
       -0.18941508 0.31996775 0.061238572 0.27300164
000220 e4 10 d0 be 93 c5 a3 3d 32 6f 4b be 9e d1 90 3e
       -0.40637887 0.07996669 -0.19866636 0.28284925
000230 6d 68 0f 3e 88 4b 51 bd 97 e6 c7 be 32 c0 92 3d
       0.14004679 -0.051097423 -0.39043114 0.071655646
000240 5a 9b 25 be c7 09 8a 3e 6c 84 86 be 8c 3d 1c be
       -0.16172543 0.26960585 -0.26272905 -0.15257853
000250 80 46 45 be 93 92 7f bd d2 f4 a8 3d c1 43 a7 3e
       -0.19265175 -0.062395643 0.08249821 0.3266888
000260 34 57 9e 3c 10 1c 54 3e 50 6b 21 3f 72 41 dd bd
       0.019328691 0.2071383 0.6305437 -0.10803498
000270 b1 05 37 be c9 29 65 be 26 01 10 be 53 0b 03 bf
       -0.17873265 -0.22379221 -0.14062938 -0.51189154
000280 36 e2 8a be 3f d3 98 bd a7 43 e3 3d 59 09 49 3e
       -0.2712571 -0.07462167 0.11096888 0.19632472
000290 d6 33 54 bd 75 5b 8b 3d b4 2a c9 3e 20 51 bc 3d
       -0.051807247 0.068045534 0.39290392 0.09195161
0002a0 84 3c b7 bd 33 9e e5 3d 29 47 a7 bb 36 1b 48 bd
       -0.08947089 0.11211815 -0.0051049185 -0.048854075
0002b0 73 5a 3e bd 01 81 1f bd fb 93 c5 3b 94 c9 0b 3e
       -0.046472978 -0.038941387 0.0060296035 0.13651115
0002c0 a6 ba ff bd c8 d2 3a bd 7e 96 4e 3e 40 6c ce bd
       -0.12486772 -0.045611173 0.20174596 -0.10079241
0002d0 35 06 b3 3c 30 d0 46 be e8 5b b9 3e 66 5f 8f 3e
       0.021853546 -0.19415355 0.3620293 0.2800247
0002e0 83 42 b1 be 9e 50 b1 3e 2d 5a 31 3d c4 34 02 bc
       -0.34621057 0.3463182 0.04329889 -0.007947151
0002f0 7d 0e ad 3e 4c 37 1e 3e 39 ba c6 3d 40 2e 0f bf
       0.33800116 0.15450782 0.09703488 -0.55929947
000300 ce 7e f9 3d 1d 8d 15 bb 7e a6 79 be 8b 75 96 3e
       0.12182389 -0.0022819706 -0.24379918 0.29386553
000310 e6 11 0f bf 6a 93 2d 3e 96 0a 90 3d e2 62 ea be
       -0.55886686 0.16950765 0.07033269 -0.45778567
000320 4a 91 17 be b2 35 cc 3d fb 4d 3b 3e b9 e8 54 3e
       -0.14801517 0.09971179 0.18291466 0.20791902
000330 e0 87 f4 3c 2c 7e 69 3e e3 b9 b5 3e e4 e7 2d bd
       0.029849946 0.22802037 0.35493383 -0.042457476
000340 49 ab 92 3e 96 da 0d be a5 a6 cc bc 39 2e b5 bd
       0.28646305 -0.13852915 -0.024981806 -0.08846707
000350 fe b6 98 be 65 5b ec 3d 22 4c bf be de 1d 53 3e
       -0.29827112 0.115408696 -0.37362772 0.20616862
000360 eb b2 88 3c e9 44 46 3e 2f 98 30 3e 42 d3 b3 3d
       0.016686877 0.19362225 0.17245553 0.087805286
000370 df 4d 78 3d f8 07 d9 be 91 9b ef 3c 5e 05 0a 3d
       0.06062114 -0.42388892 0.029248985 0.033696525
000380 4d 6b 97 3b 0c d2 a2 3d 16 ec de bd f5 41 be bd
       0.0046209455 0.079502195 -0.108848736 -0.09289924
000390 0c 51 07 3f 53 ea fe bd 8c 73 f1 3c 94 39 3a be
       0.5285804 -0.124470375 0.029474042 -0.18186027
0003a0 d1 a9 d9 3e 40 5f e1 be 12 63 d4 3c 3d 02 dd 3c
       0.42512372 -0.44017982 0.025926147 0.026978606
0003b0 5a 99 1f bd d1 b7 d8 bd d0 29 31 be 5b 1a 4e 3e
       -0.038964607 -0.10581935 -0.17301106 0.20127241
0003c0 db 3b 92 3e 34 50 7c 3e 10 7b 05 3e 58 19 cf 3e
       0.2856129 0.2463997 0.13035226 0.40449023
0003d0 73 77 91 bd a4 4f b7 bd 63 d0 48 be 2b fe 76 3c
       -0.07102861 -0.08950737 -0.19610743 0.015075247
0003e0 4e bc 4d bb 35 75 42 3e 9e 0b f8 be c7 32 19 bc
       -0.0031392756 0.18990023 -0.48446363 -0.009350485
0003f0 8b 96 2d be f5 23 48 be a5 f9 5c be aa 8a a9 bd
       -0.16951959 -0.19544967 -0.21579607 -0.08278401

network_body._body_endoder.seq_layers.0.bias f4 [128]
000000 00 00 00 00 00 00 00 00 00 00 00 00 00 00 00 00
       0.0 0.0 0.0 0.0
000010 00 00 00 00 00 00 00 00 00 00 00 00 00 00 00 00
       0.0 0.0 0.0 0.0
000020 00 00 00 00 00 00 00 00 00 00 00 00 00 00 00 00
       0.0 0.0 0.0 0.0
000030 00 00 00 00 00 00 00 00 00 00 00 00 00 00 00 00
       0.0 0.0 0.0 0.0
000040 00 00 00 00 00 00 00 00 00 00 00 00 00 00 00 00
       0.0 0.0 0.0 0.0
000050 00 00 00 00 00 00 00 00 00 00 00 00 00 00 00 00
       0.0 0.0 0.0 0.0
000060 00 00 00 00 00 00 00 00 00 00 00 00 00 00 00 00
       0.0 0.0 0.0 0.0
000070 00 00 00 00 00 00 00 00 00 00 00 00 00 00 00 00
       0.0 0.0 0.0 0.0
000080 00 00 00 00 00 00 00 00 00 00 00 00 00 00 00 00
       0.0 0.0 0.0 0.0
000090 00 00 00 00 00 00 00 00 00 00 00 00 00 00 00 00
       0.0 0.0 0.0 0.0
0000a0 00 00 00 00 00 00 00 00 00 00 00 00 00 00 00 00
       0.0 0.0 0.0 0.0
0000b0 00 00 00 00 00 00 00 00 00 00 00 00 00 00 00 00
       0.0 0.0 0.0 0.0
0000c0 00 00 00 00 00 00 00 00 00 00 00 00 00 00 00 00
       0.0 0.0 0.0 0.0
0000d0 00 00 00 00 00 00 00 00 00 00 00 00 00 00 00 00
       0.0 0.0 0.0 0.0
0000e0 00 00 00 00 00 00 00 00 00 00 00 00 00 00 00 00
       0.0 0.0 0.0 0.0
0000f0 00 00 00 00 00 00 00 00 00 00 00 00 00 00 00 00
       0.0 0.0 0.0 0.0
000100 00 00 00 00 00 00 00 00 00 00 00 00 00 00 00 00
       0.0 0.0 0.0 0.0
000110 00 00 00 00 00 00 00 00 00 00 00 00 00 00 00 00
       0.0 0.0 0.0 0.0
000120 00 00 00 00 00 00 00 00 00 00 00 00 00 00 00 00
       0.0 0.0 0.0 0.0
000130 00 00 00 00 00 00 00 00 00 00 00 00 00 00 00 00
       0.0 0.0 0.0 0.0
000140 00 00 00 00 00 00 00 00 00 00 00 00 00 00 00 00
       0.0 0.0 0.0 0.0
000150 00 00 00 00 00 00 00 00 00 00 00 00 00 00 00 00
       0.0 0.0 0.0 0.0
000160 00 00 00 00 00 00 00 00 00 00 00 00 00 00 00 00
       0.0 0.0 0.0 0.0
000170 00 00 00 00 00 00 00 00 00 00 00 00 00 00 00 00
       0.0 0.0 0.0 0.0
000180 00 00 00 00 00 00 00 00 00 00 00 00 00 00 00 00
       0.0 0.0 0.0 0.0
000190 00 00 00 00 00 00 00 00 00 00 00 00 00 00 00 00
       0.0 0.0 0.0 0.0
0001a0 00 00 00 00 00 00 00 00 00 00 00 00 00 00 00 00
       0.0 0.0 0.0 0.0
0001b0 00 00 00 00 00 00 00 00 00 00 00 00 00 00 00 00
       0.0 0.0 0.0 0.0
0001c0 00 00 00 00 00 00 00 00 00 00 00 00 00 00 00 00
       0.0 0.0 0.0 0.0
0001d0 00 00 00 00 00 00 00 00 00 00 00 00 00 00 00 00
       0.0 0.0 0.0 0.0
0001e0 00 00 00 00 00 00 00 00 00 00 00 00 00 00 00 00
       0.0 0.0 0.0 0.0
0001f0 00 00 00 00 00 00 00 00 00 00 00 00 00 00 00 00
       0.0 0.0 0.0 0.0

network_body._body_endoder.seq_layers.2.weight f4 [128, 128]
000000 62 75 a8 bd cf 1b 0a 3b a7 49 c6 bd e2 2a 58 be
       -0.08225514 0.0021073704 -0.09682017 -0.21110108
000010 3d 1f 2a 3d b2 9a d6 3c 6f d5 88 3c ad 36 b1 3d
       0.041533697 0.026196811 0.016703336 0.08653007
000020 aa 1f d6 bd ee ec cc 3d 23 64 c6 bd 8e 2b cc bd
       -0.10455258 0.10006128 -0.09687068 -0.09969245
000030 6f 37 8b 3d 04 33 da 3d c0 58 eb 3d de 0d b1 bd
       0.067976825 0.10654262 0.11491537 -0.08645223
000040 4b fb 91 3d 25 f2 ca 3d dd 80 ef 3c 70 2f 16 be
       0.071280085 0.09909467 0.029236251 -0.14666533
000050 cf 4c 12 3d 11 a7 11 3d 6b 80 7b 3c 25 ee 41 bd
       0.03571778 0.035559718 0.015350441 -0.047346253
000060 7e 67 a6 bd f8 4e b0 bd 30 9b 25 3e b9 aa 83 3d
       -0.08125208 -0.08608812 0.1617248 0.06429047
000070 fa 52 11 3e e7 17 72 bd 04 93 5d 3e d2 d2 8b 3b
       0.1419181 -0.059104826 0.21638113 0.004267075
000080 6d 6d 4f bc 48 af ba bc 42 16 e2 bc ea 58 0b bd
       -0.0126603665 -0.022788659 -0.027598504 -0.034020342
000090 40 a9 41 3d 5a 43 3c bd 78 a6 b9 bd 45 26 c3 bd
       0.04728055 -0.04596267 -0.090649545 -0.09528784
0000a0 b2 65 9f bc e5 ed c6 bb fe 74 90 bd 86 eb c0 3d
       -0.019457672 -0.0060708397 -0.070535645 0.094199225
0000b0 7b 8e 60 3d 1f 58 22 3e 5a a6 9a 3c d8 87 1b bd
       0.05482338 0.15853928 0.01887815 -0.037971348
0000c0 89 c3 9a bd f5 2c 89 bb 81 9b 52 3d a4 b1 d4 bd
       -0.075568266 -0.0041862675 0.05141783 -0.10385445
0000d0 5b ac 8f bb 23 32 9f 3d 5f 24 45 3e ca 54 99 3c
       -0.00438456 0.07773235 0.19252156 0.018717188
0000e0 ce a2 b3 bd c9 b8 5d bd e2 fc 3e 3d 3e 14 51 bd
       -0.08771287 -0.054131303 0.046627887 -0.051044695
0000f0 a7 24 c6 3d 00 a5 05 be 90 ba 54 ba 9b 90 89 3d
       0.0967496 -0.13051224 -0.0008114958 0.067170344
000100 57 7e 2a be d6 a9 99 3c 7c 88 87 3d 56 25 9e bd
       -0.16649757 0.018757742 0.06617829 -0.07721965
000110 84 a6 9f bd eb bc 8b bd 70 ab f7 3d 76 73 c2 3d
       -0.07795432 -0.068231426 0.12093246 0.09494679
000120 0a 2a 42 bd f9 56 2d be f5 aa 64 bd f1 d0 d0 bd
       -0.047403373 -0.16927709 -0.0558271 -0.101961024
000130 ca d0 af 3d 63 90 2e 3d e9 39 30 3c c7 08 b0 3c
       0.08584745 0.042618167 0.010755994 0.02148856
000140 e4 6f ae bd 6a 58 cb bc f6 95 4e bc 09 3c 9f 3d
       -0.08517435 -0.024822433 -0.012608996 0.07775123
000150 a0 26 92 3d 73 c6 27 3e 7c 69 ef bc 0d 02 ba 3b
       0.071362734 0.16384296 -0.029225104 0.005676514
000160 0b 43 dd 3c 8f 0d 8d 3d bc 82 4e bd 34 1e 91 3d
       0.027009508 0.06887352 -0.050417647 0.07085839
000170 90 72 33 bd eb 5d b4 bd ef cd 62 bd 6c c1 b2 bd
       -0.043810427 -0.08806976 -0.055372175 -0.087282985
000180 66 dd c5 bc 30 45 a2 bd a2 30 ed bd 4c 16 a1 bc
       -0.024153423 -0.07923353 -0.115815416 -0.019663952
000190 cc 30 81 3d ab f2 6f be 45 03 dd bc 57 1c 89 3d
       0.063081354 -0.23432414 -0.026979098 0.066948585
0001a0 ac 4f 83 3d 57 ed c0 bd e5 6c bd 3b 64 9a 22 bd
       0.064116806 -0.09420269 0.0057808035 -0.03969802
0001b0 ac d4 54 bc 4b 7f ff 3d 92 39 b3 bd e9 83 54 3e
       -0.012990158 0.12475451 -0.08751215 0.20753445
0001c0 60 e5 c0 3c 13 34 57 bc 31 54 53 3d b7 96 d2 bc
       0.023546875 -0.013134974 0.051593963 -0.025706632
0001d0 3e bd 02 bb 97 97 97 bc aa 19 90 bb b4 12 66 bd
       -0.0019949223 -0.0185049 -0.0043975906 -0.05617018
0001e0 6e a3 e3 bd 07 9a 0c 3d 0b c7 53 3d 33 63 f9 bd
       -0.11115156 0.03432658 0.051703494 -0.12177124
0001f0 54 d0 3a bb 83 23 34 3d 1c 4f 87 3d 95 12 cb bd
       -0.002850552 0.04397918 0.06606886 -0.099156536
000200 33 0d 2f be 25 80 9c bd 96 f3 2f be 4f 78 b8 3c
       -0.17094879 -0.07641629 -0.17182764 0.022518305
000210 57 74 42 bd a4 08 0a 3e 3f dc 2c 3d d3 1d 1c 3d
       -0.04747423 0.13479859 0.04220223 0.03811438
000220 0d 9c 78 3d 5f d6 56 3d 3a 57 2d 3c 3c ab a6 3b
       0.060695697 0.052450534 0.010579878 0.0050863307
000230 8f a6 bf bd 8d e5 f2 3c ca e0 b9 3d 50 e4 ed bd
       -0.093579404 0.029650474 0.09076078 -0.11615813
000240 7b 7c 07 3e e3 fd 11 3d 97 c5 c7 bd b5 f3 15 bd
       0.1323108 0.035642516 -0.09754484 -0.03660937
000250 4c 5a 43 bd 08 48 db bd d7 86 90 3d 9b a2 f3 3d
       -0.047693536 -0.10707098 0.07056969 0.11896249
000260 b0 2a 17 bd 3a e1 d6 bd 92 78 33 3c f9 36 02 3d
       -0.036905944 -0.10492177 0.010954039 0.031790707
000270 1c 6b 9b 3d d1 d1 b9 bd 59 b3 57 be 08 a2 c7 3c
       0.07588789 -0.090732224 -0.2106451 0.024369255
000280 ee 2c 1f 3d b1 bc d6 3d 45 07 8e 3d a0 52 84 3d
       0.038861208 0.10485209 0.0693498 0.06461072
000290 bc 6b 81 3d 2b 1f 0d bd e9 d8 08 3e 28 53 af 3d
       0.06319377 -0.034453552 0.13363995 0.08560783
0002a0 da 9d 79 bd 83 ce 89 3d 95 ee 48 3d 2d 88 c4 bd
       -0.060941555 0.06728842 0.049055655 -0.09596286
0002b0 0f a0 6a 3e 2c 3a e0 bd 8b 8a c5 bd 76 f4 2c bc
       0.2291262 -0.109485954 -0.096455656 -0.010556331
0002c0 c5 b1 9e bc da 31 0f bc c1 08 2a be 8d 7e 0f bc
       -0.019371876 -0.008739913 -0.16604902 -0.008758199
0002d0 d3 37 cc 3d 68 97 9c 3b 80 21 a1 bc fb 56 15 be
       0.09971585 0.004778791 -0.019669294 -0.14583962
0002e0 14 2f 12 bd 6d 9d 94 bb 0e 51 a8 bd fa 80 8b 3a
       -0.03568943 -0.004535368 -0.08218585 0.0010643296
0002f0 e8 12 3c 3c df 44 45 bd fc 43 17 3d 8a 5c 10 3d
       0.011479117 -0.048161384 0.03693007 0.035244502
000300 63 e2 12 3b f7 ad 4d 3c bb e3 51 bc 24 5f 0f be
       0.002241277 0.0125536835 -0.012810643 -0.14001137
000310 87 f3 2f 3d f6 49 eb bc ca 83 f8 3d 01 e7 81 3c
       0.042956855 -0.02872179 0.12134512 0.015857222
000320 8d b7 24 bd b6 f6 ce 3c db a4 aa 3d 07 3d 8b 3d
       -0.04021411 0.025264125 0.08332225 0.067987494
000330 98 e9 8a 3d 38 ff c5 3c 84 7a 47 bc b3 ff c6 bc
       0.06782836 0.02416955 -0.012175206 -0.024291849
000340 18 38 4c 3c c1 21 c8 bb 2e 86 18 3c 12 5d 67 bd
       0.012464546 -0.0061075394 0.009309335 -0.056485243
000350 95 a3 63 3d a7 d9 91 3d 9d fc bb 3c 41 8a 5d 3d
       0.055575926 0.07121592 0.022947604 0.054086927
000360 61 44 ca 3d 10 d7 1d 3d 7d c5 19 bd 81 89 aa 3c
       0.098763235 0.038535178 -0.037541855 0.02081752
000370 04 a6 4b bd 6f c3 4a 3d c8 a5 7b 3d 5d f9 3d 3d
       -0.04971887 0.049502786 0.0614374 0.04638039
000380 6a 76 1c bc 14 cb 1e 3d 64 00 82 3d f4 25 29 3d
       -0.0095497165 0.03876789 0.06347731 0.04129596
000390 d9 28 ae bb 6b 3b 1a 3d 6d a7 e1 bc be 5d ad bc
       -0.005314928 0.03765432 -0.027545655 -0.021162864
0003a0 2b a0 fc 3c fd ee f0 bb 58 6b 64 be b4 8b 3c 3b
       0.030838093 -0.0073527084 -0.22306573 0.0028769793
0003b0 76 db fc 3b 6d 07 a0 bd de 38 17 3d 3e e3 65 bc
       0.0077165915 -0.07813916 0.036919467 -0.01403123
0003c0 2e 81 ca 3d 6d bd 1d bd 9f 8d 70 bc f3 2c 98 bd
       0.0988792 -0.03851073 -0.014682203 -0.074304484
0003d0 b0 f7 8f 3a 85 bf 01 3e 3a 38 c7 bd 70 1c 05 3e
       0.0010983851 0.12670715 -0.09727521 0.1299913
0003e0 4b 7b 98 bb c4 66 b0 3c c7 24 08 bd f7 74 bb 3c
       -0.0046533695 0.021533377 -0.0332382 0.022882922
0003f0 8d 05 1a 3a d6 01 10 3d 28 94 23 bc 3f 39 a2 bc
       0.0005875461 0.035158 -0.009984054 -0.019802688

network_body._body_endoder.seq_layers.2.bias f4 [128]
000000 00 00 00 00 00 00 00 00 00 00 00 00 00 00 00 00
       0.0 0.0 0.0 0.0
000010 00 00 00 00 00 00 00 00 00 00 00 00 00 00 00 00
       0.0 0.0 0.0 0.0
000020 00 00 00 00 00 00 00 00 00 00 00 00 00 00 00 00
       0.0 0.0 0.0 0.0
000030 00 00 00 00 00 00 00 00 00 00 00 00 00 00 00 00
       0.0 0.0 0.0 0.0
000040 00 00 00 00 00 00 00 00 00 00 00 00 00 00 00 00
       0.0 0.0 0.0 0.0
000050 00 00 00 00 00 00 00 00 00 00 00 00 00 00 00 00
       0.0 0.0 0.0 0.0
000060 00 00 00 00 00 00 00 00 00 00 00 00 00 00 00 00
       0.0 0.0 0.0 0.0
000070 00 00 00 00 00 00 00 00 00 00 00 00 00 00 00 00
       0.0 0.0 0.0 0.0
000080 00 00 00 00 00 00 00 00 00 00 00 00 00 00 00 00
       0.0 0.0 0.0 0.0
000090 00 00 00 00 00 00 00 00 00 00 00 00 00 00 00 00
       0.0 0.0 0.0 0.0
0000a0 00 00 00 00 00 00 00 00 00 00 00 00 00 00 00 00
       0.0 0.0 0.0 0.0
0000b0 00 00 00 00 00 00 00 00 00 00 00 00 00 00 00 00
       0.0 0.0 0.0 0.0
0000c0 00 00 00 00 00 00 00 00 00 00 00 00 00 00 00 00
       0.0 0.0 0.0 0.0
0000d0 00 00 00 00 00 00 00 00 00 00 00 00 00 00 00 00
       0.0 0.0 0.0 0.0
0000e0 00 00 00 00 00 00 00 00 00 00 00 00 00 00 00 00
       0.0 0.0 0.0 0.0
0000f0 00 00 00 00 00 00 00 00 00 00 00 00 00 00 00 00
       0.0 0.0 0.0 0.0
000100 00 00 00 00 00 00 00 00 00 00 00 00 00 00 00 00
       0.0 0.0 0.0 0.0
000110 00 00 00 00 00 00 00 00 00 00 00 00 00 00 00 00
       0.0 0.0 0.0 0.0
000120 00 00 00 00 00 00 00 00 00 00 00 00 00 00 00 00
       0.0 0.0 0.0 0.0
000130 00 00 00 00 00 00 00 00 00 00 00 00 00 00 00 00
       0.0 0.0 0.0 0.0
000140 00 00 00 00 00 00 00 00 00 00 00 00 00 00 00 00
       0.0 0.0 0.0 0.0
000150 00 00 00 00 00 00 00 00 00 00 00 00 00 00 00 00
       0.0 0.0 0.0 0.0
000160 00 00 00 00 00 00 00 00 00 00 00 00 00 00 00 00
       0.0 0.0 0.0 0.0
000170 00 00 00 00 00 00 00 00 00 00 00 00 00 00 00 00
       0.0 0.0 0.0 0.0
000180 00 00 00 00 00 00 00 00 00 00 00 00 00 00 00 00
       0.0 0.0 0.0 0.0
000190 00 00 00 00 00 00 00 00 00 00 00 00 00 00 00 00
       0.0 0.0 0.0 0.0
0001a0 00 00 00 00 00 00 00 00 00 00 00 00 00 00 00 00
       0.0 0.0 0.0 0.0
0001b0 00 00 00 00 00 00 00 00 00 00 00 00 00 00 00 00
       0.0 0.0 0.0 0.0
0001c0 00 00 00 00 00 00 00 00 00 00 00 00 00 00 00 00
       0.0 0.0 0.0 0.0
0001d0 00 00 00 00 00 00 00 00 00 00 00 00 00 00 00 00
       0.0 0.0 0.0 0.0
0001e0 00 00 00 00 00 00 00 00 00 00 00 00 00 00 00 00
       0.0 0.0 0.0 0.0
0001f0 00 00 00 00 00 00 00 00 00 00 00 00 00 00 00 00
       0.0 0.0 0.0 0.0

action_model._continuous_distribution.log_sigma f4 [1, 2]
000000 00 00 00 00 00 00 00 00
       0.0 0.0

action_model._continuous_distribution.mu.weight f4 [2, 128]
000000 68 db 35 3b 57 d6 ba bc b7 ba 2e bc 0b 8e 94 3b
       0.0027749185 -0.022807283 -0.0106646335 0.0045335344
000010 85 5c 65 3b a9 b6 3e 3c e2 a3 cd 38 dd 2e 52 3c
       0.0034997773 0.011640229 9.805687e-05 0.012828556
000020 d5 32 ac bb 1f 7b 37 bc a0 41 50 bc cf 6b 13 bd
       -0.005255083 -0.011198788 -0.012710959 -0.035991486
000030 c6 1b 9a bc cc f5 9c 3b 0d 1c f7 3b 85 7b b4 bc
       -0.018812072 0.0047900435 0.0075411857 -0.022031555
000040 60 c9 ee 3c 76 78 c4 3c f8 38 f7 bc 6a 3b 7e bc
       0.029148757 0.023983222 -0.030178532 -0.015517095
000050 cb 1f 44 3c d6 8c ba bb c4 32 3f 3c 8d 7d 3f bc
       0.011970471 -0.0056930585 0.011669818 -0.0116876485
000060 8f ef 77 3c af 43 c1 3c f3 ae e0 3c 6b cc b8 3a
       0.015132799 0.023591844 0.027427172 0.0014099007
000070 8b 30 07 3c fa 8d 29 bc 2f 93 e9 3b c4 ad 2d bd
       0.00825132 -0.010348791 0.0071281414 -0.042402044
000080 cd b5 15 bb 3b 15 59 3c f2 f0 da bb 8f c7 cb bb
       -0.0022843957 0.013249691 -0.006681555 -0.0062188576
000090 e4 ad 8b 3c e8 67 b3 ba 99 45 94 bc a3 b9 07 bc
       0.017050691 -0.0013687583 -0.018099593 -0.008284005
0000a0 0b 15 7a 3b f4 5f 09 3c 82 7c 8e bb 54 93 84 3c
       0.0038159515 0.008384693 -0.0043483386 0.016183533
0000b0 d7 01 04 3c 5a b6 4a bc a4 9d 39 3c 43 ea 07 3d
       0.008057079 -0.012372578 0.011329088 0.033182394
0000c0 3d a4 65 3b 80 54 02 3d 1b e4 24 39 5f 84 22 bc
       0.003504052 0.031818867 0.00015725235 -0.009919255
0000d0 ef a2 04 bc 95 0a 4e ba 87 9c 03 bc c7 0b 55 bb
       -0.008095487 -0.0007859853 -0.0080329245 -0.003250824
0000e0 07 05 36 39 37 9d 26 bc 9c 8c 84 bc d7 47 1b bc
       0.00017358745 -0.010169319 -0.016180329 -0.009477577
0000f0 4a 62 a9 3b 4d 66 7a bb 55 a7 ea 3a bb f9 23 3c
       0.0051691877 -0.0038207949 0.0017902652 0.010008271
000100 25 3e a1 3c f4 a9 18 3c 20 2a 09 3d 73 23 37 bc
       0.019682953 0.009317864 0.03348744 -0.011177885
000110 8d 72 2d bd ad 14 d3 bc 6f 96 90 bc 0a 2c 51 3c
       -0.042345572 -0.025766695 -0.017649857 0.012766847
000120 38 32 98 3b af ea c2 3c 07 58 57 bc dd e1 8f bc
       0.0046446584 0.023793546 -0.013143546 -0.017563755
000130 63 e2 bd bc 9a 03 d3 3c 3d 43 1e 3c 11 dc aa bc
       -0.023179239 0.025758553 0.009659586 -0.020856889
000140 27 23 76 3c 67 51 b3 bc 2b eb 09 bc db ad 00 3d
       0.015023029 -0.021889402 -0.008417885 0.0314158
000150 c6 63 94 3c cc 48 a6 bc 4a 74 ca bc e3 8d 02 3d
       0.018113982 -0.020298384 -0.024713654 0.031873595
000160 0f 67 7b bc aa b9 f4 bb 51 d7 13 bc 7b 1b cf 3b
       -0.015344395 -0.007468422 -0.009023503 0.0063204146
000170 95 1d d3 bb 0b be 24 bc 1f 3c 03 bd 8b 90 1f 3d
       -0.0064427354 -0.010055075 -0.032039758 0.038956206
000180 2b 28 af bc de a8 af 3b 45 5f f0 3c a9 32 36 bc
       -0.021381458 0.0053607067 0.029342303 -0.011120477
000190 5a 0e fc b9 1d 7a fd bc 25 02 2f bc 83 fc e8 3b
       -0.00048075878 -0.030942017 -0.010681664 0.00711018
0001a0 0e 36 2a 3c 4a 13 63 bc 52 8e 53 bb f3 fb 07 3c
       0.010388864 -0.013859579 -0.0032280874 0.0082998155
0001b0 57 41 55 3b a2 70 7a bc 4b 24 9d bb 25 67 aa bc
       0.0032540166 -0.015285643 -0.004795586 -0.020801136
0001c0 bb d4 0e bc 33 7c cb bc 7b 19 61 3c 5f 5b 74 3b
       -0.008717711 -0.024839496 0.013738985 0.0037285907
0001d0 dd b5 de 3a 40 08 fd 3c 80 c7 ac 3c bc 50 00 3d
       0.0016991455 0.030887723 0.021091223 0.031326994
0001e0 21 3d 9d 3b 37 fc ae bb fb b3 fb 3c 6f 13 df 3c
       0.004798547 -0.005340125 0.03072547 0.027230946
0001f0 bc 26 10 bc 8a cc 30 3c dd 56 60 39 3e 0a 90 3c
       -0.0087982975 0.010790953 0.00021394664 0.017583009
000200 7c ae 0a 3c bf aa 15 3c f3 ec 83 3c 55 03 87 bc
       0.008464452 0.009134947 0.016104197 -0.016481081
000210 62 4c a3 bc 03 ae ce bb f4 90 90 3c 13 69 46 bc
       -0.019933883 -0.006307365 0.017647244 -0.012110013
000220 db 40 87 bc 39 19 2d bb 9d c5 c1 bc a7 de d9 3c
       -0.016510418 -0.002641274 -0.0236538 0.026595427
000230 2c 98 a3 bc b6 9f 93 bb f8 8f 98 3c c1 61 86 3c
       -0.019970022 -0.004505123 0.018623337 0.016404035
000240 10 ab b5 3c 0f 64 c0 bc 93 95 84 bc 97 bf 6c bc
       0.022176296 -0.023485212 -0.016184604 -0.014449975
000250 0d a1 a2 3a 1f a7 b2 bb d7 98 88 3b e2 2b 93 bc
       0.0012407616 -0.0054520513 0.0041686106 -0.01796526
000260 fa fc 70 3c 43 c4 80 3c 2b e5 7d bc c0 ae bd 3c
       0.014708752 0.015718585 -0.015496532 0.023154616
000270 e5 69 70 bb 9d d9 c3 3c 72 5e 5e 3c 98 2a 20 3c
       -0.0036684212 0.023907477 0.013572322 0.00977578
000280 5b 72 f3 ba 9f 91 8d bc 96 17 05 3d 68 28 f6 b9
       -0.0018573509 -0.017281352 0.032493196 -0.0004695088
000290 37 e3 92 bc 93 ac e0 3b ab b4 f9 bc a6 45 04 3d
       -0.01793061 0.00685651 -0.030481657 0.032292984
0002a0 13 bd 8f bc 62 dc cf bc 86 69 1c bc ea 96 70 3d
       -0.017546212 -0.025373641 -0.009546643 0.058737673
0002b0 5f fa 06 bc 22 e8 b2 b8 08 08 df bc 4e 9a 46 3b
       -0.008238404 -8.5309395e-05 -0.02722551 0.0030304375
0002c0 f9 65 45 3c f2 07 f9 3a 70 e4 a3 bb 07 16 1f 3b
       0.012048238 0.001899956 -0.005001597 0.0024274604
0002d0 45 75 82 3c 8c cb 9c bb 74 19 3d ba d3 35 eb bc
       0.01592506 -0.004785007 -0.00072135706 -0.028712189
0002e0 ef 0f 8a bc 74 de 44 3c 1c d7 20 bc 15 a9 f6 3c
       -0.0168533 0.012015928 -0.009816911 0.030109921
0002f0 c3 1f 37 bb 93 8f 60 3b c5 f0 e9 bc b7 2c 46 bc
       -0.0027942515 0.0034265264 -0.02855719 -0.012095622
000300 78 d9 59 3c 97 3e f7 3b 43 43 aa bc c7 17 90 bb
       0.0132964775 0.007545303 -0.020784026 -0.0043973657
000310 10 5f bf bc 65 c9 9e bc eb 6b 75 3c 29 8f 17 3d
       -0.023360759 -0.019383142 0.014979343 0.037001763
000320 2f 81 5f ba ef bf 0c 3d c8 11 91 bb 05 c9 5b bc
       -0.0008526025 0.03436273 -0.0044271685 -0.013414626
000330 5e 88 24 3d 27 21 05 bc d6 67 bd 3b 4d a7 65 3c
       0.040169112 -0.00812558 0.0057802005 0.014016938
000340 27 d6 cb bb cd 15 41 3b 0a 13 37 bc d7 70 1f bb
       -0.0062205973 0.0029462457 -0.011173973 -0.0024328732
000350 ac 82 05 3c 07 26 48 3c d7 be 12 bb 1f 36 8a bc
       0.00814883 0.012216098 -0.0022391581 -0.01687151
000360 2a 3d 75 3b 5e a0 a5 3b ba 00 8b 3b 7d 2b f2 3c
       0.003742049 0.0050545176 0.00424203 0.029561752
000370 c6 c9 34 bc b7 cf 31 3a ed 19 83 3c 66 01 45 3c
       -0.011034435 0.0006782966 0.016003573 0.012024259
000380 1b a4 87 3c bb 8a aa 3a ab c0 09 3c 83 2d 01 3c
       0.016557744 0.0013011316 0.008407752 0.007884386
000390 d8 16 bf bc 45 c7 e0 bc 4b 85 39 3c 5f 39 28 3c
       -0.023326322 -0.02743877 0.011323283 0.010267585
0003a0 cc 2d 18 bc e2 96 d0 3b 6a 7c 2f bd ec 78 90 bc
       -0.009288263 0.006365643 -0.04284326 -0.017635785
0003b0 f3 09 4e 3c cb 79 a3 3c 53 4b b8 3a 3f 9d 87 3c
       0.012575614 0.019955536 0.0014060534 0.016554473
0003c0 9f c9 a7 3c 49 75 ac ba 12 28 59 3a b5 e2 4b bb
       0.020481883 -0.0013157512 0.0008283864 -0.003111047
0003d0 6c e8 06 3d fb 71 6d bc c0 b7 2b bb 83 ad ea bc
       0.0329365 -0.014492507 -0.0026202053 -0.02864719
0003e0 19 4d 95 bc 08 24 11 3c cd 3e 94 3c 52 4c 57 3c
       -0.01822524 0.008858688 0.018096352 0.013140755
0003f0 6f e5 fa bb d3 ba bb bb e0 48 42 bc 20 62 34 3c
       -0.007656745 -0.0057290583 -0.011858195 0.011009723

action_model._continuous_distribution.mu.bias f4 [2]
000000 00 00 00 00 00 00 00 00
       0.0 0.0

network_body._body_endoder.seq_layers.0.weight f4 [128, 18]
000000 18 b6 b0 3e f3 d0 7a 3e b5 08 9d 3e 8d 22 b0 be
       0.34513927 0.2449377 0.30670705 -0.3440136
000010 fc d6 fb 39 ea 83 2a be 64 96 02 be a0 0d 76 be
       0.00048034627 -0.16651884 -0.12752682 -0.24028635
000020 03 9d f9 bd 46 1d 82 be 8a d2 51 3e d9 38 dc 3e
       -0.12188151 -0.2541296 0.2049047 0.4301212
000030 28 59 4e 3d e3 79 d8 3e 62 fb 02 be 31 77 b6 be
       0.050377995 0.42280492 -0.12791207 -0.3563781
000040 2e 52 01 be 94 a9 94 bd d2 3a 2c 3e 3e 0c 8c be
       -0.12629005 -0.07258907 0.16819313 -0.2735309
000050 98 30 35 bc 19 16 47 3e e3 af bf be 62 9a a9 3e
       -0.011058949 0.19442023 -0.37438878 0.33125597
000060 f3 bf be 3d 9e 76 9f bd 05 3a 45 3d 0d 09 cd 3e
       0.09313955 -0.07786296 0.048151035 0.40045968
000070 37 ff de be 72 f8 12 3e 38 83 51 be 2c 54 37 3d
       -0.43554088 0.14352587 -0.20460212 0.044758007
000080 80 9c 11 be 37 4a 46 be a9 78 83 3e 73 14 03 3e
       -0.14219856 -0.19364248 0.25677994 0.1280077
000090 cf 4d d1 3c 5f 8a 7e bd 62 6e b7 3c 27 52 dc bd
       0.025549797 -0.06214368 0.022391502 -0.10757857
0000a0 0d 52 90 be 44 6b 29 be 2c 53 23 3c 71 11 83 3e
       -0.281876 -0.16544825 0.00996856 0.25599244
0000b0 4d 8d 48 bb ae 79 bc 3e 8f e4 bc 3d 46 e1 1b 3e
       -0.00306018 0.36811584 0.092232816 0.15222654
0000c0 e7 7b 6d be 93 cf 9a 3e ea 12 73 3d da 03 9a bc
       -0.23191796 0.30236492 0.05934421 -0.018800665
0000d0 c1 14 2b be e8 54 77 be 5c 53 b9 3e f1 38 38 3e
       -0.16707136 -0.24153483 0.3619641 0.17990471
0000e0 bb 37 82 3e f9 0e b4 be e7 5a 8f be 10 a8 64 3e
       0.25433144 -0.35167673 -0.2799904 0.22329736
0000f0 b5 bb 2d bf 06 fc 9d bd 57 97 1e bc 36 1c a8 3e
       -0.67864543 -0.07714085 -0.009679637 0.32834023
000100 57 1b cc be bd f6 fb 3d c0 09 04 bf 08 99 af be
       -0.3986461 0.12302921 -0.5157738 -0.3429644
000110 60 31 89 3e 5c 3b 7a be bf 7f 9e be 91 2d b6 3e
       0.26795483 -0.24436706 -0.30956838 0.3558164
000120 ea 90 8b 3e c2 37 03 3e 5a 27 ef bd de 08 45 be
       0.27258998 0.12814239 -0.116774276 -0.19241664
000130 74 d9 a0 be c4 d7 45 3e 59 f1 53 be 6c 74 10 3d
       -0.31415904 0.1932059 -0.20697536 0.03526728
000140 92 38 03 be 52 89 6f 3d f2 ad dd 3e 2d 54 28 be
       -0.12814549 0.05848057 0.43296772 -0.1643836
000150 5b aa 6e be ee fb ff bd 76 4b fd 3d 76 eb c0 bd
       -0.23307173 -0.12499224 0.12367909 -0.094199106
000160 d6 a3 d1 3e 06 ff ad 3d 2e b5 7a be 33 4e d8 bb
       0.4094531 0.084959075 -0.24483177 -0.006601119
000170 8f f1 9d 3e 36 cd 56 bd 1b 24 1a 3e 31 78 a4 3e
       0.30848357 -0.0524418 0.15052836 0.3212295
000180 6b 8a 13 be 0b d6 b5 3e b6 bb 32 3d 14 c5 b9 be
       -0.14408271 0.35514864 0.043636046 -0.3628317
000190 e7 89 7e 3e 08 4a d0 3e bf 7a 8e 3d 21 83 47 bd
       0.24857293 0.4068148 0.06957006 -0.04870904
0001a0 cd 85 79 3e 7a 2c c4 3e dc 35 15 be 14 92 77 bd
       0.24367447 0.38315183 -0.14571327 -0.060442045
0001b0 10 09 9b 3e 03 e1 90 bd d5 f2 0e 3e 64 bf 63 3e
       0.30280352 -0.070741676 0.1395982 0.22240978
0001c0 6a 2f ad 3e b7 54 b2 be 4b 77 4e 3d 63 b9 61 3d
       0.33825237 -0.34830257 0.050406735 0.05510844
0001d0 ea 7d 9d be 34 ea 93 be 82 96 0e 3f 03 3c 4d 3e
       -0.30760127 -0.2888962 0.55698407 0.20042424
0001e0 ac a2 b2 be 67 bc 1c 3e 4b 0f 3b 3d 09 57 01 3f
       -0.34889734 0.15306245 0.04566888 0.5052343
0001f0 f0 47 71 bd 61 b7 63 be 2f fd 66 3e a6 60 17 bd
       -0.058906496 -0.22237922 0.2255752 -0.036957406
000200 01 36 c2 be 03 cf b9 bd 41 ab 84 3e e6 76 84 be
       -0.37931827 -0.090726875 0.25911906 -0.25871962
000210 73 01 0a 3e e8 4c 2a 3d e1 16 b9 3e b5 80 91 bd
       0.13477115 0.04157725 0.36150268 -0.07104627
000220 3d 5d f8 bc d5 32 88 3e 40 a0 ab 3c bd e0 0b bf
       -0.030317897 0.26601282 0.020950437 -0.546398
000230 d3 a9 ac be 34 d2 05 bd 94 f1 4e 3e c3 b7 8a ba
       -0.33723316 -0.03267117 0.20209342 -0.001058333
000240 dd d5 42 3e 79 71 4f be 13 9b 45 be bf b3 24 3e
       0.19026895 -0.2025813 -0.19297437 0.16084193
000250 87 75 dd bd ec 9e f0 3d 01 04 56 3e 6c 78 61 bd
       -0.10813432 0.11749062 0.20899965 -0.055046484
000260 37 92 f6 3d 1e cf 9b bd 9d 31 9f 3d 3d 34 95 be
       0.12039607 -0.07607864 0.07773135 -0.29141417
000270 c5 bb 2a 3e 71 23 e8 be bf 15 c3 bd 6e 69 9f 3d
       0.16673191 -0.4533954 -0.09525632 0.07783781
000280 8d 2f 1e 3e f0 2b 16 3e e7 2d 61 be 00 d5 9b bc
       0.15447827 0.14665198 -0.21990167 -0.019022465
000290 c3 b6 f9 3c 4e d9 02 bf 87 5c d5 bd 50 08 a5 be
       0.030482655 -0.5111283 -0.10418039 -0.32232904
0002a0 c9 16 50 3d 25 55 fd bd c9 9a de bd 2a 2f a7 be
       0.05080298 -0.12369756 -0.10869367 -0.3265317
0002b0 89 24 b6 3e 19 3b 4d be 2d 99 86 be 63 2f c7 be
       0.3557475 -0.20042075 -0.2628874 -0.3890334
0002c0 e1 66 95 3e bc 69 21 be bd 74 5a be 0e 19 80 3d
       0.29180053 -0.1576299 -0.21333595 0.06254779
0002d0 ed 5c e3 3d ec eb e5 3e 54 5b 02 be 24 9d ad bd
       0.111017086 0.44906557 -0.12730151 -0.08477238
0002e0 3c 44 b2 bd ea 24 79 be 31 ef 23 3e 44 36 4f 3e
       -0.08704421 -0.24330488 0.16009213 0.20235544
0002f0 78 17 ac 3e 44 27 0f be d0 fc 97 3e f7 b3 ca bd
       0.33611655 -0.13979822 0.29685068 -0.09897607
000300 d2 42 ae 3c c1 57 43 3e 80 4b 0d 3e d8 b1 9c bd
       0.021272097 0.19076444 0.13798332 -0.076511085
000310 ef 48 8f 3c 4e b2 2f be 96 eb 2c 3e f8 99 3e 3e
       0.017490832 -0.17157862 0.16886744 0.18613422
000320 b4 6c fa 3d c3 ab 32 be 72 cb 9c be 43 be 9e be
       0.12227765 -0.17448334 -0.30623966 -0.31004533
000330 2e d6 92 3d 7d d2 16 3d ad 66 4e 3e 80 00 92 3e
       0.07169758 0.03682183 0.20156355 0.28516006
000340 f7 5a fe 3d 2d 21 eb 3d 6b f2 ac be 1a 32 2b 3d
       0.12419694 0.11480937 -0.337787 0.041795827
000350 02 b1 ea 3d 81 c8 f0 3c 79 43 d9 bd bd 1d fb 3e
       0.11459543 0.029392483 -0.106085725 0.49046126
000360 d3 3d 9b be 96 bf e0 bd 25 d5 4d 3e ed ee 28 3e
       -0.30320606 -0.10974042 0.2010084 0.16497393
000370 f6 cb df bd 1d 0d 0d be aa 8c 9f bd b9 b5 65 bd
       -0.10927574 -0.13774534 -0.077905014 -0.056081507
000380 0b b2 31 3d 62 ea 31 3e 64 66 3f bd 48 28 2d bf
       0.043382686 0.17374566 -0.046728507 -0.6763959
000390 15 c1 0d 3e a3 11 7c 3e c3 73 48 be da 95 47 be
       0.13843186 0.24616103 -0.1957541 -0.19490758
0003a0 98 22 27 be c0 b6 1b 3e e4 26 46 bc ae 35 b7 3c
       -0.1632179 0.15206432 -0.012094233 0.022364464
0003b0 87 1f ae 3d e8 d4 c5 3e e1 65 4f be dd 85 3d 3e
       0.08502107 0.38638997 -0.20253707 0.18508096
0003c0 4b 64 12 3e a9 d2 97 be 23 3e a2 be 36 a1 13 3f
       0.14296071 -0.29652908 -0.31688032 0.57667863
0003d0 1d af 89 3c 45 2a 76 be 9e a8 4d 3b 8b 00 33 be
       0.016807133 -0.24039562 0.0031381021 -0.17480676
0003e0 08 87 58 bc dd 36 36 bd 51 e7 a1 3c a7 de 5c bf
       -0.013215788 -0.044485915 0.01976362 -0.8627724
0003f0 ad fc 88 be e0 6e 9c be a4 94 04 bd 35 94 8a 3c
       -0.26755276 -0.3055334 -0.032368317 0.016916374

network_body._body_endoder.seq_layers.0.bias f4 [128]
000000 00 00 00 00 00 00 00 00 00 00 00 00 00 00 00 00
       0.0 0.0 0.0 0.0
000010 00 00 00 00 00 00 00 00 00 00 00 00 00 00 00 00
       0.0 0.0 0.0 0.0
000020 00 00 00 00 00 00 00 00 00 00 00 00 00 00 00 00
       0.0 0.0 0.0 0.0
000030 00 00 00 00 00 00 00 00 00 00 00 00 00 00 00 00
       0.0 0.0 0.0 0.0
000040 00 00 00 00 00 00 00 00 00 00 00 00 00 00 00 00
       0.0 0.0 0.0 0.0
000050 00 00 00 00 00 00 00 00 00 00 00 00 00 00 00 00
       0.0 0.0 0.0 0.0
000060 00 00 00 00 00 00 00 00 00 00 00 00 00 00 00 00
       0.0 0.0 0.0 0.0
000070 00 00 00 00 00 00 00 00 00 00 00 00 00 00 00 00
       0.0 0.0 0.0 0.0
000080 00 00 00 00 00 00 00 00 00 00 00 00 00 00 00 00
       0.0 0.0 0.0 0.0
000090 00 00 00 00 00 00 00 00 00 00 00 00 00 00 00 00
       0.0 0.0 0.0 0.0
0000a0 00 00 00 00 00 00 00 00 00 00 00 00 00 00 00 00
       0.0 0.0 0.0 0.0
0000b0 00 00 00 00 00 00 00 00 00 00 00 00 00 00 00 00
       0.0 0.0 0.0 0.0
0000c0 00 00 00 00 00 00 00 00 00 00 00 00 00 00 00 00
       0.0 0.0 0.0 0.0
0000d0 00 00 00 00 00 00 00 00 00 00 00 00 00 00 00 00
       0.0 0.0 0.0 0.0
0000e0 00 00 00 00 00 00 00 00 00 00 00 00 00 00 00 00
       0.0 0.0 0.0 0.0
0000f0 00 00 00 00 00 00 00 00 00 00 00 00 00 00 00 00
       0.0 0.0 0.0 0.0
000100 00 00 00 00 00 00 00 00 00 00 00 00 00 00 00 00
       0.0 0.0 0.0 0.0
000110 00 00 00 00 00 00 00 00 00 00 00 00 00 00 00 00
       0.0 0.0 0.0 0.0
000120 00 00 00 00 00 00 00 00 00 00 00 00 00 00 00 00
       0.0 0.0 0.0 0.0
000130 00 00 00 00 00 00 00 00 00 00 00 00 00 00 00 00
       0.0 0.0 0.0 0.0
000140 00 00 00 00 00 00 00 00 00 00 00 00 00 00 00 00
       0.0 0.0 0.0 0.0
000150 00 00 00 00 00 00 00 00 00 00 00 00 00 00 00 00
       0.0 0.0 0.0 0.0
000160 00 00 00 00 00 00 00 00 00 00 00 00 00 00 00 00
       0.0 0.0 0.0 0.0
000170 00 00 00 00 00 00 00 00 00 00 00 00 00 00 00 00
       0.0 0.0 0.0 0.0
000180 00 00 00 00 00 00 00 00 00 00 00 00 00 00 00 00
       0.0 0.0 0.0 0.0
000190 00 00 00 00 00 00 00 00 00 00 00 00 00 00 00 00
       0.0 0.0 0.0 0.0
0001a0 00 00 00 00 00 00 00 00 00 00 00 00 00 00 00 00
       0.0 0.0 0.0 0.0
0001b0 00 00 00 00 00 00 00 00 00 00 00 00 00 00 00 00
       0.0 0.0 0.0 0.0
0001c0 00 00 00 00 00 00 00 00 00 00 00 00 00 00 00 00
       0.0 0.0 0.0 0.0
0001d0 00 00 00 00 00 00 00 00 00 00 00 00 00 00 00 00
       0.0 0.0 0.0 0.0
0001e0 00 00 00 00 00 00 00 00 00 00 00 00 00 00 00 00
       0.0 0.0 0.0 0.0
0001f0 00 00 00 00 00 00 00 00 00 00 00 00 00 00 00 00
       0.0 0.0 0.0 0.0

network_body._body_endoder.seq_layers.2.weight f4 [128, 128]
000000 d3 c7 dc 3d b5 8e 26 3e da 58 96 bd aa 15 95 bd
       0.10780301 0.16265376 -0.07341166 -0.07279523
000010 d5 d3 d5 3c f4 c5 63 bd 4b e4 2a bd 3e ec 82 bc
       0.026101986 -0.055608705 -0.041721623 -0.01598179
000020 a8 3f a3 bd eb 4f 44 3d af df 3a bc b3 28 17 3d
       -0.07971126 0.04792778 -0.011405869 0.03690405
000030 dc 7a a7 3d b4 a7 0b bd 09 00 3b bc 1b 5f df bd
       0.081777304 -0.03409548 -0.011413583 -0.10906812
000040 d7 8b da 3d ba 73 a0 bc ce cb fc bd be c4 a9 bc
       0.106712036 -0.019586433 -0.1234356 -0.020723697
000050 2c 19 01 3e 84 f2 1e 3b 90 a8 a9 bd 13 ac b6 3d
       0.12607259 0.0024253437 -0.08284104 0.08919539
000060 9f ae cd bd a4 0b e1 bd 4d 32 3c bc 61 70 57 bd
       -0.10043072 -0.109885484 -0.011486602 -0.052597407
000070 8f 03 13 3d 5e 46 28 3e 7b 7a 0c be 7f 46 0c bd
       0.035892066 0.16433093 -0.13718598 -0.034246918
000080 bf b8 31 3d 3b f6 41 bd 94 a2 a6 bd c4 a3 03 bd
       0.04338908 -0.047353964 -0.08136478 -0.0321386
000090 3c d5 d7 3a 63 ba b3 3d bc 9e 0e bd b2 52 28 3d
       0.0016466747 0.08775785 -0.03481935 0.04109449
0000a0 e3 35 84 bc 73 4d ea bd 8a 75 a3 3c aa f3 2a 3e
       -0.016138976 -0.114405535 0.019953508 0.16694513
0000b0 85 03 4d 3d a3 55 eb b8 6b 5d 14 bd 20 46 52 bd
       0.050052185 -0.00011221624 -0.036221903 -0.051336408
0000c0 95 25 a2 3d 98 fd 68 3d c8 ba 29 bd 9e a7 ce 3d
       0.079173245 0.05688247 -0.041437894 0.10090564
0000d0 99 62 3c bc d4 68 f2 3b 80 5c 39 bd c8 e5 48 bc
       -0.011498117 0.0073977504 -0.04525423 -0.012261815
0000e0 ef 33 e6 bd 42 29 2f bd d7 26 56 bd ce 0c 1d 3e
       -0.11240374 -0.042763956 -0.052283134 0.15336916
0000f0 e9 ba 44 3d 57 8f 6b 3e fd dd c1 bd a2 8a 6a 3c
       0.048029814 0.23003899 -0.09466169 0.014315279
000100 45 50 03 bd 9a f6 06 be e1 62 4f bd fa c6 42 3d
       -0.032058973 -0.13180009 -0.050631408 0.04755304
000110 27 5d 86 bd 52 4d 99 3c 2e b2 2f 3d 91 ea 36 3e
       -0.06560736 0.018713627 0.042894535 0.17862917
000120 bd f9 bf bd 69 2a 1c bd 86 6d b3 3d e3 db 35 3c
       -0.09373806 -0.038126383 0.08761124 0.011099788
000130 04 c1 3e 3d e3 e7 02 bd 51 fe a8 3d 93 79 39 be
       0.046570793 -0.031959426 0.08251632 -0.18112783
000140 dc 4f 3a 3b 57 83 94 3d 67 a0 4d 3e 8b c9 aa 3d
       0.0028428948 0.072516136 0.2008072 0.083392225
000150 a1 b1 06 bd 46 99 08 3e 1c 5d 53 bd cb 24 90 bd
       -0.032884244 0.13339719 -0.051602468 -0.07038268
000160 4e 43 b9 3d 1e 69 ff bc 55 80 fe bb d1 8d 9c bc
       0.090460405 -0.031178053 -0.007766763 -0.019110592
000170 10 07 30 bd 4c 63 88 3d 22 b3 c1 bd ba 50 00 be
       -0.042975485 0.066595644 -0.09457995 -0.12530795
000180 12 9d 21 bd a4 18 5a 3e 50 65 3f 3d a8 a7 1b 3d
       -0.039456435 0.21298462 0.04672748 0.038001686
000190 34 26 d9 bc 65 21 cc bd 65 62 c1 3c f3 74 e6 3d
       -0.026507474 -0.09967307 0.023606488 0.11252775
0001a0 6e 74 a6 bd 49 bc f4 bc 8c 9c 15 3c 5d 77 b3 3d
       -0.08127676 -0.029874938 0.009131562 0.08763001
0001b0 5b 75 be 3d 31 48 26 3d 16 7c 9c 3d be ca 22 3e
       0.092997275 0.04059619 0.07640855 0.15897653
0001c0 16 fb 01 3d cd 2d 9d 3d b0 71 5b bd 97 9c 6d bd
       0.031733595 0.076747514 -0.053575218 -0.058010664
0001d0 29 ba 83 3c eb d4 32 bc 3e e5 a5 3d dc f2 ad bd
       0.016079979 -0.010915021 0.08100365 -0.084935874
0001e0 54 93 b3 bc 67 3a 44 3d 93 a0 e2 bc 63 87 0b 3d
       -0.021920837 0.04790726 -0.027664458 0.03406466
0001f0 00 71 df 3b 12 e1 92 bd 2a 97 40 3d bc b1 62 be
       0.0068188906 -0.07171835 0.04701916 -0.22138113
000200 f9 0c 22 bc 08 17 2e 3d 47 57 8f bd 20 87 52 bc
       -0.009890788 0.042502433 -0.06999069 -0.012849599
000210 72 2f 33 bd 03 3e 58 3e 92 dc bd 3c 84 4d 4d bc
       -0.04374642 0.21117406 0.023176465 -0.012530688
000220 94 96 ea 3d 2c 83 98 bd 69 be 15 be 8c 50 5b be
       0.11454502 -0.07446894 -0.14623417 -0.21417445
000230 47 f5 99 3d 9c 5c a3 3c 0a 9d bb 3c fd d8 5c bd
       0.07517486 0.01994162 0.02290203 -0.053917874
000240 60 41 e5 bd 81 17 71 bd e1 78 41 3e eb f6 83 bd
       -0.1119411 -0.058860306 0.18893768 -0.0644358
000250 c2 3e bb 3c e5 29 05 be 03 ea 85 be 43 5d e1 bd
       0.022857074 -0.13004263 -0.261551 -0.110041164
000260 a6 70 fd 3c b1 a0 bf 3d a9 6b c7 bd 22 a8 6c 3d
       0.030937504 0.09356821 -0.097373314 0.05777753
000270 eb de 3b 3d 8f 14 fe 3b e3 27 4f 3d b5 cb 58 3d
       0.045866888 0.0077539156 0.05057515 0.052928645
000280 a5 47 8a 3c c3 e0 3c bd cb 69 ee bc 2d 6b b0 bd
       0.016879866 -0.046112787 -0.02910318 -0.08614192
000290 3b 80 bd bb c0 30 2c 3d 69 35 7e 3d df 9e 83 3d
       -0.0057831085 0.04203868 0.062062655 0.06426787
0002a0 bf c3 28 3d 6e 44 37 3e fb 5b 6a bc 3a 09 53 bb
       0.041202303 0.17897198 -0.014304156 -0.0032201544
0002b0 f7 95 dc 3d 94 42 b0 3d 9c 63 08 be 79 03 01 3d
       0.10770791 0.08606449 -0.13319248 0.031497452
0002c0 3d c1 2e bd ec 0c b9 3d 4f 9c f1 3a 6a 28 95 3d
       -0.042664755 0.09035668 0.0018433424 0.07283099
0002d0 72 4c f9 3c 48 7c 12 be c2 7c 00 be 07 b2 40 bb
       0.03043196 -0.14305222 -0.12547591 -0.0029402988
0002e0 19 c5 5c bd a8 1a bc bd 30 3f 3b 3d 1c 9d d7 3c
       -0.053898904 -0.09184772 0.045714557 0.026320033
0002f0 32 10 15 3d ad 27 c6 bd 97 e3 2e 3d 7b 40 21 3b
       0.0363924 -0.09675536 0.042697515 0.0024605084
000300 31 25 92 3d 6b 67 02 bb a4 3b 39 bd 9c 7f 83 bd
       0.07136 -0.0019898068 -0.045222893 -0.06420824
000310 3a 0e e5 3d df 09 85 bc d1 0d ac 3d ba eb 27 bc
       0.11184354 -0.016240058 0.08401073 -0.010249073
000320 a4 b9 55 3d ee 87 86 3b 04 07 27 3e ce 98 73 bd
       0.052178994 0.0041055596 0.1631127 -0.059471898
000330 cc a2 3b bd 58 46 90 bd df a8 36 be d5 fb 89 3d
       -0.045809552 -0.07044667 -0.17837857 0.06737486
000340 b4 fe d6 3d 7d 6d 40 3d 8f 3a 2d 3b 61 d4 18 3c
       0.104977995 0.046979416 0.0026432609 0.009327979
000350 15 21 b2 bd 32 cc 14 3e 1e b7 30 be 4c 40 06 3d
       -0.08697716 0.1453102 -0.17257354 0.032776162
000360 1f 43 bd 3c b0 3a 57 3d 23 ba e3 3d f6 3d 29 bc
       0.023103295 0.052546203 0.11119487 -0.010329714
000370 16 2d 7d be c3 8d 15 3e 3e 35 30 bd 13 7e ba bd
       -0.2472423 0.14604859 -0.043019526 -0.09106078
000380 24 fa e0 bc 08 a6 93 3c 2d 3c 59 3d 1b 0c 41 3d
       -0.027463026 0.018023506 0.053035904 0.047130685
000390 8c 58 58 3c 1d 7e 36 bc c1 77 36 3d 6c ae 18 3e
       0.013204705 -0.011138466 0.0445478 0.14910287
0003a0 f0 4c 61 bd 6b 74 62 bc b8 3c 04 3d ae 8e 62 3e
       -0.055005014 -0.0138217015 0.03228447 0.2212474
0003b0 dd a6 ac 3d cf 05 6f 3d b0 f8 d7 bb 3e 4b b4 3d
       0.08430264 0.05835515 -0.006590925 0.08803414
0003c0 74 25 99 3d ba d3 0d 3d 25 a9 94 bd 31 eb b5 bb
       0.07477847 0.034625746 -0.07258824 -0.0055517186
0003d0 2e c2 90 bd 41 16 40 bd 63 32 28 3d 9c 08 09 3d
       -0.07068287 -0.046896223 0.041063678 0.033455476
0003e0 a1 ed 1d be c3 f7 20 3b b9 47 ac 3c 0d 65 3f be
       -0.1542268 0.002456174 0.021030294 -0.18690892
0003f0 84 6a 08 3b e9 fc 7b 3d c0 59 56 3d b4 ab a8 3d
       0.0020815441 0.06152049 0.052331686 0.08235875

network_body._body_endoder.seq_layers.2.bias f4 [128]
000000 00 00 00 00 00 00 00 00 00 00 00 00 00 00 00 00
       0.0 0.0 0.0 0.0
000010 00 00 00 00 00 00 00 00 00 00 00 00 00 00 00 00
       0.0 0.0 0.0 0.0
000020 00 00 00 00 00 00 00 00 00 00 00 00 00 00 00 00
       0.0 0.0 0.0 0.0
000030 00 00 00 00 00 00 00 00 00 00 00 00 00 00 00 00
       0.0 0.0 0.0 0.0
000040 00 00 00 00 00 00 00 00 00 00 00 00 00 00 00 00
       0.0 0.0 0.0 0.0
000050 00 00 00 00 00 00 00 00 00 00 00 00 00 00 00 00
       0.0 0.0 0.0 0.0
000060 00 00 00 00 00 00 00 00 00 00 00 00 00 00 00 00
       0.0 0.0 0.0 0.0
000070 00 00 00 00 00 00 00 00 00 00 00 00 00 00 00 00
       0.0 0.0 0.0 0.0
000080 00 00 00 00 00 00 00 00 00 00 00 00 00 00 00 00
       0.0 0.0 0.0 0.0
000090 00 00 00 00 00 00 00 00 00 00 00 00 00 00 00 00
       0.0 0.0 0.0 0.0
0000a0 00 00 00 00 00 00 00 00 00 00 00 00 00 00 00 00
       0.0 0.0 0.0 0.0
0000b0 00 00 00 00 00 00 00 00 00 00 00 00 00 00 00 00
       0.0 0.0 0.0 0.0
0000c0 00 00 00 00 00 00 00 00 00 00 00 00 00 00 00 00
       0.0 0.0 0.0 0.0
0000d0 00 00 00 00 00 00 00 00 00 00 00 00 00 00 00 00
       0.0 0.0 0.0 0.0
0000e0 00 00 00 00 00 00 00 00 00 00 00 00 00 00 00 00
       0.0 0.0 0.0 0.0
0000f0 00 00 00 00 00 00 00 00 00 00 00 00 00 00 00 00
       0.0 0.0 0.0 0.0
000100 00 00 00 00 00 00 00 00 00 00 00 00 00 00 00 00
       0.0 0.0 0.0 0.0
000110 00 00 00 00 00 00 00 00 00 00 00 00 00 00 00 00
       0.0 0.0 0.0 0.0
000120 00 00 00 00 00 00 00 00 00 00 00 00 00 00 00 00
       0.0 0.0 0.0 0.0
000130 00 00 00 00 00 00 00 00 00 00 00 00 00 00 00 00
       0.0 0.0 0.0 0.0
000140 00 00 00 00 00 00 00 00 00 00 00 00 00 00 00 00
       0.0 0.0 0.0 0.0
000150 00 00 00 00 00 00 00 00 00 00 00 00 00 00 00 00
       0.0 0.0 0.0 0.0
000160 00 00 00 00 00 00 00 00 00 00 00 00 00 00 00 00
       0.0 0.0 0.0 0.0
000170 00 00 00 00 00 00 00 00 00 00 00 00 00 00 00 00
       0.0 0.0 0.0 0.0
000180 00 00 00 00 00 00 00 00 00 00 00 00 00 00 00 00
       0.0 0.0 0.0 0.0
000190 00 00 00 00 00 00 00 00 00 00 00 00 00 00 00 00
       0.0 0.0 0.0 0.0
0001a0 00 00 00 00 00 00 00 00 00 00 00 00 00 00 00 00
       0.0 0.0 0.0 0.0
0001b0 00 00 00 00 00 00 00 00 00 00 00 00 00 00 00 00
       0.0 0.0 0.0 0.0
0001c0 00 00 00 00 00 00 00 00 00 00 00 00 00 00 00 00
       0.0 0.0 0.0 0.0
0001d0 00 00 00 00 00 00 00 00 00 00 00 00 00 00 00 00
       0.0 0.0 0.0 0.0
0001e0 00 00 00 00 00 00 00 00 00 00 00 00 00 00 00 00
       0.0 0.0 0.0 0.0
0001f0 00 00 00 00 00 00 00 00 00 00 00 00 00 00 00 00
       0.0 0.0 0.0 0.0

value_heads.value_heads.extrinsic.weight f4 [1, 128]
000000 e0 92 31 be 70 43 11 be 00 09 e5 3d 30 a8 0a 3c
       -0.17341185 -0.14185882 0.11183357 0.008462951
000010 c2 b0 19 3e c4 b6 31 3e 28 58 37 be cc 92 33 3e
       0.15008834 0.17354876 -0.17904723 0.17536467
000020 ac 1f 09 3e e0 bd a7 3d a4 a6 e6 bd 88 96 c6 bd
       0.13390988 0.08190513 -0.11262253 -0.0969668
000030 d0 3b 13 3d e4 35 45 be ee e4 1f be 96 88 21 3e
       0.035945714 -0.19258839 -0.15614673 0.1577476
000040 cc c3 c8 bd 9c 23 50 be 9a 66 9a bd ca c3 10 3e
       -0.0980297 -0.20326084 -0.07539101 0.14137188
000050 a4 e3 00 bd fd e1 cb bd 38 c8 6b 3d 0f f9 12 be
       -0.031467095 -0.09955213 0.05756399 -0.14352821
000060 1c c6 c4 3d 1b c4 35 be 56 5e 3e 3e f0 9a 1a 3d
       0.09608099 -0.1775059 0.18590674 0.037745416
000070 66 c0 35 be 96 5a 3f 3e 80 e7 c7 bb 58 fa 68 3d
       -0.17749175 0.186869 -0.006100595 0.05687937
000080 6e a7 57 3e e0 75 f3 3d 12 4f 14 3e 5e 6b 5b 3e
       0.21059963 0.11887717 0.14483288 0.21427676
000090 00 ae c6 39 b8 69 41 3e 24 37 0e 3e 6d 51 bd bd
       0.00037895143 0.18887985 0.13888222 -0.09244046
0000a0 74 68 29 be 78 b5 81 3d 44 6f 15 bd 1c cc 5a 3e
       -0.16543752 0.063334405 -0.036483064 0.21366924
0000b0 61 dd 29 be c3 f3 4b be 50 1d 4d 3e 60 e9 40 3d
       -0.16588356 -0.19917206 0.20030713 0.047097564
0000c0 24 7a d0 3d a4 f7 2d 3e 1e df 26 3e f0 9e 15 bc
       0.101795465 0.16988999 0.1629605 -0.009132132
0000d0 9a 18 40 3e 54 00 5c 3e 18 f7 03 3e 5c f8 33 be
       0.18759385 0.214845 0.12887228 -0.1757521
0000e0 98 31 4f be f8 e9 5b 3d 08 ff 0e 3d 50 55 5a bc
       -0.20233762 0.053689927 0.034911186 -0.013326004
0000f0 16 7f 37 3e 4b 32 ba bd 50 40 7b 3c 5c 60 d3 3d
       0.17919573 -0.09091624 0.0153351575 0.103211135
000100 84 93 ae 3d 08 5c 53 bd d0 9f c1 bc 50 64 fe 3d
       0.0852423 -0.05160144 -0.023635775 0.12421477
000110 00 5f 7e bd b2 56 36 3e e6 e7 d2 bd d0 b3 13 3e
       -0.062102318 0.17806509 -0.10298137 0.14424062
000120 e8 43 38 3e 43 e8 3c be 90 a5 26 bc 1e ca 53 3e
       0.17994654 -0.18447976 -0.010171309 0.2068257
000130 38 10 7f bd 73 ac 53 be dc b8 a4 3d 70 c8 92 3c
       -0.062271327 -0.20671253 0.08043072 0.017917842
000140 e8 b1 bd bc d8 08 c0 3d c4 87 38 be 98 b9 23 3e
       -0.023156121 0.09376687 -0.1802054 0.15988767
000150 90 6d c3 3c d6 49 2a 3e 20 17 db bc ce 4a 11 be
       0.023855954 0.16629729 -0.026744425 -0.14188692
000160 b4 2b 93 bd a0 dd a9 3c 0c d6 64 bd 46 6f 08 3e
       -0.0718607 0.020735562 -0.055868194 0.13323697
000170 d8 98 c6 3d 80 f0 a4 3c 60 3c 19 3d fc d8 ed 3d
       0.096971214 0.02013421 0.037411094 0.11613652
000180 da 68 03 be 90 20 5b 3c 88 7a be bc 80 48 d8 3b
       -0.12832966 0.013374463 -0.023251787 0.0066004395
000190 26 08 a8 bd a7 8c 11 be f0 d7 f6 3c a8 78 94 3d
       -0.08204679 -0.14213811 0.030132264 0.07249576
0001a0 61 61 c4 bd 50 bf 37 3e 98 b8 3c 3e e0 72 bc bb
       -0.09588886 0.17944074 0.18429792 -0.005750999
0001b0 38 91 ed 3d 54 43 89 bd 22 3c 50 3e 86 38 5c be
       0.11599964 -0.06702295 0.20335439 -0.21505937
0001c0 18 b4 a2 bc c4 db 99 bd 38 e5 f7 3d dc 56 28 3e
       -0.019861266 -0.0751262 0.12104267 0.16439384
0001d0 00 59 5f 3d 3e 96 57 3e 58 8b dd bc 88 2f e6 3d
       0.054528236 0.21053407 -0.027043983 0.112395346
0001e0 08 8d 48 3d 9a 08 35 3e ba 4d 2f 3e 54 e2 8f 3d
       0.048962623 0.17679062 0.17119494 0.070255905
0001f0 c5 b9 d8 bd 64 16 e5 3d 73 8e ba bd d8 97 8f bd
       -0.10582308 0.11185911 -0.09109201 -0.07011384
